solution/actor2.pth (torch, 68555 bytes, 26 tensors)

layer_1.weight f4 [128, 24]
000000 5c 53 81 be f2 40 ca 3e 57 16 6c be b7 69 0a 3d
       -0.2525891 0.39502674 -0.23055397 0.033792224
000010 fb 09 db 3e 2f 45 e2 be 98 0e 81 be 05 90 f7 bd
       0.42781052 -0.44193408 -0.25206447 -0.120880164
000020 4e f6 68 3b bf 47 ae 3e b2 34 62 3e 2a 41 9b 3e
       0.00355472 0.34039113 0.22090414 0.30323154
000030 9b f1 d6 3e f7 c4 da be b8 e3 4f 3e 8d 7e 54 3e
       0.41981205 -0.42728397 0.20301712 0.207514
000040 73 fa b9 bd 52 a4 2b 3e a4 6a 8a bc 71 36 36 be
       -0.090809725 0.16761902 -0.016896553 -0.17794205
000050 00 48 75 3e eb b0 9f 3e b1 b4 cd bd e5 56 62 bd
       0.23953247 0.31189665 -0.1004423 -0.05525865
000060 1d 4a e9 3c f4 bc 21 3d 27 15 cc bb d8 05 d1 3e
       0.028477723 0.03948684 -0.0062281075 0.4082477
000070 c9 56 bd 3e f7 b6 de 3f 9b cd ef 3d 0e 2c b8 3e
       0.36980274 1.7399586 0.11709138 0.3597111
000080 1c ce a0 bd b5 96 a7 3d 3d a1 bc bc 9d ee ac 3d
       -0.07851812 0.08183042 -0.023026103 0.08443949
000090 93 2d a4 bc 10 2a db 3f ab b0 4a 3d 74 19 0b 3e
       -0.020041263 1.7122211 0.04948489 0.13583928
0000a0 ae 9f 3c be 98 ae 14 3e bc b2 e4 3d 00 c2 33 3e
       -0.18420288 0.14519727 0.111669034 0.17554474
0000b0 77 8d 98 be 6b 31 ba 3f e1 fd 0a 3e 70 d0 a1 3e
       -0.2979543 1.4546331 0.1357341 0.31604338
0000c0 9c 0a 0b 3d 65 14 d4 3e fe f9 f7 3d de e7 e7 bd
       0.033945665 0.4142181 0.12108229 -0.11323522
0000d0 f2 bc 87 3d b4 04 b1 bf 80 9e 3f 3e 09 9c a1 bc
       0.06627835 -1.382956 0.18712807 -0.019727724
0000e0 de a4 d2 3e 43 cd b0 3e 40 7c 05 3d 09 a6 b0 bb
       0.4114141 0.34531602 0.032589197 -0.0053908867
0000f0 5e ff 18 bd 5e 8a 63 bf 59 30 ba 3d b3 5f 1b 3d
       -0.037352912 -0.88883007 0.09091253 0.037933063
000100 2d f6 3d 3e 9d 4b 84 3d 44 a6 1c be be 3b 14 be
       0.1855094 0.064597346 -0.152978 -0.14475915
000110 02 18 ac be 98 30 e1 3d dc 24 25 be 2f f6 4b be
       -0.33612067 0.10995597 -0.16127342 -0.1991813
000120 ab 0f b4 3d b4 06 25 bf 1c f8 35 bd ba 18 03 bf
       0.08792051 -0.64463353 -0.04442607 -0.51209605
000130 8b 55 5e bf c9 1e ca be e9 3a e7 bc ea 2e f3 be
       -0.8684928 -0.39476612 -0.028226333 -0.4749673
000140 64 93 dd 3e 28 6d 0e bf 0f 86 08 bd ba c2 1a be
       0.43276513 -0.5563531 -0.033330973 -0.15113345
000150 59 a1 44 bf cd 68 9b bd 50 29 20 3d 1d 96 44 be
       -0.76808697 -0.075883485 0.0391019 -0.19197889
000160 4f 37 40 3f 59 ea 0f bf 1e aa 02 3b 43 ce 10 3e
       0.75084394 -0.5621696 0.0019937824 0.14141183
000170 2c b9 3c bf d1 87 fb 3e a1 4d c9 bc 69 30 6e 3e
       -0.7372005 0.49127057 -0.02457315 0.23260655
000180 d5 4d 09 bf 9e e1 da be 32 2f db bc c3 13 76 be
       -0.5363439 -0.42750257 -0.026755903 -0.24030976
000190 d2 17 87 be 76 68 32 be 9f 30 3c 3d 1d 91 86 be
       -0.2638536 -0.17422661 0.045944806 -0.26282588
0001a0 79 f3 12 bf 5e 7e f0 be 7a 64 90 bd e4 67 28 be
       -0.5740276 -0.4697141 -0.070504144 -0.16445881
0001b0 72 ff 0d be 5f 9e d1 3e 1d 26 0b be 26 01 02 be
       -0.13866976 0.4094114 -0.13588758 -0.1269575
0001c0 79 ee 0e bf 43 38 6f be 7d 2c 80 3e eb b7 f1 3e
       -0.5583263 -0.23361306 0.25033942 0.4721063
0001d0 ad 88 27 be 47 9e 82 3f 82 e6 10 3e ab 52 11 3f
       -0.16360731 1.0204552 0.14150432 0.56766766
0001e0 b4 81 76 3d eb 32 a5 3c d9 60 13 be 83 1d bb 3d
       0.06018229 0.020165881 -0.14392413 0.09136488
0001f0 4b 7f db bc b7 b6 90 be 5b 89 2d bd 3b 5c 0d 3e
       -0.026794096 -0.282644 -0.04236732 0.13804714
000200 a3 98 59 be 25 16 56 be 58 75 0b be 9c 37 47 be
       -0.21249633 -0.20906885 -0.13618982 -0.19454807
000210 6c d9 95 be 7e eb 4a 3f be e8 7a be 0d 22 03 be
       -0.29267442 0.7926558 -0.24502847 -0.12805958
000220 36 4d 7e be c0 db 6c be 5b 39 f1 bd f8 a9 20 3d
       -0.24834141 -0.23130703 -0.11778518 0.039224595
000230 1f 56 17 bf 27 12 b9 3f 0e 93 ea bc 5a 5c e5 3d
       -0.59115785 1.4458665 -0.028634574 0.11199255
000240 c9 b8 41 bd 42 35 0e be bd 70 89 3d 54 49 06 bf
       -0.047295365 -0.13887504 0.06710956 -0.5245564
000250 a2 98 b9 be c5 9e 3a 3f c7 d2 14 bd d3 7d f3 be
       -0.36249262 0.72898513 -0.036333825 -0.47556934
000260 2a 21 1e 3e a1 cb 9a bd 71 ce a7 bd 8c 7c 06 3f
       0.15442339 -0.075583704 -0.081936724 0.52533793
000270 e3 a4 ce bd d8 ee 87 3f 0f 8e 1d bd 7a 07 05 3f
       -0.100900434 1.0619764 -0.038465556 0.51964533
000280 29 ea 66 3d 36 60 88 bd 86 7c 05 bd 87 13 b7 3e
       0.056375656 -0.06658976 -0.032589458 0.35757086
000290 3a 5f f2 3c 7e ea f5 3f 6d 62 22 bd 77 bc 90 3e
       0.029586423 1.9212186 -0.039644647 0.28268787
0002a0 d1 4a f9 3e 69 89 0d 3e 4a 81 45 3d b2 21 36 3d
       0.48689893 0.13821949 0.048219003 0.044465728
0002b0 57 9c d0 be 24 6f c5 bf ea d6 34 3d 88 b2 98 3d
       -0.40744278 -1.5424542 0.04415027 0.07455927
0002c0 71 c1 cb 3e 63 d3 07 be 5d 82 93 3d 66 8d df bd
       0.39796022 -0.13264231 0.07202599 -0.109156415
0002d0 6f 35 af be a1 ea 61 bf 0f 0f af 3d 7a a5 ab bd
       -0.34220454 -0.8824864 0.08547794 -0.083811715
0002e0 27 c6 8d 3e 44 41 b9 be 1d db fd bd 1d f2 fa 3d
       0.2769024 -0.36182606 -0.12395308 0.12253211
0002f0 43 80 b4 be 0f 2a 4d be fd 0c d5 3c 13 8e 0a 3c
       -0.35254106 -0.20035575 0.02600717 0.008456725
000300 85 09 19 be 61 7b 5a 3e b2 56 62 bd d8 6b e1 bd
       -0.14945038 0.21336128 -0.05525846 -0.11006898
000310 fc 56 c6 bb 02 c2 87 3f 43 d6 a6 3c be d0 df bd
       -0.00605285 1.0606081 0.02036584 -0.10928486
000320 50 aa 49 3c 24 d1 87 3e 3c b8 5a 3d 4c 71 a9 bd
       0.012308672 0.2652675 0.053398356 -0.08273563
000330 e0 56 2d bf d6 e3 83 3f 3a 81 0f bd 55 eb 50 bd
       -0.67710686 1.0303905 -0.03503535 -0.05100568
000340 62 8b 4d 3e 9e 5a 59 3e ea 68 11 3d 09 88 e7 bc
       0.20072702 0.21225974 0.035500444 -0.028263109
000350 e2 f7 d0 bf bd 2b 57 3f 06 22 1d bd 44 26 33 bc
       -1.6325648 0.84051114 -0.038362525 -0.010934416
000360 8d a5 32 3e e7 68 76 be 31 0e 7a bc 1e 48 1e be
       0.17445965 -0.24063455 -0.015262173 -0.15457198
000370 3a 32 04 bf 59 eb 4b bf e2 90 3a bd 61 6a 02 be
       -0.5163914 -0.7965599 -0.045548327 -0.12735893
000380 f5 53 63 3e 53 68 7d be d6 7a b9 39 52 bd 4a 3e
       0.22199996 -0.24746828 0.0003537747 0.19798782
000390 38 40 14 bf 73 3b 2b bf 2a 76 1f bc 2e 61 72 3e
       -0.5791049 -0.6688759 -0.009732762 0.23669884
0003a0 a0 ba 31 3f a9 f6 c9 be 11 a2 17 3d e6 f9 12 bf
       0.6942539 -0.39446 0.037019793 -0.57412565
0003b0 00 29 d8 be af a9 77 be e1 b9 42 3d da 40 18 bf
       -0.4221878 -0.24185823 0.04754055 -0.59473956
0003c0 fa 16 16 3f d1 eb f0 bd 03 6b ac 3d 61 8a 6c 3c
       0.5862881 -0.117637284 0.08418848 0.014437289
0003d0 b3 77 a6 be fd 61 0a 3f 39 bf 7e 3d 3a 58 45 bd
       -0.32513198 0.5405577 0.062194083 -0.048179843
0003e0 5c d1 e5 3e cb 69 47 bd 84 df 35 be 4f ef d8 3d
       0.4488629 -0.048684876 -0.17761046 0.105925195
0003f0 cb a9 5d be 3c 2a 5a 3f b6 29 79 be 4b ee bf 3d
       -0.21646802 0.85220695 -0.24332318 0.09371623

layer_1.bias f4 [128]
000000 06 ae dc bd 1f 4d 54 3c 64 58 1e bc 14 4b e4 3c
       -0.1077538 0.01295784 -0.009664629 0.027867831
000010 44 9b fb bd 46 63 43 bd 71 68 61 bc 89 b5 d7 3c
       -0.12285474 -0.047702096 -0.013757811 0.02633168
000020 66 fe fe 3d 6d f0 50 3e 67 38 08 3e 9a 38 ab 3d
       0.124508664 0.20404215 0.13302766 0.08360405
000030 51 a0 ec bd c2 72 32 be 1d 11 12 be 99 c8 80 3d
       -0.115540154 -0.17426589 -0.1426434 0.06288261
000040 3f 47 2a bd bf 0f 31 3e b9 c9 8a bd 66 a3 0e bd
       -0.04157185 0.17291163 -0.06776757 -0.034823798
000050 6b 00 45 3d fb 90 01 bd 23 85 4b be 09 75 bb 3d
       0.0480961 -0.031632405 -0.19875006 0.09153182
000060 40 cb 37 3e ac 48 ac 3c bc c9 8a 3d 5b 47 be bd
       0.17948627 0.021030746 0.06776759 -0.09290954
000070 24 5f d6 bd 3c 6a 12 be 5f c7 48 bd 37 4d 84 bd
       -0.104673654 -0.14298338 -0.04901826 -0.0646004
000080 af 55 4f be a6 4a 1c be 2c 5f d3 3d 3a 70 3a be
       -0.2024753 -0.15262851 0.10320887 -0.18206874
000090 19 be 1c 3e 14 d1 07 be 76 50 3b 3d bd 56 ee 3d
       0.15306892 -0.1326335 0.04573103 0.11637638
0000a0 80 2c 00 be c0 a1 17 3e f3 ec 90 bd aa 00 24 3e
       -0.12516975 0.14807796 -0.070764445 0.16015878
0000b0 64 50 09 3e 53 ff 17 bd 02 23 10 3d 66 e8 17 be
       0.13409573 -0.03710873 0.035189636 -0.14834747
0000c0 d9 3d 1d bd 99 c0 15 3e aa ae 95 bd ca d4 d2 3d
       -0.03838906 0.14624251 -0.07308705 0.102944925
0000d0 19 f5 ff bd 95 e6 b1 3d b1 d8 d5 3d c4 6f f5 3d
       -0.124979205 0.08686558 0.10441721 0.11984208
0000e0 4f 9a 91 bd 7c e9 29 bd cc 2a 41 3d 6d 9a 1c be
       -0.0710951 -0.041482434 0.047159955 -0.15293284
0000f0 be cb 1f 3e ba 4f 60 bd 32 18 16 bc 6a 22 3d 3e
       0.15605065 -0.054763533 -0.009161042 0.18470159
000100 58 95 ed 3d 38 b5 04 be 79 da 98 bd 6a 58 96 bd
       0.11600751 -0.12959754 -0.07463545 -0.073410824
000110 8b b3 16 3e ae cd 2f 3e b0 a2 22 3e dd 78 99 bd
       0.14716928 0.17168304 0.15882373 -0.07493756
000120 94 56 a8 bd 89 3d c1 3d 05 3c e5 3d 37 2d c3 bd
       -0.082196385 0.09435565 0.111930884 -0.095301084
000130 95 fc 44 3e ab f8 e8 bd 11 a7 00 be 96 22 31 be
       0.19236977 -0.11375555 -0.12563731 -0.1729835
000140 21 eb 2b 3e b2 79 c8 bc 9a 27 80 bd 1a 22 e9 bd
       0.16788913 -0.024472091 -0.062575534 -0.113834575
000150 b9 cf 47 bd 75 b6 80 bd 82 c1 23 bb f0 49 b1 bd
       -0.048782084 -0.06284801 -0.0024987166 -0.086566806
000160 7c bc b0 3d 0d 12 0e 3e 3e fc 3f 3e f0 00 1e be
       0.086297005 0.13874073 0.18748567 -0.15430045
000170 0b ef 47 bc 27 c7 4e 3e 2c 24 4d 3e 23 b3 d3 bd
       -0.012202988 0.20193158 0.2003333 -0.10336902
000180 f6 c2 5f 3d d1 f3 0e 3e 97 ca d5 3d 5a ef 28 bd
       0.05462929 0.13960196 0.104390316 -0.04124389
000190 e1 98 ef 3d c8 a6 3a 3e 89 e6 4c bd 14 c7 34 bb
       0.11699081 0.18227684 -0.050024543 -0.002758448
0001a0 a4 c9 c1 3d 93 28 a8 3d d8 98 2d bd 3e e3 aa 3b
       0.09462288 0.08210864 -0.04238209 0.0052150777
0001b0 1b 2f 46 be 91 7e 32 bd 6f 78 f9 bd 86 65 03 3e
       -0.19353907 -0.043577734 -0.12181174 0.12831697
0001c0 97 44 ff 3d 7a 48 ce 3d b4 84 2f bc 2b d0 17 3e
       0.12464254 0.100724176 -0.010712791 0.14825504
0001d0 ee fb dc bd 3e 5c 08 3d e7 d5 aa 3c c6 8c 68 3b
       -0.10790239 0.033291094 0.02085395 0.0035484298
0001e0 90 0a 01 3e 82 b7 43 bd 35 e6 4f 3e fe 79 4f 3e
       0.12601686 -0.04778243 0.20302661 0.2026138
0001f0 8b 3b 94 3b d4 d2 49 be 4a 42 b1 3d 38 da 7f 3b
       0.0045236996 -0.19709331 0.08655222 0.003903998

batch_norm_1.weight f4 [128]
000000 27 fa 10 3f 62 94 8d 3f b8 4b 0c 3f 30 6a 56 3f
       0.566317 1.1060908 0.5480304 0.8375578
000010 25 8c 4d 3f 48 d8 3d 3f 7c b0 92 3f 9b fd de 3e
       0.8029197 0.74158144 1.1460109 0.4355286
000020 69 7e 9d 3f 20 55 4b 3f ae bd fa 3e 55 35 86 3f
       1.2304202 0.79426765 0.4897284 1.0485026
000030 42 0a 8c 3f 43 50 20 3f d9 6b 25 3f 76 b8 3d 3f
       1.094063 0.6262247 0.6461769 0.7410959
000040 fb 48 b0 3f 3f 45 17 3f a2 0e 4a 3f c3 37 99 3f
       1.3772272 0.59090036 0.7892858 1.1970142
000050 b8 ab 35 3f ed 77 3b 3f e2 4c 25 3f ad d6 c7 3f
       0.70965147 0.7322987 0.6457044 1.5612389
000060 e6 88 27 3f 76 ab b4 3f 07 8b 05 3f 08 5f f2 3e
       0.65443265 1.4114826 0.52165264 0.47338128
000070 86 26 52 3f ea bc 20 3f aa b7 50 3f 01 d3 87 3f
       0.8209003 0.6278826 0.8153025 1.0611268
000080 fe 1b 44 3f 61 3b 66 3f e5 68 16 3f 3b 34 74 3f
       0.7660521 0.89934355 0.58753806 0.953922
000090 fe 6c dc 3e 7f ed c6 3f 6b af 67 3f 02 73 50 3f
       0.43051904 1.5541228 0.9050204 0.8142549
0000a0 75 83 41 3f 08 5b 5b 3f ed 1b c4 3e 80 b9 0c 3f
       0.7559121 0.8568578 0.38302556 0.5497055
0000b0 25 1b 0a 3f 8d f6 90 3f c2 6f ac 3f e2 b9 54 3f
       0.5394767 1.1325241 1.3471606 0.83096135
0000c0 ed 85 5f 3f b7 05 3a 3f 20 d4 85 3f 6b 4c cc 3f
       0.8731373 0.7266497 1.045536 1.5960821
0000d0 69 e4 12 3f 1a d0 57 3f b6 4b a3 3f f5 f0 45 3f
       0.57379776 0.8430191 1.275748 0.77320796
0000e0 b6 d9 7c 3f 4a 2a 42 3f 48 87 0d 3f c8 49 37 3f
       0.987697 0.7584578 0.5528455 0.71596956
0000f0 37 65 17 3f 50 93 4d 3f 4c bc 4b 3f 7e 84 58 3f
       0.59138817 0.80302906 0.79584193 0.8457717
000100 e8 db 22 3f 2e 45 13 3f af 0d 7d 3f ec 58 16 3f
       0.636168 0.57527435 0.98849005 0.58729434
000110 cd f1 93 3f 1d 29 69 3f d4 97 a3 3f bf a9 04 3f
       1.1558167 0.9107836 1.2780709 0.5182151
000120 4a 05 a0 3f 03 57 16 3f 5a 87 bd 3f 3a db 25 3f
       1.2501614 0.5872652 1.4806931 0.6478764
000130 51 74 8a 3f 13 14 37 3f 1e c6 4a 3f d2 cd 02 3f
       1.0816747 0.71515006 0.7920855 0.51095307
000140 94 94 0e 3f a9 a2 8d 3f 47 c6 91 3f 35 fa 9c 3f
       0.5569546 1.1065265 1.1388634 1.2263857
000150 f8 9b a8 3f 00 b8 5a 3f 99 e4 2a 3f ae 4c 3c 3f
       1.3172598 0.8543701 0.6675506 0.73554504
000160 61 7a 66 3f ce 60 9e 3f 98 df a7 3f 5b d5 4a 3f
       0.90030485 1.2373292 1.311511 0.79231805
000170 a7 fd 47 3f b6 42 84 3f 4b d2 27 3f b1 9a de 3e
       0.7812142 1.0332859 0.65555257 0.43477395
000180 a8 d6 4c 3f 01 9b 6e 3f e1 3f b1 3f e9 37 44 3f
       0.8001504 0.9320527 1.3847619 0.7664781
000190 ad 91 db 3f fc 1b 75 3f 4b 42 63 3f 39 52 a1 3f
       1.7153832 0.95745826 0.8877303 1.2603217
0001a0 ba 46 21 3f b0 2c 8a 3f 3b 01 b6 3f 81 5a 9c 3f
       0.62998545 1.0794888 1.4219126 1.221512
0001b0 b1 ce c5 3e d2 63 36 3f 46 5b 34 3f cb 4d 09 3f
       0.38634256 0.71246064 0.7045177 0.5363433
0001c0 85 2c e0 3e 76 65 44 3f 71 77 01 3f f7 0c 24 3f
       0.43783966 0.7671732 0.5057288 0.6408228
0001d0 ec bb 1f 3f 5e a3 0b 3f 4f 9a 07 40 13 ee 52 3f
       0.6239612 0.54546154 2.1187932 0.8239452
0001e0 3a 00 0e 3f ee b5 6c 3f f3 3b 64 3f ad 5e d4 3e
       0.55469096 0.924651 0.89153975 0.41478482
0001f0 d2 85 84 3f ef 02 f8 3e 51 05 1d 3f af dd fe 3e
       1.0353339 0.48439738 0.6133624 0.49778506

batch_norm_1.bias f4 [128]
000000 1d 97 4e bf 12 49 88 be 6c 28 23 bf a5 c5 e6 be
       -0.8069933 -0.26618248 -0.63733554 -0.45072666
000010 75 14 d3 be 68 28 ff bd 18 35 59 be 59 86 26 bf
       -0.41226545 -0.12458879 -0.2121166 -0.6504875
000020 c5 91 05 bf e7 c1 ed be 58 f5 21 bf ba bb 82 be
       -0.5217555 -0.46436998 -0.6326499 -0.2553385
000030 ae 1a ae bd 59 ae 0c bf d9 3a 0e bf 2e d3 9e be
       -0.085011825 -0.54953533 -0.55558544 -0.31020492
000040 6f fd 1d be 26 df 1c bf 98 c3 44 be 8d 06 1b 3e
       -0.15428708 -0.61278 -0.19215238 0.15139218
000050 fa 28 98 be 35 71 08 bf f8 b0 f1 be 73 a1 09 3d
       -0.29718763 -0.5329774 -0.4720533 0.033601236
000060 75 72 21 be dc 99 8b 3d d7 ff 20 bf b2 d6 3d bf
       -0.15766318 0.06816456 -0.6289038 -0.74155724
000070 a2 cc 1d bf b8 4a 01 bf 72 5c 94 be 3a a1 de be
       -0.6164037 -0.50504637 -0.2897678 -0.4348238
000080 77 e1 97 be 43 a7 f3 be 23 3a bf be 95 53 91 be
       -0.29664204 -0.47588548 -0.37349042 -0.2838408
000090 47 f1 d3 be ec 45 31 be a9 d7 b0 be 86 9a e7 be
       -0.41395018 -0.1731183 -0.34539536 -0.4523508
0000a0 72 71 6c be de 5f b1 be e0 e5 8c be 26 67 08 bf
       -0.23090151 -0.34643453 -0.2751913 -0.5328239
0000b0 e2 d5 07 bf e2 16 19 bf 06 3f 9b be db d6 88 be
       -0.53060734 -0.5980054 -0.3032152 -0.26726422
0000c0 31 c1 01 bf 91 28 ab be 34 66 7c be 4b b6 cd 3e
       -0.5068541 -0.33429387 -0.24648362 0.4017814
0000d0 45 13 0d bf 85 e3 a8 be aa 68 e2 be 98 70 1f bf
       -0.5510753 -0.32986084 -0.44220477 -0.6228118
0000e0 92 89 05 bf f5 0b 05 bf 23 65 bc be 5e ab 1f bf
       -0.5216304 -0.5197137 -0.3679591 -0.6237086
0000f0 39 59 09 bf 5c 78 1a bf 1b e2 86 be 15 8a a8 be
       -0.5365177 -0.60339904 -0.2634438 -0.32917848
000100 9a c8 1a bf 40 a5 1f bf 53 d1 bf be 7a b8 1b bf
       -0.60462344 -0.62361526 -0.3746439 -0.60828364
000110 36 4c c9 be 25 e0 ec be bb 3d 74 be 64 c6 2f bf
       -0.39315957 -0.4626476 -0.23851673 -0.68662095
000120 7f 79 fb be a9 b8 01 bf 65 6c 73 bd ad 8f de be
       -0.49116132 -0.50672394 -0.059429545 -0.4346899
000130 e5 cb a4 be 0d 07 0c bf bb cc 0e bf f6 03 2d bf
       -0.3218681 -0.5469826 -0.55781144 -0.6758417
000140 25 8d 2f bf d4 8e 37 be d3 cd 86 3c f2 2c 1d be
       -0.68574744 -0.17925578 0.016455567 -0.15349177
000150 6e 57 98 be b8 df 25 bf c6 cf 06 bf ba 92 1f bf
       -0.29754204 -0.6479449 -0.5266079 -0.6233326
000160 f7 64 a4 be 95 57 6d be 10 d9 ce be 80 5f 14 bf
       -0.3210828 -0.23177941 -0.4039998 -0.5795822
000170 79 e6 dd be 65 09 fc bc 99 32 f2 be 3c c9 2c bf
       -0.433399 -0.030766198 -0.47304228 -0.6749456
000180 ee 5e 08 bf bd de 54 be 56 46 bf be 68 df 18 bf
       -0.5326985 -0.20788093 -0.3735835 -0.5971589
000190 55 c4 c8 bd a8 53 d7 bc a5 1a 1f bf c1 6b 5e be
       -0.09803072 -0.026285008 -0.6215003 -0.21720792
0001a0 88 f5 1f bf 13 30 18 be 1d 7e 74 bd 43 1e 4c 3e
       -0.62484026 -0.14862089 -0.059690583 0.19933419
0001b0 51 c4 12 bf a6 c4 f0 be e3 57 a5 be 1d 12 3d bf
       -0.57330805 -0.4702503 -0.32293615 -0.73855764
0001c0 fc d7 09 bf a7 2d 0a bf a5 f4 fe be 92 c5 ba be
       -0.5384519 -0.5397591 -0.49796024 -0.3647886
0001d0 26 59 ad be c9 e3 1d bf 76 0a ff 3d e3 4e 06 bf
       -0.33857077 -0.616757 0.12453167 -0.5246412
0001e0 9d c8 59 be 91 48 db be 75 1e 60 bf 58 72 9f be
       -0.21267934 -0.428288 -0.87546474 -0.31141925
0001f0 d2 71 78 3d 0f dd 94 be bd 4c 0e bf aa 66 40 bf
       0.060655423 -0.29074904 -0.55585843 -0.7515665

batch_norm_1.running_mean f4 [128]
000000 80 d6 83 bf 6c 8c a9 41 05 89 44 c1 a5 1b 05 c1
       -1.0299835 21.193565 -12.283452 -8.319249
000010 77 6b 89 41 9f 0b 00 41 cd 22 42 41 6e a6 87 c1
       17.177473 8.002837 12.133496 -16.956264
000020 8c 83 2d 41 f5 2d 54 c1 df 2e 46 c0 ad 8b b7 c1
       10.844616 -13.26122 -3.0966108 -22.943201
000030 dd 09 4a 41 c8 c4 fe 40 b6 22 15 3f 20 a4 46 c1
       12.627408 7.961521 0.5825609 -12.41507
000040 39 7e 02 41 25 1e 25 c1 c0 3a 00 bf 08 8a 6c c1
       8.155816 -10.3198595 -0.50089645 -14.783699
000050 02 51 67 41 07 28 a3 40 e5 1f 06 41 dc b5 a2 40
       14.457277 5.098636 8.382787 5.0846996
000060 4d 47 43 41 a0 37 15 c0 f2 63 a9 3f 5f de 9c c1
       12.204907 -2.33152 1.3233626 -19.60858
000070 26 dd bd c0 4f e4 11 c1 af 6b 5e 40 b4 e7 c6 be
       -5.9332457 -9.118239 3.4753225 -0.3884865
000080 a1 7f b8 40 58 41 fe 40 b0 aa ab 3f d7 7f 82 41
       5.7655797 7.9454765 1.3411465 16.312422
000090 76 aa 3e 41 e6 3d 9f 40 89 07 9b c1 56 f0 ba 40
       11.916616 4.976306 -19.37868 5.841838
0000a0 a1 9b 88 41 21 11 22 41 55 1a 5c 41 27 6b 10 c0
       17.07599 10.129182 13.756429 -2.25654
0000b0 0b 3c e7 bc 92 c9 39 41 0d 19 81 c1 e1 84 9e bf
       -0.028226873 11.6117115 -16.137232 -1.2384301
0000c0 04 78 48 41 aa 57 57 41 26 a1 c6 be a2 32 b6 c1
       12.529301 13.458902 -0.38794822 -22.774723
0000d0 42 32 07 40 f7 6a 73 40 06 e6 a9 c1 48 de 1c c1
       2.1124425 3.8034036 -21.237316 -9.804268
0000e0 6b 69 c3 40 85 78 2c 41 fb 2c 1c 41 24 04 07 c1
       6.1066184 10.779424 9.760982 -8.438511
0000f0 d6 ed 9d 40 2f 15 29 41 b5 fb 17 c1 f8 cc 08 41
       4.9352827 10.567672 -9.498952 8.550041
000100 1c 96 d4 3e bb ad 5b 40 1a 52 ab c1 55 3c 41 c1
       0.41520774 3.4324787 -21.415089 -12.0772295
000110 66 33 d9 40 f0 88 8a c1 93 07 4a 41 6a 9d a2 c0
       6.787524 -17.316864 12.626849 -5.0817156
000120 a0 2c d9 c0 80 9d ac bf f5 d7 2d 3f 73 cc 42 41
       -6.7866974 -1.3485565 0.6790765 12.174914
000130 a5 79 88 41 d8 61 f8 40 40 f8 d8 40 f8 9f 9b 3f
       17.059397 7.761944 6.780304 1.2158194
000140 de f4 7b 3f 33 84 04 40 0e c9 a7 41 ce 0f b5 c1
       0.9842051 2.0705688 20.973171 -22.632717
000150 15 6b 95 c1 7c 8e c8 c0 0d c5 31 41 bc 67 15 bf
       -18.677286 -6.267393 11.110608 -0.5836141
000160 f5 ba 95 c0 1e 43 b4 40 ec db 33 41 90 5f c6 c0
       -4.679072 5.633193 11.241192 -6.1991653
000170 6a 7d 72 c1 96 b3 43 3f 70 ab 6f 41 42 b6 19 c1
       -15.155619 0.764459 14.979355 -9.606997
000180 12 3e d4 bf 36 b6 9e c1 83 9d c9 40 3e b3 8d 40
       -1.6581442 -19.83897 6.3004775 4.42813
000190 c0 43 b0 c0 26 be 52 40 56 22 20 c1 63 21 e4 c0
       -5.5082703 3.2928557 -10.008383 -7.1290755
0001a0 29 c2 ad c0 2f 0c c3 c1 30 73 a9 c1 ab 74 6b 41
       -5.429951 -24.380949 -21.181244 14.715983
0001b0 2b 22 ee c0 be 5a 01 c1 8b 42 d1 40 35 27 4a 40
       -7.441671 -8.084654 6.539373 3.158643
0001c0 95 53 32 41 c4 f0 86 3f bc de 13 41 92 fa c6 bf
       11.145406 1.0542226 9.2418785 -1.5545218
0001d0 7a 38 54 41 45 63 6c c0 a9 dc 19 40 bb b9 d3 40
       13.263788 -3.693559 2.404093 6.616422
0001e0 27 cd 14 41 fb 13 80 3f 79 48 c7 40 24 ec 84 41
       9.300086 1.0006098 6.2275968 16.615303
0001f0 51 43 3c 41 2e 63 f1 40 95 d2 34 c0 29 1f 99 3f
       11.766435 7.543357 -2.825353 1.1962634

batch_norm_1.running_var f4 [128]
000000 24 c8 4f 43 78 85 0b 43 a7 2b 00 43 90 a2 8b 43
       207.7818 139.52136 128.17052 279.27002
000010 62 38 08 43 d6 a0 31 43 70 2c c8 42 6d 76 07 43
       136.22025 177.62827 100.08679 135.4626
000020 96 5a 65 43 1b 29 1a 43 ed dc 0d 43 76 4a 9c 42
       229.35385 154.16057 141.86299 78.14543
000030 94 7d 14 43 1d 83 d2 43 ef a2 cc 42 1f 84 5f 43
       148.49054 421.02432 102.31823 223.5161
000040 a3 43 51 43 33 aa 21 44 4f 12 8c 43 1f 14 77 42
       209.2642 646.65936 280.14304 61.76965
000050 f0 be 5f 43 8b 2e 4d 43 64 57 1d 43 b1 a5 df 43
       223.74585 205.18181 157.34137 447.29446
000060 0d 4d 1e 43 18 54 b2 43 98 f6 7e 43 92 40 0a 43
       158.30098 356.65698 254.96326 138.25223
000070 7e 31 c5 42 c4 3c f1 43 d8 ea 2f 43 52 ce 28 42
       98.596664 482.47473 175.91736 42.201485
000080 f5 ba 5d 43 82 f0 0d 42 a0 64 e7 43 85 6c 34 43
       221.7303 35.48487 462.78613 180.4239
000090 b6 3d 9f 43 76 8e 84 43 fc 9b cc 42 23 31 5a 43
       318.48212 265.11298 102.30466 218.19194
0000a0 36 be e8 43 aa 73 41 43 c6 12 2e 43 16 d2 50 43
       465.48602 193.45181 174.07333 208.82065
0000b0 aa 02 df 43 bc 71 1c 43 eb 13 74 42 b4 b7 e9 42
       446.0208 156.44427 61.01945 116.858795
0000c0 81 e0 1c 43 92 6d 17 43 3d e6 c4 43 4c bb 9e 42
       156.87697 151.42801 393.79874 79.365814
0000d0 f0 5c a2 43 62 cf 48 43 d7 5c a2 42 36 3a 3a 43
       324.72607 200.81009 81.18133 186.22739
0000e0 75 2a c2 42 2d fb b3 43 21 4e 92 43 c5 0c bd 42
       97.082924 359.9623 292.61038 94.52494
0000f0 fe cd 18 43 e2 4e eb 42 0e 67 23 43 d7 b0 b2 42
       152.80466 117.65407 163.40256 89.34539
000100 98 98 37 43 e2 d7 dd 42 3b 69 8f 43 9f 19 d8 42
       183.59607 110.921646 286.8221 108.05004
000110 6f 35 1f 43 a6 4b 7b 43 ce 93 6c 43 82 9f c7 43
       159.20872 251.2955 236.57736 399.24615
000120 f7 b8 d7 42 56 36 35 43 93 c5 d5 42 5b b3 42 43
       107.86126 181.21225 106.88589 194.7006
000130 3f 92 4c 43 7d af c4 43 4e df c7 42 62 e8 d2 43
       204.57127 393.371 99.93614 421.8155
000140 c4 39 20 43 07 b6 e5 43 71 9a db 42 f2 7e ca 42
       160.22565 459.4221 109.80164 101.24794
000150 d7 4f ad 42 d3 77 bc 43 e2 97 51 43 d0 6f 58 43
       86.65594 376.93613 209.59329 216.43677
000160 b5 0e c4 42 5c 81 52 43 82 ce de 42 a3 d9 01 43
       98.028725 210.50531 111.403336 129.85014
000170 58 a8 fa 42 96 5e 65 43 6d 19 e8 42 76 ee a5 43
       125.3288 229.36948 116.04966 331.86298
000180 4b 90 9b 43 1c c2 f5 42 4a 7d 01 43 74 ce 4d 43
       311.1273 122.87912 129.48941 205.80646
000190 3e 68 f1 42 fa 5e ad 42 71 87 b1 42 b5 19 bc 42
       120.7036 86.6855 88.764534 94.05021
0001a0 48 1c 78 43 3e 29 fb 42 c5 a5 a3 42 fe 6c 5d 42
       248.11047 125.58055 81.82377 55.356438
0001b0 27 09 99 43 12 45 99 43 71 8a c9 43 62 31 b9 42
       306.0715 306.5396 403.08157 92.59645
0001c0 8c f1 9b 43 e9 72 3e 42 01 ea 2a 44 9c 71 aa 43
       311.8871 47.612217 683.6563 340.88757
0001d0 b3 a0 28 43 54 80 07 43 f6 e9 53 42 8b de e3 42
       168.62773 135.50128 52.978477 113.934654
0001e0 9e 80 ba 43 f5 63 42 43 cc f3 1a 44 e6 87 9b 43
       373.00482 194.39046 619.8093 311.0617
0001f0 c6 85 4f 43 52 64 1b 43 a4 65 85 43 a8 54 8d 43
       207.52255 155.39188 266.79407 282.66138

layer_2.weight f4 [64, 128]
000000 b1 73 a0 be b6 ea b3 3d 2a 4d a8 bd 11 a2 97 3e
       -0.31338266 0.08785002 -0.08217843 0.29615834
000010 70 a3 3a bf 9c 13 3d 3e c6 56 36 3e 47 bb 4f 3e
       -0.72905636 0.18464512 0.17806539 0.20286284
000020 a1 37 52 bd 3f c4 04 3f 52 2a 79 3e 40 20 e5 3d
       -0.051322583 0.5186195 0.2433255 0.11187792
000030 c6 6e a1 bd a2 01 7f bc 82 72 6b be c8 31 01 be
       -0.078824565 -0.015564354 -0.229929 -0.12616646
000040 02 00 c1 bd 5f fd e4 bd ef 4d 13 be ec e6 18 3f
       -0.094238296 -0.11181139 -0.14385198 0.5972736
000050 c7 d5 1b 3e bd 14 16 3e bb 27 98 bd 31 26 89 be
       0.15218268 0.14656349 -0.07429453 -0.2678695
000060 c7 18 52 be b1 ba 4e be 70 c6 5e 3c 21 fd cf be
       -0.20517264 -0.20188405 0.013597116 -0.4062281
000070 06 ec 1c bf 58 29 ef 3c 5d 6a 8d bf bf 77 ec 3d
       -0.61297643 0.029194519 -1.1048084 0.11546277
000080 0e f4 3b be 00 fb 0b be 6b 63 e3 be d4 66 ed be
       -0.18354818 -0.13669968 -0.44411787 -0.46367514
000090 6b f9 d1 bd 25 d9 86 be 4a 32 16 3e 72 7d 88 3b
       -0.10252651 -0.26337543 0.14667621 0.004165345
0000a0 e5 0f 7a be b2 c6 43 bd 01 62 ab 3d ba 41 2d 3d
       -0.24420126 -0.047796912 0.08368302 0.04229901
0000b0 55 b0 b2 3b a6 3e 2b be 0d 93 59 be 7e c1 22 bf
       0.0054531493 -0.16723117 -0.21247502 -0.63576496
0000c0 e9 ee 0d be 49 d2 49 be c6 c5 05 3d 58 94 b8 be
       -0.13860668 -0.19709124 0.032659315 -0.36050677
0000d0 10 da b3 3e 04 9c 95 be 32 41 5e 3e ed d5 e3 3e
       0.35127306 -0.29220593 0.21704558 0.4449915
0000e0 03 bb c4 3e 06 75 43 3e c9 40 33 be 54 e7 35 be
       0.3842393 0.1908761 -0.17505182 -0.17764026
0000f0 38 38 00 bf 1f f9 01 3e 73 cb 19 bd fe ff 8c 3e
       -0.50085783 0.12692688 -0.03754754 0.27539057
000100 31 f5 72 3e 8f a8 c3 3e 44 e1 97 be 16 1f dd bd
       0.23726346 0.38214538 -0.29664052 -0.10796945
000110 5e af ef be 12 c2 75 be 92 23 ad 3e 58 9d 95 3e
       -0.46813482 -0.23999813 0.338162 0.29221606
000120 44 0e b5 be 09 93 94 3b 98 66 2d 3e 96 b5 7f 3e
       -0.35362446 0.0045341295 0.16933668 0.24971613
000130 a8 b2 e3 be e7 24 70 bd 6a 9d 27 3e 2f 1b 6d 3d
       -0.4447224 -0.058628943 0.16368642 0.057887252
000140 7b 0a bb 3d fa ca b6 bb 5f 5d 09 be 34 cd 2c 3e
       0.09132858 -0.005578396 -0.13414524 0.16875154
000150 7e 90 35 3e 04 45 a5 be a9 39 e3 bd 3f 2a 40 bd
       0.177309 -0.32279217 -0.11094982 -0.04691529
000160 3a 20 08 bf b7 3b bf bd 71 dc 91 3e a2 6b 3f be
       -0.53174174 -0.093375616 0.28488496 -0.18693402
000170 e3 ba ab 3e 00 f3 e9 be 98 d6 c4 3e 9b f3 c9 3e
       0.3354102 -0.45693207 0.38444972 0.3944367
000180 85 60 d2 3e a6 4a f5 3e 5b 01 40 be 62 ed 9f 3d
       0.41089264 0.47908515 -0.18750517 0.07808949
000190 1b 7f 9e bc a4 54 fc bd 7e 92 57 be 25 c6 91 3e
       -0.019347718 -0.123208314 -0.21051976 0.28471485
0001a0 4c f6 bd 3e a2 89 ee 3d 4d 5d 2b 3d 40 fa e0 bd
       0.37101972 0.11647345 0.041837025 -0.109852314
0001b0 fc 87 28 3e ed 8c 0d 3f 34 2a 5d 3e 5c 49 ea bb
       0.16458124 0.5529316 0.2159813 -0.0071498584
0001c0 fe 52 92 3e ed 4f 24 be c3 77 52 be 50 a4 a9 bd
       0.28578943 -0.16046114 -0.20553498 -0.08283293
0001d0 75 e2 06 3e df ac 0b be db 01 0f 3e d2 f4 67 3e
       0.13172324 -0.13640164 0.13965552 0.22651985
0001e0 46 01 bc bc 5c 25 55 3d 08 fd 5d bd 32 5d 54 3e
       -0.022949826 0.05203758 -0.054196388 0.20738676
0001f0 08 65 fe 3d 32 f8 d3 3e 89 f6 d3 3e b8 15 6a be
       0.12421614 0.41400295 0.4139903 -0.22859848
000200 bb 2e a6 3c 4c 25 c8 3e 13 a0 2a bc 95 cd ae 3e
       0.020285955 0.39090955 -0.010414141 0.34141222
000210 82 a7 93 3d 38 2d 90 3c 3a 7f e5 3e ef c6 21 be
       0.07209684 0.017599687 0.4482363 -0.15798543
000220 69 bd 51 3f c3 63 ac bc cd ab a0 3e e3 6e 86 bd
       0.8192964 -0.021043664 0.31381074 -0.06564119
000230 7e 4a 86 3e 3f 3a 6f be 8c 4b b4 3e b8 79 c6 3d
       0.26228708 -0.23362063 0.35213888 0.09691185
000240 19 6c b7 3d 4c 69 96 be 32 6e 30 3d 50 e6 ae be
       0.08956165 -0.2937721 0.04307384 -0.3416009
000250 82 c1 a9 bd 1d ee b2 3e 98 08 c7 bc 45 a4 78 3d
       -0.08288862 0.3494729 -0.02429609 0.060703535
000260 1d e2 c5 3e f9 75 31 3e 62 fa ab 3e 2d 5c 40 3e
       0.38649073 0.17330159 0.33589464 0.18785162
000270 03 fa 9b bd 89 94 a6 be 51 17 d1 bd 88 34 88 3d
       -0.07616045 -0.32535198 -0.102095254 0.066506445
000280 53 22 2e be a9 75 2a 3e 76 0f 24 3e 5d 2c fd 3e
       -0.17005281 0.16646446 0.16021523 0.4944791
000290 16 db 35 be b7 06 fb 3b 64 e2 18 be d7 00 b0 bd
       -0.17759356 0.0076607126 -0.14930111 -0.0859391
0002a0 74 59 5c 3e f8 3e 3b be 28 cd ba bd ea 77 e1 3e
       0.21518499 -0.1828574 -0.09121162 0.440368
0002b0 a9 5b 28 be a1 d8 8f 3e 5c bd 22 be 74 a8 95 3e
       -0.16441216 0.28094962 -0.15892547 0.29230082
0002c0 8b 6b 50 3e 2b 40 b1 3e 08 9b ba 3e 24 68 24 bf
       0.20353524 0.3461927 0.36446404 -0.64221406
0002d0 b6 38 bc 3d db d4 e3 ba 47 6f 24 3e 1e 82 e5 bd
       0.09190504 -0.0017382161 0.16058074 -0.112064585
0002e0 a7 2f 85 3e d9 ef 33 3d a2 bb f7 bd b6 2b 85 3e
       0.26012918 0.04392991 -0.12096335 0.2600991
0002f0 8d da a8 3e c4 15 92 3d b8 3f bb be 15 c8 92 3e
       0.3297924 0.07133058 -0.3657205 0.28668275
000300 c4 36 dd 3e e1 04 f9 3e 2a 71 81 be c7 83 74 bd
       0.43205845 0.48636535 -0.2528165 -0.059695985
000310 12 4b df 3e 9f d0 c0 3d 6c 53 46 3e cd 6d 84 be
       0.43611962 0.09414791 0.1936776 -0.2586502
000320 6b 65 c1 bd 2d 08 2f bd 23 2a 32 3e fc c3 38 be
       -0.09443172 -0.042732406 0.17398886 -0.18043512
000330 c8 e6 18 3f 8a db 5b 3e d5 45 e8 3e 9d d0 cc bd
       0.59727144 0.21470466 0.45365778 -0.10000727
000340 18 ae c9 3d 44 98 cd be 2a 72 76 3e 85 b2 15 be
       0.09847659 -0.40155232 0.24066988 -0.14618881
000350 d6 6f d7 be 8b f5 9b 3e bb b5 27 3e 8d 7b 87 bd
       -0.42077512 0.30460772 0.16377918 -0.06615362
000360 4d 2a 2e bf 5f 4b 83 3d 78 ef 41 3e 7a a0 0d 3e
       -0.68033296 0.0641086 0.18939006 0.13830748
000370 24 3c 88 bd 68 62 b1 3b 00 1e 9f 3e 78 2d 2b 3e
       -0.06652096 0.0054133423 0.31077576 0.16716564
000380 0e 56 89 3e 57 e2 30 3e 4a ed 9c bd f6 00 ff 3d
       0.26823467 0.17273842 -0.07662447 0.12451355
000390 9b 48 33 3e c2 22 d9 3d 29 b9 79 3e b1 a1 6d 3d
       0.17508166 0.10602333 0.24387039 0.05801553
0003a0 9f 53 d0 3e a7 ca 72 be 29 cd 98 be 59 6f b4 3e
       0.40688798 -0.23710118 -0.29844025 0.35241202
0003b0 55 5e 2a be d6 44 cf bd c7 5d a7 3e d2 14 c1 be
       -0.16637547 -0.10120551 0.32688734 -0.37711197
0003c0 40 a7 c5 3d 9c c8 7d 3e 3f 51 00 be 59 a4 af bd
       0.09651041 0.24783558 -0.12530993 -0.08576269
0003d0 97 21 b6 3e d7 22 08 3d 45 54 01 3e da 02 b3 3e
       0.35572502 0.03323635 0.12629803 0.34963113
0003e0 dc 8c 1c 3d a4 38 7a 3e e3 47 c1 3e 61 0d a4 3a
       0.03822027 0.24435669 0.37750158 0.0012516194
0003f0 94 ea f3 3e 74 d3 13 3e 05 f5 7b 3e 6a 98 f2 3e
       0.47639906 0.14436132 0.24605186 0.47381908

layer_2.bias f4 [64]
000000 62 ab 0a 3d 1d b2 ee 3c db 38 0f 3d 86 f8 a8 3d
       0.03385485 0.029137665 0.03496633 0.08250527
000010 f0 c1 b1 bd 0f e9 e9 3c 1a 50 a1 3d 57 c4 5b bc
       -0.08679569 0.028553514 0.07876606 -0.01341351
000020 18 b6 4d ba e7 fa 58 bd 1e bf ca 3c ff 9a 86 3c
       -0.00078472635 -0.052973654 0.024749335 0.01643133
000030 b7 09 a2 bd 7b cb 8a 3d 2b ef f2 3c d2 93 2f 3d
       -0.07912009 0.06777092 0.02965506 0.04286558
000040 a9 dc 1c bb dd 31 96 bd 8b 65 9d bc 6f 94 7f bd
       -0.0023935235 -0.073337294 -0.019213459 -0.062397417
000050 aa ea 58 3c 25 d5 8c bd 53 0f e4 bc 60 39 73 bb
       0.013239542 -0.068765916 -0.027839338 -0.0037113056
000060 4e 4a 99 3d 3d 7b 26 bd da 89 0b 3c 6b d8 72 3d
       0.074848756 -0.040644873 0.008516753 0.059288424
000070 72 ff a8 bc 34 7f c1 3b c0 fd 87 bd ed c7 93 bd
       -0.020629618 0.0059050564 -0.06640196 -0.07215867
000080 1a 12 6b bd bc e8 a9 3d bf c6 19 bd fc 3e a2 bd
       -0.05739031 0.08296344 -0.037543055 -0.079221696
000090 c3 f8 b0 bd 6f 85 42 3d 83 ed d0 3c 26 e9 10 bd
       -0.086411975 0.047490533 0.02550388 -0.035378598
0000a0 97 79 a8 bd 84 3c 52 3c ff 53 99 3d 5e 2a a1 3d
       -0.082263164 0.012831811 0.07486724 0.07869409
0000b0 7c 71 45 bd d5 5f fd 3c c5 20 8a bd f0 78 87 bd
       -0.04820393 0.030929485 -0.067445315 -0.06614864
0000c0 b7 67 69 3d 00 d4 3a bc ac 4c 2c bd 87 d2 d0 bb
       0.056983676 -0.011403084 -0.042065307 -0.006372753
0000d0 d9 b1 a2 bd 34 d8 b1 bd a2 fa 06 bd 1a 97 aa 3d
       -0.07944078 -0.086838156 -0.032953866 0.083296016
0000e0 36 bf 3c bd 68 c6 8b bd 9c bf b2 3c 72 0f 61 bc
       -0.04608079 -0.06824952 0.021819882 -0.013736593
0000f0 4b a1 ae 3c a9 e5 88 bd 78 e5 b3 3d d3 97 aa bc
       0.021317145 -0.06684429 0.08784002 -0.020824349

batch_norm_2.weight f4 [64]
000000 62 49 49 3f c0 c9 88 3f 51 57 67 3f 98 8f 80 3f
       0.786276 1.0686569 0.9036761 1.0043821
000010 ab 81 8b 3f a6 6e 88 3f 2a 60 79 3f 6a 41 96 3f
       1.0898947 1.0658767 0.9741236 1.1738713
000020 9d 2b 64 3f 4c b1 85 3f ae c4 7d 3f de 75 5d 3f
       0.8912905 1.0444732 0.99128234 0.86507976
000030 59 a9 5d 3f fa 81 8e 3f e8 b3 65 3f e6 4d 84 3f
       0.8658653 1.1133416 0.8972764 1.0336273
000040 25 40 83 3f f1 c6 83 3f 75 c8 96 3f c1 d8 20 3f
       1.025395 1.0295087 1.1779925 0.6283074
000050 1d 07 82 3f 24 a3 3b 3f f1 a3 90 3f a6 6d 8f 3f
       1.0158421 0.7329581 1.1300031 1.1205337
000060 f5 32 59 3f 9d 57 70 3f a3 82 7b 3f ff 0b 7b 3f
       0.8484338 0.9388369 0.9824621 0.9806518
000070 89 ca 7a 3f 67 5d 82 3f c2 c0 4f 3f 18 c5 91 3f
       0.97965294 1.0184754 0.811535 1.1388273
000080 c3 e4 8a 3f f8 0d 6f 3f d6 35 5e 3f 15 9b 73 3f
       1.0851063 0.9338069 0.868009 0.9515851
000090 4f ba 70 3f 65 be a7 3f 38 df 77 3f c2 97 77 3f
       0.94034284 1.3104979 0.9682498 0.9671594
0000a0 db 3c 29 3f a6 04 54 3f ed 99 8a 3f 20 6f 95 3f
       0.66108483 0.8281959 1.0828224 1.1674538
0000b0 81 41 75 3f 26 18 65 3f 3c aa 65 3f eb 73 33 3f
       0.95803076 0.8948997 0.8971288 0.7009875
0000c0 1c 60 7d 3f 18 6d 1d 3f 0b 4f 8f 3f 2d fc 50 3f
       0.98974776 0.6149459 1.1195997 0.8163479
0000d0 67 b8 8f 3f 76 ef 8b 3f b4 4b 75 3f 0a 21 6e 3f
       1.122815 1.0932453 0.9581864 0.93019164
0000e0 19 b6 85 3f 89 37 96 3f 03 b6 9f 3f 8f b7 9f 3f
       1.0446197 1.1735698 1.247742 1.2477893
0000f0 90 1f 54 3f 36 f9 4d 3f 78 4c 0c 3f 1d ee 40 3f
       0.8286066 0.8045839 0.5480418 0.7536333

batch_norm_2.bias f4 [64]
000000 d4 0e 22 bf e3 72 07 bf ce 3d 24 bf 25 3f f6 be
       -0.63303876 -0.5290968 -0.64156806 -0.4809505
000010 bf db e0 3d cf 8f 39 be d3 cb d5 be ec d1 ba bd
       0.10979413 -0.18121265 -0.41757068 -0.09122071
000020 6f f9 05 bf 8e f7 24 bf 4a a9 27 be a5 a5 13 bf
       -0.5233373 -0.6444024 -0.16373172 -0.5767463
000030 01 58 16 bf 81 87 82 be 6d 3a 40 be 93 54 fe be
       -0.58728033 -0.25494006 -0.18772288 -0.496739
000040 a6 de 2b bc 0c 24 eb be b8 8e 1a be ab 19 0b bf
       -0.010490095 -0.4592594 -0.15093505 -0.5433604
000050 1c d8 86 be a3 34 f7 be fc a1 38 bf 45 fc 8f be
       -0.26336753 -0.48282346 -0.7212217 -0.28122154
000060 23 e1 bc be 97 08 d2 be 1b 8d bb be c2 d1 bb be
       -0.36890516 -0.4102218 -0.36631092 -0.3668347
000070 8f 3f 8d be 40 f0 81 be 00 5e 0f bf 76 cb b9 3b
       -0.27587554 -0.2537861 -0.5600281 0.0056700064
000080 05 63 9b bd 8b 48 28 bf 5d 5d a5 be a4 11 0e bf
       -0.07587246 -0.6573569 -0.32297793 -0.5549567
000090 5d ea 3d be b7 2e f1 be 28 8f 1c be 42 4d 49 bf
       -0.18546434 -0.47105953 -0.15288985 -0.7863351
0000a0 77 76 95 be d1 4a 4e be 64 d6 49 be fb a3 07 be
       -0.29191944 -0.20145728 -0.1971069 -0.13246147
0000b0 e2 f3 ce be 41 9e 98 be ed 1c cc be ca 2d cd bc
       -0.40420443 -0.29808238 -0.3986582 -0.025046248
0000c0 18 7c c0 be 3e b0 0e bf 6c 15 07 be 81 4b d9 be
       -0.37594676 -0.55737674 -0.13191766 -0.42440417
0000d0 48 6d a5 be 1c 5c e8 3c cc eb 1c bf 38 a7 c9 be
       -0.32309937 0.028364234 -0.612973 -0.3938539
0000e0 5f 15 80 bd 93 42 b0 be cc 9a 15 be 98 ef 04 be
       -0.06254076 -0.34425792 -0.14609832 -0.12982023
0000f0 6d 05 31 bf a8 f0 b4 be 84 19 9c 3d 08 a5 f3 be
       -0.69148904 -0.35339856 0.07622054 -0.47586846

batch_norm_2.running_mean f4 [64]
000000 bc f6 55 bf 2c 06 ec 3f 63 cc 62 3f 28 04 c2 bf
       -0.8357961 1.8439384 0.8859312 -1.5157518
000010 97 d2 e0 3e 6a 3b e3 bf de bc 09 40 08 ec d5 3b
       0.43910667 -1.7752507 2.1521525 0.0065283813
000020 2c 4e 0b 40 40 ca be 3f e3 2b 93 bf 8d 5b fd bf
       2.1766462 1.4905472 -1.1497768 -1.9793564
000030 e3 9d d6 3e ca 35 19 c0 e6 3a 8f c0 5b 95 cc 3f
       0.41917333 -2.393908 -4.4759398 1.598308
000040 6a fd f8 be 8a 9d d6 bf d5 c1 2a 40 43 cb 70 3d
       -0.4863084 -1.6766827 2.6680806 0.058787595
000050 82 53 9b 3f 4b 4a 90 bf f0 f3 0e 40 61 32 bc 3f
       1.213486 -1.1272672 2.2336388 1.4702874
000060 e8 87 dc 3f e2 ed 5b bc ff 11 d4 bf 2f e1 d5 be
       1.7228975 -0.013423415 -1.6567992 -0.41773364
000070 fe b3 c1 bf 03 27 07 be a9 6a be 3f fd 4f aa bf
       -1.5133054 -0.13198476 1.48763 -1.330566
000080 23 b4 12 c0 e6 fb ed 3f 52 8d fe bf bc 46 4d 3e
       -2.2922447 1.8592498 -1.9886878 0.20046514
000090 db 73 d6 bf d8 89 0e c0 29 36 27 3f ea d4 80 40
       -1.6754106 -2.2271633 0.65317017 4.0259905
0000a0 84 6a ea bf c6 e1 45 bf ee e8 85 3e 4c 1a 9f bf
       -1.8313756 -0.7729763 0.26154274 -1.24299
0000b0 ff 7d d6 3f c6 97 27 bf a7 68 7c bf 29 41 cb bf
       1.6757201 -0.6546596 -0.98597187 -1.587926
0000c0 56 83 c6 3f 5e 20 99 3f b4 d9 fd bf 2d 7c a5 3f
       1.550883 1.1963003 -1.9832063 1.292852
0000d0 0a a3 63 bf 3e c3 49 c0 83 aa ed 3f d9 47 40 c0
       -0.8892065 -3.1525416 1.8567661 -3.0043852
0000e0 ae d0 30 3f 2d 15 82 bd a1 9e d2 bf 43 03 f7 bf
       0.6906842 -0.06351695 -1.645466 -1.929787
0000f0 09 32 fb 3f 87 6e 2a 3f af de 81 bf 9a 93 81 bd
       1.9624645 0.665749 -1.0146083 -0.06326981

batch_norm_2.running_var f4 [64]
000000 9c 9f 2f 40 ce ac 14 41 4d af 40 40 18 8d dd 40
       2.7441168 9.292189 3.0106995 6.9234734
000010 d0 80 68 41 19 74 f1 40 7c d1 ec 40 f5 c6 92 41
       14.531448 7.545422 7.400572 18.347147
000020 d2 1a c8 40 d5 a5 db 40 ac b6 0c 41 fa 88 17 41
       6.253274 6.863993 8.794598 9.470942
000030 11 a9 0f 41 31 bf 80 41 60 de f8 40 b7 9c 3f 41
       8.978776 16.093355 7.7771454 11.97576
000040 5b 1d 65 41 50 76 a8 40 04 be c4 41 56 b5 86 40
       14.319667 5.2644424 24.592781 4.2096357
000050 d7 33 6b 41 59 ff 2e 40 16 81 99 40 f5 60 9f 40
       14.700156 2.7343352 4.7970076 4.9805856
000060 7a c1 90 40 88 59 b7 40 40 32 13 41 b6 97 3e 41
       4.5236177 5.729679 9.199768 11.912039
000070 52 74 8f 41 ac 74 55 40 a5 da 87 40 24 77 76 41
       17.931797 3.335246 4.24544 15.404087
000080 7a d7 bd 40 c9 31 d4 40 ad d3 39 40 cd fd ea 40
       5.9325533 6.6310773 2.9035447 7.3434815
000090 4d 6e 58 40 fb 24 52 40 a4 9c cc 40 56 11 8b 40
       3.3817322 3.283507 6.394121 4.345866
0000a0 d8 3d 28 40 55 0b f3 40 aa 10 ad 3f cc 98 f7 40
       2.6287746 7.5951333 1.352071 7.737402
0000b0 77 fc 6e 40 66 8c fd 40 99 01 bb 40 1a a6 82 40
       3.7341592 7.9233885 5.843945 4.082776
0000c0 18 88 9a 40 f7 2c 91 40 39 2e a7 41 1c be 22 41
       4.829113 4.536739 20.89757 10.171413
0000d0 55 b6 c4 40 e7 58 6d 41 67 c7 af 40 e2 24 80 40
       6.1472573 14.834205 5.493091 4.0045023
0000e0 4d 4f 67 41 fc 13 2e 40 75 6c 35 41 e7 44 fe 41
       14.456861 2.7199697 11.338979 31.783644
0000f0 b3 a3 67 40 a1 50 8d 40 1c d8 2c 41 b8 77 e3 40
       3.6193664 4.4160924 10.802761 7.108364

layer_3.weight f4 [32, 64]
000000 dd a0 ba be 99 ad 56 3e 33 de fc be 20 7e bb 3d
       -0.36450854 0.2096466 -0.49388275 0.09154916
000010 42 00 92 3e c1 94 a7 bd 17 89 01 bd 08 04 37 bf
       0.28515822 -0.081826694 -0.03162488 -0.71490526
000020 c4 ff 14 3d c6 c4 bd 3e fe d7 94 3e cf 10 82 be
       0.03637673 0.3706419 0.2907104 -0.2540345
000030 25 f3 f5 3e 0b 57 f2 bc 7a 6c 82 3e 6a 6c 9d 3e
       0.48037067 -0.029582521 0.25473386 0.30746776
000040 d0 90 a1 bd 5b eb bb 3e dc 1d a2 be bf 1c dd bd
       -0.07888949 0.36703 -0.31663406 -0.107964985
000050 6f 80 36 3e da cb a2 be 42 d0 ff 3e f2 21 44 be
       0.17822431 -0.3179615 0.49963576 -0.19153574
000060 1e 3f f5 3e 71 89 20 3e 3b c8 01 3e 3c 8c 27 bd
       0.47899717 0.1567743 0.12674038 -0.040905222
000070 d4 6f ba be 81 a7 96 bc a7 1d a3 3e a5 23 63 be
       -0.36413443 -0.018390419 0.3185856 -0.22181566
000080 5a 93 f9 3d 3e 7f 3e bd eb bb 8a bd 3d dc 89 be
       0.12186308 -0.046508066 -0.06774124 -0.2692584
000090 1e 97 0d 3d 3f 59 b6 3e a5 0d 97 3e 11 92 04 3f
       0.034567945 0.35614964 0.29502597 0.5178538
0000a0 7e d6 95 3e 7d 7f a0 be 73 6d 8a bd 85 47 0e 3e
       0.29265207 -0.31347266 -0.06759157 0.1389447
0000b0 b5 c4 a0 bd 72 42 4d bd ea b1 d1 bd 3f c9 71 be
       -0.07850019 -0.050112195 -0.102390125 -0.23611926
0000c0 90 da ab 3e 98 8f 74 bd bf 1d 04 be 19 1e e0 be
       0.33565187 -0.059707254 -0.12901972 -0.43772963
0000d0 3d e8 2c be a4 b6 d6 be bf 26 0f be 3a 68 51 be
       -0.16885467 -0.4193622 -0.13979624 -0.20449916
0000e0 3e c9 4c 3e fc f2 eb 3d 65 5f 13 bf 73 a5 55 be
       0.19998643 0.11520955 -0.57567436 -0.20863895
0000f0 e5 08 94 3e 97 59 6f be 77 81 88 be 00 64 22 be
       0.28913036 -0.2337402 -0.26661274 -0.1585846
000100 2d 30 0c 3f 22 97 4a be d4 8d 26 3f fc a6 af 3e
       0.5476101 -0.19784215 0.6506016 0.34307086
000110 47 a2 5d be dc 47 fb 3e 2b 5f 12 3d 47 28 0a 3e
       -0.21643935 0.49078262 0.03573529 0.13491927
000120 18 f1 93 be 7d ec bd be e8 99 31 3e 15 bb 52 3e
       -0.28894877 -0.3709449 0.17343867 0.20579179
000130 34 07 71 bd ea a5 53 3c 8f 95 a0 3e 5e 22 81 bd
       -0.05884476 0.012917975 0.31364104 -0.06305383
000140 83 5e 41 3e 2d cb 4b bc 32 d0 6b 3e 6b ce 0c bc
       0.1888371 -0.012438578 0.23028639 -0.008594136
000150 25 a1 1a 3e ab 94 1f be fa 38 3b 3e b0 52 0c 3f
       0.15100534 -0.15584056 0.18283454 0.5481367
000160 4f 33 64 bd 94 db 04 3f ab 87 b1 3c e5 a0 02 3d
       -0.055712994 0.5189755 0.021671137 0.031891722
000170 24 45 47 be 8c da 4b 3e a2 56 b2 bc 81 b9 74 bd
       -0.19459969 0.19907588 -0.021769825 -0.059747223
000180 f9 02 b8 3e 64 7f 30 be 24 8f 48 3c fd b7 aa 3d
       0.35939768 -0.17236096 0.012241159 0.08335874
000190 76 f4 d1 3d 5d 4d b4 bd 94 59 7b be ef f2 ae 3d
       0.10251705 -0.088038184 -0.2454589 0.0854243
0001a0 66 8f e8 3d 9b 5f bb 3e d5 2b 14 be 1b 4b a6 bd
       0.11355476 0.3659638 -0.14469846 -0.08119794
0001b0 f1 89 a8 3e 04 0d 99 3c 83 4f 89 be 53 f0 6d 3e
       0.3291774 0.018682964 -0.26818475 0.23236208
0001c0 e8 42 36 be 06 cd 65 be e6 04 db be 4f b6 c1 bd
       -0.1779896 -0.22441491 -0.42777175 -0.09458601
0001d0 8a 10 24 3e cf ea 9e 3e a6 bd 90 be 3e f0 33 be
       0.16021934 0.3103852 -0.2826969 -0.17572114
0001e0 35 05 d3 3e 72 ad 56 be 7d 72 16 3e ce a7 b3 bc
       0.4121491 -0.20964602 0.14692111 -0.021930601
0001f0 90 9d ab 3d 50 a1 f6 3d 82 cf f3 3e 05 2a 33 be
       0.08379662 0.12042487 0.47619253 -0.17496498
000200 28 65 8f be e5 77 62 3c cc 97 9b 3d 16 aa bc bc
       -0.28006864 0.01382253 0.07597312 -0.023030322
000210 a9 a2 80 3d ed b8 b1 be 0f 44 2d be 49 4b e7 bd
       0.06281025 -0.347114 -0.16920494 -0.112936564
000220 98 d0 78 be 44 26 66 be f3 67 3f bc eb 7f 55 3d
       -0.24298322 -0.22475535 -0.011682498 0.052123945
000230 a5 d8 57 bd d8 4a 29 3f 6e f3 10 3e 93 bb 00 be
       -0.052696843 0.6612983 0.14155361 -0.12571554
000240 5a a3 d9 3d 71 be cc 3c 34 0d 90 be 12 75 83 be
       0.1062686 0.024993153 -0.28135073 -0.25675255
000250 e6 a4 90 be f0 41 0d 3e 51 f6 44 be 65 96 45 3e
       -0.28250808 0.13794684 -0.19234587 0.19295652
000260 7c 57 b4 bd 95 a3 ad 3e 77 6f b7 3e 0f d6 8d be
       -0.08805749 0.33913866 0.35827228 -0.27702376
000270 ef 6a db be 9b 79 db 3d ed c6 91 3e f3 b5 e5 3e
       -0.4285502 0.10716554 0.2847208 0.4486538
000280 9d 8b a5 3e 09 01 85 be 9a 9c 09 3e 9f 55 b4 3e
       0.3233308 -0.25977352 0.13438645 0.35221574
000290 8b 09 c1 be 75 6b 3e bf a3 3c c4 be 70 36 81 3e
       -0.37702593 -0.74382716 -0.38327512 0.25236845
0002a0 86 97 db 3c 3c f2 55 3d 1d 26 ea bd 58 7e 62 3e
       0.02680565 0.052232966 -0.11433051 0.22118509
0002b0 b6 82 f8 3d b1 87 e1 bd 30 4d b4 3e f4 8d d2 be
       0.12134306 -0.11012209 0.3521514 -0.41123927
0002c0 74 59 e1 bd 95 c2 05 3e 57 93 90 3e 04 6a 0a 3d
       -0.1100339 0.13062508 0.2823741 0.03379251
0002d0 f5 98 e0 3d 04 c2 72 3e 0e 1e 56 be 9f f0 4c be
       0.10966674 0.23706824 -0.20909902 -0.20013665
0002e0 b4 91 3b be a2 60 b5 be 1b 7f 03 be 6d 8d 76 3f
       -0.183173 -0.35425287 -0.12841456 0.9630955
0002f0 5f 6b a2 3d 61 21 55 bf 97 50 b4 be e2 cc e6 3c
       0.07930636 -0.8325406 -0.35217735 0.028173868
000300 fe 30 50 3e 49 bf f0 be c8 b5 fe be 18 55 06 3d
       0.20331189 -0.4702094 -0.49748063 0.032795995
000310 b6 b1 27 be 24 f1 fb bd 01 09 5c be e9 71 0c bf
       -0.16376385 -0.12301853 -0.2148781 -0.54861313
000320 a8 16 e1 ba 53 45 fc bd 4c 1d bf 3e e9 77 a6 3e
       -0.001717289 -0.1231791 0.3732704 0.3251336
000330 0c dd 14 bf 5b 98 3d be 9d f0 8e 3d d9 2f 5e 3e
       -0.5814979 -0.1851515 0.06979487 0.2169794
000340 63 a2 2c bd 85 1c 83 be e3 70 38 bf 7b 7a a3 be
       -0.04214705 -0.25607696 -0.7204725 -0.31929383
000350 49 3c 2f bf 2a 46 2b 3e 73 53 00 3d 25 74 0d be
       -0.6845136 0.16725984 0.031329583 -0.13813837
000360 6f 9b e8 3d 71 21 73 be cf e7 c3 be 2b e8 32 bf
       0.113577716 -0.23743226 -0.38262793 -0.6988551
000370 d4 55 72 be 49 9a 2e bf 47 8e bd 3d 44 79 83 3e
       -0.23665553 -0.6820417 0.09255653 0.25678456
000380 18 f1 40 bd e0 5d b8 3d ff 41 e2 be 30 2e 27 be
       -0.047104925 0.0900228 -0.44190976 -0.16326213
000390 15 d4 5b 3e 1a cd c0 3d dc a5 1f be fd b9 18 be
       0.21467622 0.0941412 -0.15590614 -0.14914699
0003a0 b4 dc 58 be c6 9c 97 be 97 5d 16 3e 7a 10 92 bd
       -0.21177942 -0.29611796 0.14684139 -0.07132049
0003b0 be 59 db bd b1 a7 a8 3e d6 60 e7 3d 90 f4 35 bd
       -0.10710476 0.32940438 0.11297767 -0.044422686
0003c0 7d a6 ff 3d 25 38 f0 bd ec 1c dc 3e b4 50 9c 3d
       0.12482927 -0.11729459 0.42990816 0.076325804
0003d0 0c 70 9c bd 04 31 1c be 32 dc d9 3e d9 f5 54 be
       -0.07638559 -0.15253073 0.42550808 -0.20796908
0003e0 87 79 ec be 0e da 32 bd d7 f7 e4 bd b6 c7 82 be
       -0.46186468 -0.043664984 -0.11180084 -0.25542992
0003f0 96 3a f6 be de 5d a6 be 79 44 d1 bd 43 be bc bb
       -0.48091573 -0.3249349 -0.10218138 -0.0057599857

layer_3.bias f4 [32]
000000 2c 28 5e 3d e2 ea 97 3d 50 af b2 bd 82 6d 87 bd
       0.05423753 0.07417847 -0.087248445 -0.06612684
000010 eb fd 7b bd bb b6 d0 3d 39 e6 e7 3c b3 7a cb bd
       -0.061521452 0.10191103 0.02830802 -0.099355124
000020 7e 8d 97 bd 2a 03 f8 3b 67 61 52 bc cc 8b c5 bd
       -0.07400034 0.0075687366 -0.012840605 -0.09645805
000030 a9 4d 6a bd e0 02 cb 3c b3 1f b7 3d ff ab 35 bd
       -0.05720297 0.024781644 0.08941593 -0.04435348
000040 a2 fa 75 3c 9d 22 b8 bb 8c d9 96 3d 04 8c b8 bd
       0.015013369 -0.0056193606 0.073657125 -0.09011081
000050 ac 87 84 3d 90 6a 4d 3d 9f 43 f1 3d 4a c4 d9 3d
       0.0647119 0.050150454 0.11780476 0.10633142
000060 e3 23 96 bc 28 ab 84 bd 53 b2 92 bd 22 05 ae 3d
       -0.018327659 -0.06477958 -0.07162919 0.08497073
000070 f5 ff e6 bc 8e a8 a4 3d c4 5c 41 b9 d4 c7 1b ba
       -0.028198222 0.08039962 -0.00018440472 -0.00059425575

batch_norm_3.weight f4 [32]
000000 f4 6d 5f 3f 60 a5 4e 3f 94 3f 5b 3f 22 60 91 3f
       0.8727715 0.8072109 0.8564389 1.1357462
000010 18 7b 7c 3f 4e 74 82 3f 1e fe 86 3f ec 36 80 3f
       0.98625326 1.0191743 1.05463 1.0016761
000020 d1 00 5f 3f c9 c1 75 3f 49 02 8f 3f 73 5a 5e 3f
       0.8711062 0.9599882 1.1172572 0.86856765
000030 f2 c7 97 3f 0e 8c 89 3f dc 46 88 3f 45 b5 60 3f
       1.1857893 1.0745866 1.0646625 0.87776595
000040 aa 4f 75 3f 7e 08 77 3f 1c 8b 55 3f 21 26 6d 3f
       0.9582468 0.96497333 0.8341539 0.92636305
000050 8f 14 7c 3f b1 3e 80 3f 3e 33 64 3f 0a 12 44 3f
       0.9846887 1.0019132 0.8914069 0.76590025
000060 71 f3 8b 3f 95 ab 7b 3f c1 bf 64 3f de 1d 61 3f
       1.0933667 0.9830869 0.89355093 0.879362
000070 a7 e4 78 3f ff a1 5b 3f c1 b6 89 3f fd bf 8e 3f
       0.97223896 0.8579406 1.0758897 1.115234

batch_norm_3.bias f4 [32]
000000 8e 8f 02 bf d4 5e 1f bf 55 6b e1 be ec fe 12 be
       -0.510003 -0.6225407 -0.440272 -0.14355057
000010 3e f2 12 be 30 b1 04 bf 7a 82 ba be 27 94 5e be
       -0.1435022 -0.51832867 -0.3642767 -0.21736203
000020 69 70 9f be 8b 91 fe be b7 cd 12 be bd db d3 be
       -0.3114045 -0.49720415 -0.14336286 -0.41378585
000030 eb ba 9c bd 36 30 9f bb f8 84 05 bf 7b 63 34 bf
       -0.07652839 -0.004858042 -0.5215602 -0.70464295
000040 4f 2a 85 bd 94 df e7 bd 23 54 bf be 50 b8 aa be
       -0.0650221 -0.11321941 -0.3736888 -0.33343744
000050 56 7a af be 57 a9 ce be 3a 00 dc be 12 66 0e bf
       -0.34273022 -0.4036357 -0.42968923 -0.55624497
000060 8e 0f 3f be 0c 9b 09 bf f3 ec c1 be e0 35 92 be
       -0.18658277 -0.5375221 -0.3787609 -0.28556728
000070 21 2a 05 bf 99 5e 41 bf 2e dc be be 0c aa 40 be
       -0.5201741 -0.7553497 -0.3727736 -0.18814868

batch_norm_3.running_mean f4 [32]
000000 d1 3e af be 2f e8 98 3f c8 9a 8c be e6 e1 00 c0
       -0.34227613 1.1945857 -0.2746184 -2.0137877
000010 96 72 12 c0 d6 cd 67 3f 30 af a5 bf 9f 35 0d bf
       -2.2882438 0.90548456 -1.2944088 -0.55159944
000020 fc f0 98 bf 1d 8c a5 3e c6 f9 c5 bf fd cc 13 bf
       -1.1948543 0.3233346 -1.546685 -0.5773466
000030 cc 3d ba bf 39 b8 3d bf 6d e0 6d 3f e0 2c c3 3f
       -1.4550109 -0.74109226 0.9292057 1.524807
000040 66 34 31 bf 16 18 84 be 8e 83 2f 3f af ef 93 bf
       -0.6922058 -0.25799626 0.6856011 -1.1557521
000050 32 27 b6 3f 8d 6f 44 bf bf 59 2a 3e 1f ca 70 bf
       1.4230711 -0.76732713 0.16635798 -0.9405841
000060 5b ab 8b bf 7e bd 14 3f f1 a4 a9 3e a0 80 d3 be
       -1.0911669 0.5810164 0.33133653 -0.4130907
000070 4f a1 12 bf 93 95 9e 3f b2 2b 86 bf 84 9f 5a bf
       -0.5727739 1.2389396 -1.0482085 -0.8539965
