solution/actor1.pth (torch, 68555 bytes, 26 tensors)

layer_1.weight f4 [128, 24]
0	0x3e226bc2	0.15861419
1	0xbf0917a1	-0.5355168
2	0x3d08a223	0.03335775
3	0x3e11d47f	0.14241217
4	0xbee0d2b6	-0.4391076
5	0xbfa78181	-1.3086396
6	0x3c421a01	0.01184702
7	0xbc48de0b	-0.01225997
8	0x3c93aa2e	0.018025484
9	0xbf0f76e9	-0.5604082
10	0xba8a4c2b	-0.0010551264
11	0x3ee10142	0.43946272
12	0xbe82e17b	-0.25562653
13	0xbf82f6bc	-1.0231547
14	0xbc9b2f03	-0.018943315
15	0x3eafffb0	0.34374762
16	0xbe20bd4b	-0.1569721
17	0xbef0bd01	-0.470192
18	0x3d5abe0d	0.053403903
19	0x3f157cbd	0.5839346
20	0xbe0d77a4	-0.1381517
21	0xbf80b9d2	-1.0056708
22	0xbcf6ed95	-0.030142585
23	0x3f34e4b3	0.7066147
24	0xbd9b6051	-0.0758673
25	0x3e3a1a18	0.18174016
26	0xbd98eb1c	-0.074667186
27	0xbca6fa71	-0.020383092
28	0x3f856301	1.0420839
29	0x3f622095	0.88330966
30	0x3d4746c2	0.048651464
31	0xbd8d257f	-0.068919174
32	0x3d1bd150	0.038041413
33	0x3e9dcac9	0.30818775
34	0xbd0eba11	-0.034845416
35	0xbe93d598	-0.28873897
36	0xbde1d428	-0.11026794
37	0x3ebc08cb	0.36725459
38	0x3d1a4821	0.037666444
39	0xbe730979	-0.23734082
40	0xbc4e1688	-0.012578614
41	0x3e529bb6	0.20567212
42	0xbc967859	-0.018367933
43	0xbe5b5fc2	-0.21423247
44	0xbfbbaf39	-1.4662849
45	0x3e6782ef	0.22608541
46	0x3bbaa3e0	0.005695805
47	0xbd970198	-0.07373351
48	0xbdc31000	-0.09524536
49	0xbe97bc35	-0.29635778
50	0xbe0cbe29	-0.13744415
51	0xbeeab9a5	-0.4584476
52	0xbe594a07	-0.21219645
53	0xbeea3110	-0.45740557
54	0xbd92390c	-0.07139787
55	0xbebad999	-0.3649414
56	0x3cbc116b	0.022957524
57	0xbec75bd7	-0.38937256
58	0x3dde471d	0.108534075
59	0x3dcc3f50	0.099730134
60	0xbf2f18fa	-0.68397486
61	0x3b8a6ddc	0.004224522
62	0x3e2add56	0.16685995
63	0x3e127cde	0.14305446
64	0xbddb07d2	-0.10694851
65	0xbeef37a7	-0.46722147
66	0xbdc2bf50	-0.09509146
67	0x3e50d3ce	0.20393297
68	0xbf7eed36	-0.99580705
69	0x3ea2da05	0.3180696
70	0xbdd3bc51	-0.10338653
71	0x3e1919a8	0.14951193
72	0xbdb969dd	-0.09053395
73	0xbf02e72a	-0.5113398
74	0xbc992db7	-0.018698556
75	0x3d8c398f	0.06846916
76	0x3f900965	1.1252867
77	0x3f2eaaef	0.68229574
78	0xbb23c4dd	-0.0024989166
79	0x3dd84165	0.10559348
80	0x3de3eaf4	0.11128798
81	0xbe9117b0	-0.28338385
82	0xbd1bd387	-0.038043525
83	0xb8a89458	-8.0384954e-05
84	0xbd176805	-0.036964435
85	0x3e82f9e5	0.2558128
86	0x3d0cdba5	0.034389157
87	0xbd27a097	-0.040924635
88	0x3e92bdb2	0.2866035
89	0xbe7e27f9	-0.24819936
90	0x3c85e471	0.01634428
91	0xbccae781	-0.024768593
92	0xc00df8f1	-2.2183192
93	0x3db0311c	0.08603117
94	0xbc277dcf	-0.010222866
95	0x3d8809fd	0.0664253
96	0x3e65bedc	0.22436088
97	0x3ee749c7	0.45173475
98	0x3c16e245	0.00920922
99	0x3d5aa9ef	0.053384718
100	0xbdad8b1d	-0.084737994
101	0xc00e4149	-2.2227347
102	0x3da7c036	0.08190958
103	0x3cfce1ea	0.030869443
104	0xbdd05edc	-0.10174343
105	0x3dc04599	0.09388275
106	0x3d8ebaa6	0.06969194
107	0x3d0d28bd	0.03446268
108	0x3cadaea5	0.021201441
109	0xbf8f63c7	-1.1202325
110	0x3b8d2240	0.0043070614
111	0x3d9361d4	0.071963936
112	0xbe8f92e5	-0.2804176
113	0x3dfe5641	0.124187954
114	0x3d93c58b	0.07215413
115	0x3e7f6821	0.24942066
116	0x3db38faa	0.08767636
117	0xbee1e94b	-0.441233
118	0xbd164063	-0.036682498
119	0x3eb0a210	0.34498644
120	0x3e11bd2d	0.14232321
121	0x3ea0dbe4	0.31417763
122	0xbd0b7514	-0.0340472
123	0x3c9ca36e	0.019120898
124	0x3ea1c19f	0.31593034
125	0x3f0000b3	0.50001067
126	0x3d8a4241	0.06750918
127	0x3d86c34c	0.06580219
128	0x3db18292	0.086674824
129	0x3e78a73e	0.24282548
130	0x3d22e43c	0.039768443
131	0x3c6c4559	0.014420831
132	0xbde7657f	-0.11298656
133	0x400a7fd8	2.164053
134	0xbd8d74eb	-0.06907066
135	0x3da5b31f	0.08090805
136	0x3deb73ea	0.11496718
137	0x3e123b59	0.14280452
138	0xbd2f602d	-0.04281633
139	0xbe432611	-0.1905749
140	0xbed89929	-0.42304352
141	0x403d0b74	2.953824
142	0x3d3dc879	0.046333764
143	0xbdf144d3	-0.11780705
144	0xbd970173	-0.07373323
145	0x3e4c4d68	0.19951403
146	0xbd8716c1	-0.06596137
147	0x3e5097be	0.20370385
148	0xbe54dd7a	-0.20787612
149	0xbefe0688	-0.49614358
150	0xbe2d7825	-0.16940363
151	0x3e81606e	0.25268883
152	0xbe396c1e	-0.1810765
153	0x3ddcd180	0.107821465
154	0x3d8ae06f	0.067810886
155	0x3efa2d8e	0.4886288
156	0xbd461c61	-0.048366908
157	0xbe29a95c	-0.16568512
158	0x3de3e772	0.11128129
159	0x3ef74354	0.48293555
160	0xbee3f285	-0.44520965
161	0x3e4cb81a	0.19992104
162	0xbef03dcf	-0.46922156
163	0x3f0f6688	0.56015825
164	0x3ac475d7	0.0014988732
165	0xbd075930	-0.03304404
166	0xbef3da9a	-0.47627717
167	0x3ef87594	0.48527205
168	0xbd8ea698	-0.06965369
169	0xbdde3e24	-0.10851696
170	0xbcde6874	-0.027149417
171	0xbdd1968e	-0.10233794
172	0xbe8ec4b6	-0.27884454
173	0xbebe2264	-0.37135613
174	0xbcffbd78	-0.031218275
175	0xbd93f46d	-0.07224355
176	0x3d959342	0.07303478
177	0xbe8913e2	-0.26772982
178	0x3a83fe99	0.0010070383
179	0xbdeeb08d	-0.11654768
180	0xbe2950f4	-0.16534787
181	0x3f8d4d87	1.1039284
182	0x3c6ce5fb	0.0144591285
183	0xbdbac90c	-0.09120378
184	0xbcedb0b9	-0.029014932
185	0xbf024215	-0.50882083
186	0xbd9e05e3	-0.077159666
187	0xbe0822f8	-0.1329459
188	0xbe63df61	-0.22253181
189	0x40602f4a	3.5028863
190	0x3d95190f	0.0728017
191	0xbe7cf2e3	-0.24702029
192	0x3f11dd60	0.56978416
193	0xbf151415	-0.5823377
194	0x3da4fdb1	0.080562
195	0x3e1fae24	0.15593773
196	0x3c5bb4ef	0.013409837
197	0x3ba48257	0.0050204205
198	0x3e1fef6c	0.15618676
199	0x3e207bbe	0.15672204
200	0x3ed9774e	0.42473835
201	0xbf11918b	-0.56862706
202	0x3e19a9e7	0.15006219
203	0x3d9dd995	0.07707516
204	0x3e22df4d	0.15905495
205	0x3fa452b0	1.2837734
206	0x3d7c6e11	0.061628405
207	0x3dded549	0.10880525
208	0x3e18ff75	0.14941199
209	0xbf233d7f	-0.6376571
210	0x3ccc3a99	0.024930285
211	0x3e1feaee	0.15616962
212	0x3e21345e	0.15742633
213	0x3ffc88ee	1.9729288
214	0xbd486dcf	-0.048932847
215	0x3e31a9d2	0.17349938
216	0x3e577eaa	0.21044412
217	0x3dd81eb4	0.10552731
218	0xbd2a5b99	-0.04159126
219	0xbdee3317	-0.11630838
220	0xbe72c741	-0.23708822
221	0x3f6ad6af	0.9173383
222	0xbd9334de	-0.07187818
223	0xbdb6779f	-0.08909535
224	0x3ebeec07	0.3728945
225	0x3ea69426	0.32534903
226	0xbcf910bb	-0.030403486
227	0x3d67445d	0.05646168
228	0xbf27d2e0	-0.65556145
229	0x3ef500ff	0.47852322
230	0xbd25d8c2	-0.04048992
231	0x3dc2e9c5	0.09517244
232	0x3f0db9c1	0.5536156
233	0x3e77de6c	0.24205941
234	0x3c8e8a42	0.01739991
235	0xbe8c4728	-0.27398038
236	0xbf843332	-1.0328124
237	0x3ee6292d	0.4495329
238	0x3ce4ba38	0.027920827
239	0xbe96d506	-0.294594
240	0x3e5874fe	0.21138379
241	0xbe8d8ee9	-0.27648094
242	0xbd0804c6	-0.033207677
243	0x3efbbe8b	0.4916881
244	0xbe19b60e	-0.15010855
245	0xbee1b45b	-0.44082913
246	0xbd621c18	-0.055202574
247	0x3edbaf1f	0.42907044
248	0x3e608e4b	0.2192928
249	0xbdd38b16	-0.10329263
250	0xbadca7ef	-0.0016834716
251	0x3ed3a1be	0.41334337
252	0xbda16ebe	-0.078824505
253	0xbf100c23	-0.5626852
254	0xbd8a07ab	-0.06739744
255	0x3ecd6182	0.40113455

layer_1.bias f4 [128]
0	0xbddcaec5	-0.10775522
1	0x3c533759	0.012891614
2	0xbc1e828f	-0.009674682
3	0x3ce44b1e	0.02786785
4	0xbdfb9375	-0.122839846
5	0xbd42f930	-0.047600925
6	0xbc60eb37	-0.013727955
7	0x3cd8cdc8	0.026465312
8	0x3dfebd2b	0.12438425
9	0x3e50ec3e	0.20402619
10	0x3e083494	0.13301307
11	0x3dab7243	0.08371403
12	0xbdecbca8	-0.11559421
13	0xbe326ce8	-0.17424357
14	0xbe120d31	-0.14262845
15	0x3d80d184	0.06289962
16	0xbd2a9251	-0.041643444
17	0x3e311752	0.17294052
18	0xbd8acacd	-0.067769624
19	0xbd0e0af5	-0.03467842
20	0x3d44f112	0.048081465
21	0xbd01871f	-0.031623002
22	0xbe4b792d	-0.19870444
23	0x3dbb5ab1	0.091481574
24	0x3e37cdfa	0.17949668
25	0x3cabe878	0.020984873
26	0x3d8ac570	0.067759395
27	0xbdbe3966	-0.09288292
28	0xbdd67517	-0.10471552
29	0xbe126a2c	-0.14298314
30	0xbd48bf22	-0.049010403
31	0xbd843887	-0.06456094
32	0xbe4f5587	-0.2024747
33	0xbe1c4978	-0.15262401
34	0x3dd3654b	0.103220545
35	0xbe3a67b4	-0.18203622
36	0x3e1d2134	0.15344697
37	0xbe07c2f4	-0.13257962
38	0x3d3b75d2	0.04576666
39	0x3dee585f	0.11637949
40	0xbe001e3f	-0.12511538
41	0x3e179b2a	0.14805284
42	0xbd90ea59	-0.07075948
43	0x3e23ff12	0.1601527
44	0x3e094db0	0.13408542
45	0xbd181146	-0.03712585
46	0x3d0f58f2	0.034996934
47	0xbe17f018	-0.14837682
48	0xbd1cf886	-0.038322948
49	0x3e15be02	0.14623263
50	0xbd95b888	-0.07310587
51	0x3dd311ea	0.10306151
52	0xbe001f86	-0.12512025
53	0x3db1d1c4	0.08682588
54	0x3dd5657b	0.104197465
55	0x3df57d50	0.11986792
56	0xbd91b07d	-0.071137406
57	0xbd29e88d	-0.041481543
58	0x3d4131c6	0.04716661
59	0xbe1c9dba	-0.15294543
60	0x3e1fcaa3	0.15604644
61	0xbd60425c	-0.054750785
62	0xbc15f89e	-0.009153513
63	0x3e3d17b9	0.1846608
64	0x3ded9c80	0.11602116
65	0xbe04b776	-0.1296061
66	0xbd98e66c	-0.074658245
67	0xbd965208	-0.07339865
68	0x3e16b160	0.147161
69	0x3e2fc5a0	0.17165232
70	0x3e229287	0.15876208
71	0xbd998ead	-0.07497916
72	0xbda83ce5	-0.0821474
73	0x3dc135d1	0.09434093
74	0x3de4ef4a	0.11178453
75	0xbdc32a6d	-0.095295765
76	0x3e44f7f8	0.19235218
77	0xbde8ffff	-0.113769524
78	0xbe0097ba	-0.12557879
79	0xbe31305a	-0.17303601
80	0x3e2be34e	0.16785929
81	0xbcc83d3f	-0.024443267
82	0xbd801dd3	-0.062556885
83	0xbde96c43	-0.113976024
84	0xbd476af5	-0.048685987
85	0xbd810605	-0.06299976
86	0xbb2422d8	-0.0025045183
87	0xbdb14afa	-0.08656879
88	0x3db0e37c	0.08637139
89	0x3e0e0b15	0.13871415
90	0x3e3fefc2	0.18743804
91	0xbe1e1044	-0.15435892
92	0xbc47a9c4	-0.012186471
93	0x3e4ec124	0.20190865
94	0x3e4d20ea	0.20032087
95	0xbdd3aeb5	-0.10336057
96	0x3d5fa830	0.054603755
97	0x3e0ef515	0.13960679
98	0x3dd5faaa	0.10448201
99	0xbd289f46	-0.04116752
100	0x3df00061	0.11718822
101	0x3e3ab6b1	0.18233754
102	0xbd4cc2ca	-0.049990453
103	0xbb328e00	-0.0027245283
104	0x3dc1ce2e	0.09463154
105	0x3da7b44d	0.081886865
106	0xbd2d6d39	-0.04234049
107	0x3ba6ba8a	0.005088155
108	0xbe462e1f	-0.19353531
109	0xbd3299c4	-0.043603674
110	0xbdf97324	-0.121801645
111	0x3e036062	0.12829736
112	0x3dff46d3	0.124646805
113	0x3dce4240	0.1007123
114	0xbc2f7aa1	-0.010710389
115	0x3e17c49e	0.14821097
116	0xbddcf8e2	-0.10789658
117	0x3d086996	0.03330382
118	0x3caa71e4	0.02080626
119	0x3b6acfa5	0.0035829332
120	0x3e010aa0	0.1260171
121	0xbd43ac92	-0.047771998
122	0x3e4fe475	0.20301993
123	0x3e4f72c1	0.20258619
124	0x3b953abb	0.0045541204
125	0xbe49d368	-0.19709551
126	0x3db146a7	0.08656054
127	0x3b7c944b	0.0038540538

batch_norm_1.weight f4 [128]
0	0x3f7b75a5	0.98226386
1	0x3ffd2320	1.9776344
2	0x3f17e636	0.5933565
3	0x3fd124fe	1.6339414
4	0x3f39ada5	0.72530586
5	0x3fe7fa9d	1.8123356
6	0x3f3320c2	0.6997186
7	0x3fb81e4d	1.4384247
8	0x3f621bb2	0.8832351
9	0x3f657dfd	0.8964537
10	0x3ec45773	0.38347968
11	0x3fbdaf02	1.4819033
12	0x3fac5dbc	1.3466105
13	0x3f2f94b1	0.6858626
14	0x3f6480ed	0.89259225
15	0x3f4e0dca	0.8048979
16	0x3f33b2b2	0.7019454
17	0x3fb1bd5b	1.3885912
18	0x3e91cff1	0.2847896
19	0x3f12367e	0.571144
20	0x3f32a4b0	0.69782543
21	0x3f911b49	1.1336452
22	0x3f8c1de5	1.0946623
23	0x3f329634	0.6976044
24	0x3f3c1427	0.7346825
25	0x3f368061	0.7128964
26	0x3f411f1c	0.75438094
27	0x3f82d580	1.0221405
28	0x3f389721	0.72105604
29	0x3f128820	0.5723896
30	0x3f5eb42f	0.8699369
31	0x3ea21266	0.31654662
32	0x3f6ee257	0.9331412
33	0x3f6c70f2	0.9235984
34	0x3f5a6ac3	0.85319155
35	0x3f3ef236	0.74588335
36	0x400d3650	2.20644
37	0x3f4d0668	0.800879
38	0x3f677f75	0.9042886
39	0x3f0b383c	0.5438268
40	0x3f976a45	1.1829306
41	0x3f808c86	1.0042884
42	0x3f1b07f8	0.60559034
43	0x3f515c8b	0.81781834
44	0x3f1e36b1	0.618022
45	0x3f694c7d	0.91132337
46	0x3f0b221c	0.5434892
47	0x3f350eca	0.7072569
48	0x3f11021d	0.5664385
49	0x3f2a77b6	0.66588914
50	0x3f0e851e	0.5567187
51	0x3f4d6b28	0.8024163
52	0x3f9ced9c	1.2260013
53	0x3f8a276e	1.0793283
54	0x3f49821a	0.78714144
55	0x3efe6c5c	0.49692047
56	0x3faaeb49	1.3353053
57	0x3f55e1ce	0.83547676
58	0x3f2059a6	0.6263679
59	0x3f14f02a	0.5817896
60	0x3f977d50	1.1835117
61	0x3f8e4f7e	1.1118009
62	0x3f255c56	0.6459402
63	0x3ec62d8a	0.3870662
64	0x3f8d3c6b	1.1034063
65	0x3f387d4d	0.72066194
66	0x3f88d22b	1.0689138
67	0x3f3e9495	0.7444547
68	0x3f2fa0c3	0.6860468
69	0x3fa0e2f7	1.2569264
70	0x3f629760	0.8851223
71	0x3f89cd53	1.0765785
72	0x3f04824a	0.51761305
73	0x3f1b243a	0.6060215
74	0x3f31fc39	0.69525486
75	0x3e7c7192	0.24652699
76	0x3f14975b	0.5804345
77	0x3f2327f7	0.63732857
78	0x3f95699e	1.1672857
79	0x3f53563a	0.82553446
80	0x3fb242c8	1.392663
81	0x3f812fb7	1.0092686
82	0x3f438e10	0.76388645
83	0x3f600c17	0.8751845
84	0x3f7e6397	0.9937071
85	0x3fc62879	1.5481101
86	0x3f33d674	0.70249104
87	0x3f571751	0.84019953
88	0x3f282910	0.65687656
89	0x3f0e6825	0.5562766
90	0x3ed28448	0.41116548
91	0x3f769419	0.9631973
92	0x3f28f84f	0.6600389
93	0x3f17c0d1	0.5927859
94	0x3ee20cfa	0.44150525
95	0x3f8bc577	1.0919636
96	0x3f5ff2f9	0.8748012
97	0x3f082aa1	0.53190047
98	0x3f8efd47	1.1171044
99	0x3f8968e0	1.073513
100	0x3f3ebde9	0.7450853
101	0x3ef32a1f	0.47493073
102	0x3f0d6a4d	0.5524033
103	0x3f621382	0.88311017
104	0x3f34523e	0.7043799
105	0x3f8343bc	1.0255046
106	0x3fcfe82d	1.624273
107	0x3f2f175d	0.68395025
108	0x3ec832e9	0.3910134
109	0x3f4ccea3	0.800028
110	0x3f0d9b88	0.55315447
111	0x3f4be5f5	0.7964776
112	0x3f295373	0.6614296
113	0x3f0a233e	0.53960025
114	0x3f39dad4	0.7259953
115	0x3f4d0b72	0.8009559
116	0x3f55ba56	0.8348745
117	0x3f1ecc0c	0.620301
118	0x3c99a61a	0.018755961
119	0x3f333d47	0.70015377
120	0x3f3eed64	0.7458098
121	0x3f13ba4d	0.5770615
122	0x3f667f43	0.90037936
123	0x3f81874f	1.0119418
124	0x3f141d08	0.578568
125	0x3f7dffb1	0.9921828
126	0x3eb6695b	0.35627255
127	0x3f92c7fa	1.1467278

batch_norm_1.bias f4 [128]
0	0x3c8dbe90	0.017302781
1	0xbe08b836	-0.13351521
2	0xbf1867db	-0.5953347
3	0xbee4eb64	-0.4471084
4	0xbf048d05	-0.5177768
5	0x3de8276a	0.11335643
6	0xbed96c13	-0.42465267
7	0xbe16c804	-0.14724737
8	0xbed9ee32	-0.4256454
9	0xbefa09e3	-0.48835668
10	0xbf1c97e8	-0.6116929
11	0xbec6eb8a	-0.38851577
12	0xbe75167d	-0.2393436
13	0xbedb7a41	-0.4286671
14	0x3de38176	0.11108677
15	0xbec83ffc	-0.39111316
16	0xbf3e7827	-0.7440209
17	0xbe31f89e	-0.17379996
18	0xbed0d561	-0.40787795
19	0xbf1a616a	-0.6030489
20	0xbe337c26	-0.17527828
21	0xbf053941	-0.5204049
22	0xbdfab603	-0.12241747
23	0xbebad070	-0.3648715
24	0xbf2fc648	-0.6866193
25	0xbec441ca	-0.38331443
26	0xbf133447	-0.57501644
27	0xbed16580	-0.4089775
28	0xbed76514	-0.42069304
29	0xbf14a944	-0.5807078
30	0x3d9aaf96	0.075530216
31	0xbec7800c	-0.3896488
32	0x3d02c424	0.031925336
33	0xbe9decdc	-0.30844772
34	0xbede7618	-0.43449473
35	0xbe982f30	-0.297235
36	0xbe76fb69	-0.24119343
37	0xbea1ff6b	-0.3164018
38	0xbecb2099	-0.39673308
39	0xbe727a7f	-0.23679541
40	0xbeb3a72f	-0.35088488
41	0xbee81bd2	-0.45333725
42	0xbf013a97	-0.50480026
43	0xbf237ea4	-0.63865113
44	0xbeab33b5	-0.33437887
45	0xbe9eaabd	-0.30989638
46	0xbf1ab5c5	-0.6043361
47	0xbd6e1148	-0.05812195
48	0xbf2315bd	-0.63705045
49	0xbed6e363	-0.41970357
50	0xbf3175bf	-0.6932029
51	0xbeb89602	-0.36051947
52	0xbe9cfae9	-0.3066018
53	0xbe24b759	-0.16085567
54	0xbf034ce6	-0.5128921
55	0xbf18a5d5	-0.5962804
56	0x3c14ef4f	0.009090259
57	0xbefb4e73	-0.4908329
58	0xbf042965	-0.51625663
59	0xbf0fa85c	-0.5611627
60	0xbe4b7d47	-0.19872008
61	0x3d1abf77	0.03778025
62	0xbf0a1fa3	-0.53954524
63	0xbf44738f	-0.7673883
64	0xbe75db2a	-0.24009386
65	0xbf0c3744	-0.5477183
66	0xbed4afec	-0.41540468
67	0xbf0e6ff7	-0.55639595
68	0xbee2653c	-0.4421786
69	0xbea6920e	-0.32533306
70	0xbe7b0b2e	-0.24515983
71	0xbeda0672	-0.42583042
72	0xbf06c72f	-0.5264768
73	0xbf06791c	-0.5252855
74	0xbf49db7a	-0.7885052
75	0xbead4445	-0.33841148
76	0xbee35d5d	-0.44407168
77	0xbf242600	-0.64120483
78	0xbef89b4c	-0.48555982
79	0xbec26db2	-0.37974316
80	0xbeb1a36b	-0.3469499
81	0xbf010bd3	-0.5040867
82	0xbf442016	-0.7661146
83	0xbebdc0a3	-0.37061033
84	0xbf0ea82e	-0.5572537
85	0xbe8a9db5	-0.27073446
86	0xbe1c0638	-0.15236747
87	0xbe790054	-0.24316531
88	0xbf08b0a4	-0.5339453
89	0xbe962d78	-0.29331565
90	0xbf0487da	-0.51769793
91	0xbd4f1806	-0.05056002
92	0xbec26cfb	-0.3797377
93	0xbf0e557e	-0.555992
94	0xbf37d55a	-0.71809924
95	0xbf1b908d	-0.6076744
96	0xbf2cd6de	-0.6751536
97	0xbea5fb7e	-0.32418436
98	0xbe8183a3	-0.25295743
99	0xbe4c65a8	-0.19960654
100	0xbf1a75f5	-0.6033624
101	0xbe697d96	-0.22801813
102	0xbf02d9d2	-0.5111362
103	0xbe9ee246	-0.31032008
104	0xbedf8edd	-0.43663684
105	0xbe1d3a0c	-0.15354174
106	0xbf14d3e8	-0.58135843
107	0xbebc62ee	-0.36794227
108	0xbf01d991	-0.50722605
109	0xbf0681f5	-0.5254205
110	0xbe983a54	-0.29732
111	0xbef7cb34	-0.4839722
112	0xbe18d061	-0.1492324
113	0xbf16f88d	-0.5897301
114	0xbf0b104f	-0.5432176
115	0xbf01f483	-0.5076372
116	0xbf116920	-0.56801033
117	0xbf5986a6	-0.8497108
118	0xbd979edd	-0.07403348
119	0xbee485d6	-0.4463336
120	0xbebed311	-0.37270406
121	0xbec4911c	-0.3839196
122	0xbe676ffd	-0.22601314
123	0xbec9d613	-0.39421138
124	0xbe7dcb4f	-0.24784587
125	0xbdecc566	-0.11561088
126	0xbef94e26	-0.48692435
127	0xbe747a77	-0.23874842

batch_norm_1.running_mean f4 [128]
0	0xc13fe16b	-11.992534
1	0x40a7455a	5.227216
2	0xbf118d37	-0.568561
3	0x3fbb7554	1.4645181
4	0xc1450330	-12.313278
5	0x4193a077	18.453352
6	0xbf4d6549	-0.80232674
7	0x4174617d	15.273801
8	0x40d70821	6.7197423
9	0xbfd33662	-1.6500971
10	0xc10c9813	-8.7871275
11	0xc17fc94c	-15.986645
12	0x4103aef2	8.230211
13	0xc0c25eb4	-6.0740604
14	0xc0f0844a	-7.5161486
15	0x41116813	9.087909
16	0xc1b8344a	-23.025532
17	0x40d4283e	6.6299124
18	0xbfa73a6c	-1.3064704
19	0x40bee4a2	5.9654093
20	0x415c907e	13.785276
21	0xc194aa62	-18.583195
22	0xc0a74f8b	-5.22846
23	0xc13e813e	-11.906553
24	0xbdc53365	-0.09628943
25	0x40de2620	6.942154
26	0x3f9dd6d3	1.2331184
27	0xc0d1f659	-6.5613217
28	0xc0645aeb	-3.5680492
29	0x412f290a	10.947519
30	0x414b220f	12.695815
31	0x4177fdb6	15.499441
32	0x411f78bc	9.966976
33	0x415c0cf1	13.7531595
34	0xbe3d435a	-0.18482724
35	0x40bd290a	5.9112597
36	0x4065b161	3.5889513
37	0xbf872237	-1.0557317
38	0xc08eacb8	-4.458584
39	0x41244660	10.267181
40	0xbf753864	-0.9578917
41	0xc1613d61	-14.077485
42	0x412ddcaf	10.866378
43	0xc1246aba	-10.276056
44	0x40c6290d	6.192511
45	0x409473a4	4.6391163
46	0x3e7e7dec	0.24852723
47	0x41288936	10.533499
48	0x40e2b07d	7.084044
49	0x405da707	3.4633195
50	0xc0cd55a0	-6.4167023
51	0xc0263b12	-2.5973554
52	0x3f4b2373	0.79350966
53	0x40f24152	7.5704737
54	0xc0f3baa6	-7.616534
55	0xc026c4be	-2.6057582
56	0xbf814d36	-1.0101688
57	0x4165b4b2	14.356615
58	0x40851898	4.159252
59	0x40569ece	3.3534427
60	0xbe0ba0b4	-0.13635522
61	0x412e240c	10.8838005
62	0xc089fb35	-4.311915
63	0xc05512f4	-3.3292818
64	0x40a212d2	5.0647974
65	0x41102b7b	9.010615
66	0x3f43fed0	0.7656069
67	0x414341ef	12.203597
68	0x418e6e74	17.803932
69	0x406be9a7	3.686136
70	0x412ac81d	10.673856
71	0xc1d51cd2	-26.639072
72	0x416dfa7d	14.873654
73	0x40954b40	4.665436
74	0xc1559a5a	-13.3501835
75	0x415b0679	13.68908
76	0x4091601c	4.542982
77	0x3f2c6834	0.673465
78	0xc190996a	-18.07491
79	0x413d7928	11.842079
80	0x412de7d7	10.869102
81	0x40b98fed	5.798819
82	0x3efff835	0.49994054
83	0x4098e817	4.7783313
84	0x409ad73e	4.8387747
85	0xc1b4116a	-22.508503
86	0x40aa7e43	5.327913
87	0xc1b77124	-22.930244
88	0xc17214b0	-15.130051
89	0x40c6c292	6.2112513
90	0x4127141b	10.442409
91	0x4165de7d	14.366818
92	0x415611d0	13.379349
93	0x3fa63a67	1.2986573
94	0xc15a429e	-13.641264
95	0xc145ed3c	-12.370419
96	0xc1710ef4	-15.066151
97	0x410b8337	8.719535
98	0x41cc31f6	25.524395
99	0xc05ad4bc	-3.4192343
100	0xc12cc714	-10.798603
101	0xc1295ef9	-10.585687
102	0x3e1e2b92	0.15446308
103	0x4089967c	4.2996197
104	0x40c1df01	6.058472
105	0x412a0771	10.626817
106	0xc197fb88	-18.997818
107	0x415d7bf0	13.842758
108	0x411cd8c2	9.802919
109	0xbf7ac0e2	-0.97950566
110	0x4147e11f	12.492461
111	0xc0b16638	-5.543728
112	0xc092f1cd	-4.5920167
113	0x411d484e	9.8301525
114	0xc0eb3a3a	-7.3508577
115	0xc0ede67e	-7.4343863
116	0x40f1410c	7.5391903
117	0xc15bb334	-13.731251
118	0xc126b39b	-10.418849
119	0x40e1f962	7.061692
120	0x4155f9d5	13.373494
121	0x40a9feb6	5.3123426
122	0xc178b144	-15.543278
123	0xc084f1a9	-4.1544995
124	0x41483a63	12.514255
125	0x418c3739	17.526964
126	0xc131061f	-11.063994
127	0x410abf1e	8.671659

batch_norm_1.running_var f4 [128]
0	0x42c1c3ff	96.882805
1	0x4207031d	33.75304
2	0x4347ee47	199.93077
3	0x428d280c	70.57822
4	0x4232cdf0	44.70111
5	0x42c1aa88	96.83307
6	0x4404d08c	531.25854
7	0x429f60b0	79.68884
8	0x431e7364	158.45074
9	0x43170045	151.00105
10	0x4274e8d5	61.227375
11	0x42a79a17	83.80096
12	0x42bca35c	94.31906
13	0x438734e5	270.41324
14	0x42554a25	53.322407
15	0x42d9e031	108.937874
16	0x42eb949b	117.790245
17	0x4384d7c9	265.68582
18	0x43d9aabf	435.33395
19	0x43a17cd5	322.97525
20	0x42c371a1	97.72193
21	0x42ad6d95	86.71403
22	0x42c04791	96.13978
23	0x432501e5	165.0074
24	0x43931b98	294.21558
25	0x4323cb98	163.79529
26	0x4386c720	269.55566
27	0x4290edef	72.464714
28	0x435d1b50	221.10669
29	0x42e6aa1a	115.33223
30	0x43707d49	240.4894
31	0x439599f9	299.2029
32	0x434cd196	204.8187
33	0x433e6c47	190.42296
34	0x43383504	184.20709
35	0x431bc5cc	155.77264
36	0x421e3fd9	39.56235
37	0x4286e693	67.45034
38	0x431dc952	157.7864
39	0x43ccfabd	409.9589
40	0x41cb19c2	25.387577
41	0x431e7e1a	158.49258
42	0x434ed138	206.81726
43	0x4353ceaf	211.80736
44	0x42f45221	122.16041
45	0x43a63ad2	332.45953
46	0x434fc904	207.78522
47	0x4311bc54	145.73566
48	0x437c7134	252.4422
49	0x439fc6b8	319.5525
50	0x43c8df1d	401.74307
51	0x434c09e3	204.03862
52	0x429fd161	79.90894
53	0x43261f03	166.12114
54	0x429dc5f8	78.88666
55	0x43952501	298.2891
56	0x436cef43	236.93462
57	0x42dda99f	110.83129
58	0x4342d7ea	194.84341
59	0x4380a8ac	257.31775
60	0x42ebcc1c	117.89865
61	0x4379c8e4	249.78473
62	0x43fd37dd	506.43643
63	0x434a483a	202.28214
64	0x42fa9b9c	125.303925
65	0x4361caf5	225.7928
66	0x4304ead8	132.91736
67	0x438900e9	274.0071
68	0x42bca1b2	94.31581
69	0x4215a7bb	37.4138
70	0x43df3518	446.4148
71	0x43143a49	148.22768
72	0x439d69b3	314.82578
73	0x42d6e0b8	107.4389
74	0x43055fa0	133.37354
75	0x43587d0e	216.4885
76	0x440c9e98	562.478
77	0x43a4e322	329.77448
78	0x42c99789	100.79597
79	0x43147f4f	148.4973
80	0x42fc496c	126.1434
81	0x42a8a20b	84.31649
82	0x43240ef3	164.0584
83	0x42bd6f61	94.71754
84	0x4349e005	201.87508
85	0x42fa78d3	125.235985
86	0x42c9cd72	100.90126
87	0x43135b66	147.35703
88	0x42d0cc7a	104.39937
89	0x4341be2a	193.74283
90	0x43ba1a0e	372.20355
91	0x427ac26a	62.689857
92	0x435a25cc	218.14764
93	0x438cb3fc	281.40613
94	0x4322f391	162.95143
95	0x43125e31	146.36794
96	0x43324b15	178.29329
97	0x4318feb3	152.99492
98	0x431b52be	155.32321
99	0x42b7537a	91.66304
100	0x433d182c	189.09442
101	0x4322b7a1	162.7173
102	0x431e8e12	158.55496
103	0x422c0c1c	43.011826
104	0x42e5d420	114.91431
105	0x42c25436	97.164474
106	0x42ccd4cb	102.41561
107	0x436d22bc	237.13568
108	0x43840803	264.0626
109	0x434cfac0	204.97949
110	0x43d32425	422.28238
111	0x4383cdaa	263.60675
112	0x432911fd	169.07027
113	0x441ba1c0	622.52734
114	0x433d601f	189.37547
115	0x43305524	176.33258
116	0x4336272b	182.153
117	0x42f6129f	123.03637
118	0x435a0afa	218.04288
119	0x43c0c129	385.50906
120	0x438d9eb0	283.23975
121	0x43b63e35	364.486
122	0x4345063e	197.02438
123	0x4332c8be	178.78415
124	0x43842542	264.29108
125	0x42f78a16	123.7697
126	0x43ba61d1	372.7642
127	0x426e1d5d	59.528675

layer_2.weight f4 [64, 128]
0	0xbf1413fc	-0.57842994
1	0x3ecf5ef4	0.4050213
2	0x3df55948	0.1197992
3	0xbc3b12f7	-0.011418096
4	0xbee60fbb	-0.44933876
5	0x3ed2f5b6	0.41203088
6	0xbdf8e186	-0.1215239
7	0x3f051c5f	0.51996416
8	0x3e455110	0.19269204
9	0x3ea9236c	0.33034837
10	0xbc442517	-0.0119717335
11	0xbee7a101	-0.45240024
12	0x3eb46926	0.35236472
13	0x3e8de0a3	0.27710447
14	0xbcd9699a	-0.026539613
15	0xbd53d277	-0.051714387
16	0xbe099d20	-0.13438845
17	0x3df0690e	0.117387876
18	0xbe1497a2	-0.14510968
19	0xbe65c445	-0.22438152
20	0x3f39d659	0.72592694
21	0x3e0d3570	0.13789916
22	0xbe6a76b3	-0.22896843
23	0xbf003a2d	-0.5008877
24	0xbe42c336	-0.1901978
25	0x3dd03324	0.10166004
26	0x3e10b17d	0.14130206
27	0xbca9dda1	-0.020735564
28	0xbe8835db	-0.26603588
29	0x3d4967a6	0.049171112
30	0xbe6e2876	-0.23257622
31	0x3e92fdad	0.28709164
32	0xbdb7eda6	-0.08980875
33	0x3d8af468	0.06784898
34	0xbe98f6ea	-0.2987588
35	0x3e84a3c8	0.25906205
36	0xbe19dcc2	-0.15025619
37	0xbe108a90	-0.14115357
38	0x3dc752c5	0.09732584
39	0xbe65e8ca	-0.22452083
40	0x3c469c0b	0.0121221645
41	0xbe9fbe06	-0.31199664
42	0xbd9752f9	-0.07388873
43	0xbed01342	-0.40639693
44	0xbe731a0d	-0.23740406
45	0x3cc63a95	0.024197856
46	0xbdfd4a0e	-0.123676404
47	0xbd75f4c5	-0.060047884
48	0xbda1a65b	-0.07893058
49	0x3df0a64f	0.11750471
50	0x3e47693c	0.19473737
51	0xbe6c98ae	-0.23105118
52	0x3c0d5217	0.008625529
53	0xbedcf356	-0.431544
54	0xbecbe46d	-0.39822713
55	0x3dfd5d16	0.1237127
56	0x3f1104b0	0.5664778
57	0xbe0e9c07	-0.13926707
58	0x3d593e4c	0.053037927
59	0xbd7c2a8a	-0.061564006
60	0x3db8048e	0.08985244
61	0xbe65a387	-0.22425662
62	0x3d71b849	0.05901364
63	0xbe2ddead	-0.16979475
64	0x3db48e33	0.08816185
65	0x3bf415c9	0.007448886
66	0xbd19e265	-0.037569422
67	0xbe729faa	-0.2369372
68	0xbce35c12	-0.027753863
69	0x3d00552f	0.031331237
70	0x3e321b66	0.17393264
71	0xbed5b73d	-0.41741362
72	0xbd8f29b6	-0.069903776
73	0xbce417b8	-0.027843341
74	0xbb8f1d1b	-0.0043674833
75	0x3e805ba8	0.25069928
76	0x3c6e876b	0.014558653
77	0x3e037442	0.12837318
78	0xbec66d36	-0.38755196
79	0x3e00f60b	0.12593858
80	0x3e46eaa5	0.19425447
81	0x3d7c29fe	0.061563484
82	0x3deed675	0.11661998
83	0x3db0d13f	0.086336605
84	0x3ee81a8c	0.45332754
85	0xbf094db2	-0.5363418
86	0xbebdd2de	-0.3707494
87	0xbeb525a6	-0.35380286
88	0x3e01de9d	0.12682576
89	0x3e13c6bb	0.14431278
90	0x3e343bf9	0.17601003
91	0x3efb27f2	0.49053913
92	0x3e032a84	0.12809187
93	0xbd0252e0	-0.031817317
94	0xbdf9ad73	-0.12191286
95	0xbe5cb568	-0.21553576
96	0xbed2a8d2	-0.41144425
97	0xbecdf7f3	-0.40228233
98	0xbda5b103	-0.08090403
99	0xbf196e2d	-0.5993374
100	0xbcd2959e	-0.025706109
101	0xbe11e0f5	-0.1424597
102	0x3e06a288	0.13147938
103	0x3e7224c0	0.23646832
104	0xbf2a8e27	-0.6662316
105	0x3e03cf2a	0.12871996
106	0xbf1f4b71	-0.6222449
107	0xbea01ccc	-0.3127197
108	0xbdb4982a	-0.088180855
109	0x3d3c8abb	0.04603074
110	0xbda46325	-0.08026723
111	0x3ecd5a51	0.40107968
112	0xbe558073	-0.2084978
113	0x3e14ee5b	0.1454405
114	0xbd595272	-0.05305714
115	0x3d691b61	0.056910876
116	0x3e1a0839	0.15042199
117	0x3d97ec68	0.07418138
118	0x3d2ec64a	0.042669572
119	0x3e80f416	0.25186223
120	0x3e589acd	0.21152802
121	0xbc17a885	-0.009256487
122	0xbca549ce	-0.020176794
123	0xbc5e95ce	-0.013585521
124	0x3ed1c4a4	0.40970337
125	0x3d7947a8	0.060859352
126	0xbdddcc20	-0.108299494
127	0x3e400668	0.18752444
128	0xbd6a3548	-0.05717972
129	0x3da2c773	0.07948198
130	0x3e271b6d	0.16319056
131	0x3e4584f2	0.19288996
132	0x3b4447b0	0.0029949956
133	0xbe483ac9	-0.19553675
134	0xbca1ec3c	-0.019765966
135	0x3eb7b939	0.358835
136	0xbe07b2f0	-0.13251853
137	0x3ebe7822	0.3720103
138	0xbe94cbe5	-0.2906181
139	0x3e4a8711	0.19778086
140	0xbe0b743e	-0.13618562
141	0xbd82cae8	-0.063863575
142	0x3d89dd34	0.06731644
143	0x3e3175ab	0.17330043
144	0x3ed2793b	0.41108117
145	0x3e064d77	0.13115488
146	0xbe375e9f	-0.17907189
147	0x3d02ca9e	0.031931512
148	0xbdf6577c	-0.12028405
149	0xbd788fb8	-0.060683936
150	0xbe1e1607	-0.1543809
151	0x3ebef582	0.37296683
152	0x3e14e304	0.14539725
153	0x3d8e2a28	0.069416344
154	0xbde929f9	-0.11384959
155	0xbe7311fd	-0.2373733
156	0x3e4f6ab4	0.20255548
157	0x3f146734	0.57969975
158	0x3e660f81	0.22466852
159	0xbe85b9bb	-0.26118264
160	0x3e5b9f15	0.21447404
161	0x3e83ecd3	0.2576662
162	0xbc7e128c	-0.015507352
163	0xbe8fde64	-0.28099358
164	0xbe54ea46	-0.20792493
165	0xbe12cd6b	-0.14336173
166	0xbec976dc	-0.39348495
167	0xbca7e0b2	-0.020492885
168	0xbd9d7c36	-0.07689707
169	0x3f2d53b0	0.6770582
170	0xbd95e8ef	-0.07319819
171	0x3ddbc350	0.10730612
172	0xbdbe63bb	-0.09296366
173	0x3e36f530	0.17866969
174	0xbe3ff2a4	-0.18744904
175	0x3e5d8fe2	0.21636918
176	0x3cc9a94b	0.024616858
177	0xbc886cd8	-0.016653463
178	0xbf0bec68	-0.546576
179	0x3cf76670	0.030200213
180	0xbdcb5883	-0.09928992
181	0x3e57c181	0.2106991
182	0xbe00773e	-0.12545487
183	0x3e170398	0.14747465
184	0x3dda72ac	0.10666403
185	0x3e16515a	0.1467947
186	0xbf0651ef	-0.5246877
187	0x3e8cb0b4	0.27478564
188	0x3d945cf8	0.07244295
189	0x3e802278	0.25026298
190	0xbf17d7da	-0.5931374
191	0x3d34fd39	0.044186804
192	0x3de27dd5	0.11059157
193	0xbe8df2f9	-0.27724436
194	0x3eb6eda9	0.35728195
195	0xbe63539b	-0.22199862
196	0x3eee4050	0.46533442
197	0x3d3bcac7	0.04584768
198	0xbead0bdd	-0.33798113
199	0x3f55f203	0.83572406
200	0xbd599b5e	-0.053126685
201	0xbde7a3b6	-0.11310522
202	0xbe753a23	-0.23947959
203	0x3dbe710c	0.09298906
204	0xbed263bc	-0.41091716
205	0xbde6107d	-0.11233614
206	0x3db25af6	0.08708756
207	0xbe4ba4ec	-0.19887131
208	0xbdb18d67	-0.086695485
209	0xbea64105	-0.3247148
210	0x3a814689	0.000986294
211	0x3e534e35	0.20635302
212	0xbba595e4	-0.0050532687
213	0x3efd7ca7	0.49509165
214	0xbed8d8a2	-0.42352778
215	0x3ef610ab	0.48059592
216	0xbe48e307	-0.19617854
217	0xbedd62df	-0.43239495
218	0xbe9e1855	-0.3087794
219	0xbbe3e454	-0.006954709
220	0xbe826c53	-0.2547327
221	0xbe855418	-0.2604072
222	0x3f01f565	0.5076507
223	0x3e8cc256	0.27492017
224	0x3f00f04e	0.50366676
225	0xbf18c186	-0.59670293
226	0x3edd67da	0.43243295
227	0xbe8007cb	-0.25005946
228	0x3d85cf1a	0.06533642
229	0x3e78431c	0.2424435
230	0xbe3d72f6	-0.18500885
231	0xbd90b98e	-0.07066642
232	0x3eceb937	0.40375683
233	0x3e23824e	0.15967676
234	0x3e9a5284	0.3014108
235	0xbe6d2a44	-0.23160654
236	0xbcb83a30	-0.022488683
237	0x3e4429ec	0.19156617
238	0x3c912c82	0.017721418
239	0xbe63d535	-0.22249301
240	0x3d8f847f	0.070076935
241	0xbe76927d	-0.24079318
242	0x3eaf6c88	0.3426249
243	0x3f056565	0.5210784
244	0x3e2fc65f	0.17165516
245	0x3d2f4140	0.042786837
246	0x3e39071f	0.18069123
247	0xbe805e9e	-0.25072187
248	0xbef391be	-0.4757213
249	0x3d29d4ce	0.041462712
250	0x3f00e02f	0.50342077
251	0x3eec2e19	0.4612892
252	0xbc9d80c0	-0.019226432
253	0x3f0ed52d	0.5579403
254	0xbdbb037e	-0.091315255
255	0xbe0ae43e	-0.1356363

layer_2.bias f4 [64]
0	0x3d0a89ff	0.03382301
1	0x3cf3ae75	0.029746274
2	0x3d0fd7a0	0.035117745
3	0x3da8c866	0.08241348
4	0xbdb1a760	-0.086745024
5	0x3ce85869	0.02836247
6	0x3da2285f	0.079178564
7	0xbc58e15e	-0.0132373255
8	0xba7fc835	-0.0009757311
9	0xbd56928d	-0.052385855
10	0x3ccc8bde	0.024969038
11	0x3c8544c2	0.016268138
12	0xbda25b00	-0.07927513
13	0x3d8b0cab	0.067895256
14	0x3cf29c62	0.029615585
15	0x3d2f5c7c	0.04281281
16	0xbaf55950	-0.0018718634
17	0xbd95b59e	-0.07310031
18	0xbc9ec798	-0.019382283
19	0xbd7ea258	-0.06216654
20	0x3c52cbc7	0.012865967
21	0xbd8d6012	-0.069030896
22	0xbcddfc3a	-0.02709781
23	0xbb7a869d	-0.0038227208
24	0x3d99a571	0.075022586
25	0xbd23f845	-0.04003169
26	0x3c0f6107	0.00875116
27	0x3d735475	0.059406716
28	0xbcaa1594	-0.020762242
29	0x3bb74e49	0.005594049
30	0xbd877314	-0.06613746
31	0xbd9345c6	-0.071910426
32	0xbd6a555f	-0.057210322
33	0x3daaa0f4	0.083314806
34	0xbd1a866e	-0.03772586
35	0xbda223e5	-0.079170026
36	0xbdb0a081	-0.08624364
37	0x3d451da3	0.048123967
38	0x3cce42b6	0.025178295
39	0xbd0fb870	-0.035088003
40	0xbda87a53	-0.082264565
41	0x3c4fe2d7	0.01268836
42	0x3d99c85d	0.075089194
43	0x3da08580	0.07837963
44	0xbd46bc1e	-0.048519246
45	0x3d03c843	0.032173406
46	0xbd89ef5f	-0.067351095
47	0xbd87b739	-0.06626744
48	0x3d69da00	0.057092667
49	0xbc3ba589	-0.011453041
50	0xbd2c1339	-0.04201052
51	0xbbda12ea	-0.0066550868
52	0xbda29d29	-0.07940132
53	0xbdb1af92	-0.086760655
54	0xbd06faf5	-0.032954175
55	0x3da9d0a8	0.08291751
56	0xbd3b4b5a	-0.045726158
57	0xbd8be485	-0.06830696
58	0x3cb2898d	0.021794105
59	0xbc64485a	-0.013933266
60	0x3cb0f1c4	0.021599658
61	0xbd886c9f	-0.06661343
62	0x3db3f785	0.08787445
63	0xbcabb0db	-0.020958355

batch_norm_2.weight f4 [64]
0	0x3f90f848	1.132577
1	0x3f8bf933	1.0935425
2	0x3f5781e7	0.8418259
3	0x3f87ec7e	1.0619047
4	0x3f833b7f	1.0252532
5	0x3f7f00a6	0.99610364
6	0x3f8ede36	1.1161563
7	0x3f30c145	0.69044906
8	0x3f62caec	0.88590884
9	0x3f90af56	1.1303508
10	0x3f6e8a08	0.9317937
11	0x3f614e18	0.88009787
12	0x3f509a55	0.8148549
13	0x3f541632	0.8284637
14	0x3f516a96	0.8180326
15	0x3f477984	0.77919793
16	0x3f7dca10	0.9913645
17	0x3f3a4e47	0.7277569
18	0x3f87399d	1.0564457
19	0x3f9ac0fe	1.2090147
20	0x3f7c8c7a	0.9865185
21	0x3f90598e	1.127733
22	0x3f5d6a20	0.8649006
23	0x3f77a25d	0.9673212
24	0x3f6eea8c	0.9332664
25	0x3f7805a7	0.96883625
26	0x3f6a7fcc	0.9160125
27	0x3f70ca5b	0.9405877
28	0x3f8c476c	1.0959296
29	0x3f91a6cc	1.1379027
30	0x3f940542	1.1564105
31	0x3f8920a3	1.0713085
32	0x3f5bcc8c	0.8585899
33	0x3f572b41	0.84050375
34	0x3f6f01ff	0.9336242
35	0x3f70a8f2	0.9400779
36	0x3f9c4896	1.2209651
37	0x3f50ce35	0.81564647
38	0x3f6d496d	0.92690164
39	0x3f7f8f5e	0.99828136
40	0x3f4e50e1	0.8059216
41	0x3f9af38f	1.2105578
42	0x3f764f24	0.9621451
43	0x3f58879d	0.8458193
44	0x3f84d717	1.037814
45	0x3fcd14ff	1.6022032
46	0x3f61c815	0.88195926
47	0x3f60a864	0.87756944
48	0x3f7ca1a2	0.9868413
49	0x3f745b52	0.95451844
50	0x3f61e1a3	0.8823492
51	0x3f8b52fc	1.08847
52	0x3f3ddc16	0.7416395
53	0x3f8ac709	1.0841991
54	0x3f5360aa	0.8256937
55	0x3f7b27d8	0.9810767
56	0x3f355f05	0.70848113
57	0x3f66ae78	0.9010997
58	0x3f47ed2a	0.7809626
59	0x3f74a4a6	0.95563734
60	0x3f45fd26	0.773394
61	0x3f7d17d7	0.988645
62	0x3f3b66de	0.7320384
63	0x3f81245d	1.0089222

batch_norm_2.bias f4 [64]
0	0xbea23b77	-0.31685993
1	0xbf277dd1	-0.65426356
2	0xbe12e9a9	-0.14346947
3	0xbcd7fa08	-0.026364341
4	0xbd4871bc	-0.04893659
5	0xbf2b95ca	-0.67025435
6	0xbd7df956	-0.062005363
7	0xbf047b2e	-0.5175046
8	0xbe693fad	-0.22778197
9	0xbe82b1c7	-0.25526258
10	0xbe99e8e3	-0.3006049
11	0xbee773b0	-0.4520545
12	0xbf02c5e3	-0.510832
13	0xbeebc467	-0.4604828
14	0xbf059f27	-0.5219597
15	0xbee69654	-0.45036566
16	0xbeb1199a	-0.34589845
17	0xbf1a3140	-0.602314
18	0xbeab31e9	-0.33436516
19	0xbe902da8	-0.28159833
20	0xbee5018c	-0.44727743
21	0xbe73c74f	-0.23806499
22	0xbf02caf0	-0.5109091
23	0xbee45211	-0.44593862
24	0xbeb6c422	-0.35696512
25	0xbf286322	-0.65776265
26	0xbe32a928	-0.1744734
27	0xbe3bc12d	-0.1833541
28	0xbea37d13	-0.31931362
29	0x3d52321a	0.05131731
30	0xbdbb1769	-0.091353245
31	0x3c47a589	0.012185463
32	0xbed57115	-0.41687837
33	0xbea91eae	-0.3303122
34	0xbd972483	-0.07380011
35	0xbf22db4f	-0.6361589
36	0xbe9b04c5	-0.30277076
37	0xbea643fb	-0.3247374
38	0xbec86381	-0.39138415
39	0xbed5c897	-0.417546
40	0xbeaa998a	-0.33320266
41	0xbefe324b	-0.49647745
42	0xbe96ef6d	-0.29479542
43	0xbec9395e	-0.3930158
44	0xbefcc4b3	-0.4936882
45	0xbeb67bd7	-0.35641357
46	0xbe9ce801	-0.30645755
47	0xbee4e462	-0.44705492
48	0xbe6f42a4	-0.23365265
49	0xbed263b5	-0.41091695
50	0xbea59e27	-0.32347223
51	0x3da24c9c	0.07924768
52	0xbf0b3298	-0.54374075
53	0xbe80e92a	-0.2517789
54	0xbf17eeb4	-0.5934861
55	0xbe5317c7	-0.20614539
56	0xbf34cda0	-0.7062626
57	0xbe865e85	-0.26243988
58	0xbee693a6	-0.45034522
59	0xbf5d007d	-0.8632887
60	0xbe18a60a	-0.14907089
61	0xbf137094	-0.57593656
62	0xbf64c127	-0.8935723
63	0xbcdd1d2d	-0.026991451

batch_norm_2.running_mean f4 [64]
0	0xbe9f016e	-0.31055778
1	0x3fe3b5e5	1.7789885
2	0xbf9663f2	-1.1749251
3	0xbf46975e	-0.7757472
4	0xbfe4cd0c	-1.7875075
5	0x40162b28	2.346384
6	0xbfa33299	-1.2749816
7	0x401d9dcc	2.4627562
8	0xbffd2cbd	-1.9779278
9	0xbfd3ddee	-1.6552103
10	0xbe87485d	-0.26422396
11	0x3f36ba12	0.7137767
12	0x3fa80df8	1.3129263
13	0xbf750368	-0.9570832
14	0xbf758221	-0.95901686
15	0xbe283023	-0.16424613
16	0xc038a52d	-2.8850815
17	0x3fe73a33	1.8064636
18	0x3f7cb4ce	0.98713386
19	0x3e93555a	0.28776056
20	0xbfa5c7ec	-1.2951636
21	0x3f858f98	1.0434446
22	0xbf8fee0c	-1.1244521
23	0xbf229536	-0.6350893
24	0x4030b15f	2.7608259
25	0x3f9f175f	1.2429007
26	0xbf501bfc	-0.812927
27	0xbf8c1295	-1.0943171
28	0xbf54dd34	-0.8315003
29	0xc002eae9	-2.0455878
30	0xbfcb4926	-1.5881698
31	0x3f375453	0.71613044
32	0xbfeef3b9	-1.8668128
33	0x3f1f3fd0	0.62206745
34	0xc08265bc	-4.0749187
35	0xbfec9c32	-1.8485167
36	0xbf0602dd	-0.5234812
37	0xbf1fbcab	-0.6239726
38	0xbf98f8e8	-1.195096
39	0xbecab63a	-0.39592153
40	0xbfd863c1	-1.6905442
41	0xbf9d57b2	-1.2292387
42	0xc024c93b	-2.5747821
43	0x40007210	2.0069618
44	0x3f826f69	1.019025
45	0xbff56cfd	-1.9173886
46	0xbec0d190	-0.37659883
47	0x3f8eff4e	1.1171663
48	0xc013008d	-2.2969086
49	0xbee14355	-0.43996683
50	0xbfa1e165	-1.264691
51	0x3fea0792	1.828356
52	0x3fc1bbf3	1.5135483
53	0xbf7617af	-0.9612989
54	0x4059c81e	3.4028392
55	0xbffffc4e	-1.9998872
56	0x401ee68b	2.4828212
57	0xbe9c89e2	-0.30573946
58	0x3dc4843d	0.09595535
59	0x400df924	2.2183313
60	0xc0175fdc	-2.3652258
61	0x3e9ffc2f	0.31247088
62	0x405294f9	3.2903426
63	0xbffd4106	-1.9785469

batch_norm_2.running_var f4 [64]
0	0x41428bc0	12.159119
1	0x4078e5ba	3.8890214
2	0x402e9349	2.7277396
3	0x403a0ae2	2.9069142
4	0x41394e99	11.581689
5	0x411890d5	9.535359
6	0x41135c27	9.209998
7	0x40396148	2.8965626
8	0x411a22d3	9.633502
9	0x405fa5c5	3.4944928
10	0x40aa8813	5.3291106
11	0x4085d7d5	4.1825967
12	0x403d9dac	2.9627485
13	0x401442a4	2.3165674
14	0x4074ec9f	3.8269422
15	0x40cca10e	6.39466
16	0x409a7cd5	4.8277383
17	0x405dd835	3.4663212
18	0x4020ac39	2.5105116
19	0x40d1e1ab	6.5587974
20	0x40f1a72c	7.5516567
21	0x413cd842	11.802797
22	0x405c7b59	3.4450285
23	0x4064881c	3.5708075
24	0x409cd0b1	4.900475
25	0x40b0425e	5.5081015
26	0x41200110	10.000259
27	0x40e22836	7.0674086
28	0x4019c893	2.402867
29	0x40cd567f	6.4168086
30	0x409d131b	4.908582
31	0x41328dba	11.159601
32	0x406f89c1	3.7427828
33	0x40ac9c7b	5.3941016
34	0x41312f61	11.074067
35	0x4016dbb5	2.3571599
36	0x401fea21	2.498665
37	0x40eb28fa	7.348752
38	0x412ed664	10.927341
39	0x409d567e	4.916808
40	0x40b0ee36	5.5290785
41	0x4125cd16	10.36257
42	0x4010cca8	2.2624912
43	0x407fb54c	3.9954405
44	0x410b4920	8.705353
45	0x4100c006	8.046881
46	0x403110cd	2.7666504
47	0x40ac5762	5.385667
48	0x4130d826	11.052771
49	0x404d24b1	3.2053645
50	0x402f752c	2.7415266
51	0x40ab7764	5.358324
52	0x408dd148	4.431797
53	0x4102b05b	8.168056
54	0x4080d246	4.025668
55	0x40a7e88e	5.247138
56	0x409aad3a	4.833646
57	0x40b74b64	5.727953
58	0x40c83969	6.257008
59	0x4038a28a	2.8849206
60	0x4055dc80	3.3415833
61	0x40847be6	4.1401243
62	0x402af070	2.6709251
63	0x417ebc07	15.920905

layer_3.weight f4 [32, 64]
0	0xbe4ffc86	-0.20311174
1	0x3cbc96ee	0.023021188
2	0x3e4e55d8	0.20149934
3	0x3c427c1e	0.011870412
4	0xbe9479d8	-0.2899921
5	0x3e1a21dc	0.15051979
6	0xbdb6c00d	-0.089233495
7	0xbf0ee6c3	-0.55820864
8	0xbe1e9f90	-0.15490556
9	0xbeaddef8	-0.33959174
10	0xbd23d2fe	-0.03999614
11	0x3ea107f4	0.3145138
12	0x3d2a0c80	0.041515827
13	0xbd89400e	-0.067016706
14	0x3e31d281	0.17365457
15	0x3e6f5e88	0.23375905
16	0xbdd6bae5	-0.10484866
17	0x3e7f26fa	0.24917212
18	0xbf31b648	-0.69418764
19	0x3e52b4b5	0.20576747
20	0x3dd63f09	0.10461242
21	0xbe185f1d	-0.14880033
22	0x3ed2f99a	0.41206056
23	0xbe1dc40b	-0.15406816
24	0x3ccef33b	0.025262466
25	0xbc631599	-0.01386013
26	0xbe01457a	-0.1262416
27	0xbe6333b0	-0.22187686
28	0x3f1ba39f	0.6079654
29	0xbe8caa7e	-0.27473825
30	0xbdc3aaa3	-0.09554031
31	0x3cbe7b1e	0.023252066
32	0x3e6a3a1c	0.2287373
33	0x3db2717f	0.08713054
34	0xbf062776	-0.5240396
35	0xbebfc3ff	-0.3745422
36	0xbef09d30	-0.46994925
37	0x3df51575	0.11966983
38	0x3ecb758b	0.39738116
39	0xbef547ed	-0.47906438
40	0xbeb02696	-0.3440444
41	0x3eb06673	0.34453163
42	0xbeb4e898	-0.35333705
43	0xbdbffaa9	-0.093739815
44	0xbc6e6849	-0.014551231
45	0x3d859130	0.06521833
46	0xbcb2c81d	-0.021823937
47	0xbe03879d	-0.12844701
48	0xbec24bd1	-0.37948468
49	0xbd8de6f3	-0.06928816
50	0xbdb232f1	-0.087011226
51	0xbde8cbff	-0.11367034
52	0xbea62c9f	-0.32455918
53	0x3dac1373	0.08402147
54	0xbeb7c4ad	-0.3589224
55	0x3f14df4b	0.5815322
56	0x3d0ccb06	0.034373306
57	0xbe233ec7	-0.15941916
58	0xbe8fc90a	-0.28083068
59	0xbf19d006	-0.60083044
60	0x3d37118e	0.044694476
61	0x3d40da93	0.04708345
62	0xbdd39e2b	-0.103329025
63	0xbe205412	-0.1565707
64	0x3dec6676	0.115429804
65	0xbde37d2d	-0.1110786
66	0x3e031cd0	0.1280396
67	0x3cc564a7	0.024095846
68	0x3e4fd1b4	0.20294839
69	0xbeef8595	-0.46781603
70	0xbe9a6f54	-0.30163062
71	0x3f092d3b	0.5358464
72	0xbed24708	-0.41069818
73	0xbf2661ec	-0.64993167
74	0xbbdb4018	-0.00669099
75	0xbe33a132	-0.1754196
76	0x3def461d	0.11683295
77	0x3e09e274	0.13465291
78	0x3e3829e2	0.17984727
79	0x3eb54a37	0.35408184
80	0xbe5fc1c5	-0.21851261
81	0xbe94f7a3	-0.29095182
82	0xbe66fbb0	-0.22556949
83	0xbf43af36	-0.76439226
84	0xbe47acbb	-0.19499485
85	0xbf047ffc	-0.5175779
86	0xbe2b2b45	-0.16715725
87	0x3e8f7480	0.2801857
88	0x3eaab09a	0.3333786
89	0xbf2b86b9	-0.67002445
90	0x3dbe8207	0.093021445
91	0xbe98e9ea	-0.29865962
92	0xbe3357fd	-0.17514034
93	0x3e94ce76	0.29063767
94	0x3e5c4d63	0.21513896
95	0xbe2c001a	-0.16796914
96	0x3e1a922b	0.15094821
97	0x3cfb9382	0.030709986
98	0x3dda92d6	0.10672538
99	0xbec0f479	-0.37686518
100	0x3da98e9c	0.08279154
101	0x3e3c958a	0.1841642
102	0x3d4873af	0.04893845
103	0xbdeccf47	-0.115629725
104	0xbe0524e8	-0.1300236
105	0xbe3b38f5	-0.18283446
106	0xbd0f5e0d	-0.035001803
107	0x3e8e446c	0.27786577
108	0xbe6ecfbf	-0.23321436
109	0x3eb46f97	0.35241386
110	0x3e02c498	0.12770307
111	0x3e01dc04	0.12681586
112	0xbe61246a	-0.21986547
113	0xbf467583	-0.7752306
114	0x3e8837ef	0.26605174
115	0xbd6d22c6	-0.05789449
116	0x3e3dedcb	0.18547742
117	0xbd4076cb	-0.04698829
118	0x3d9994f9	0.074991174
119	0xbee86788	-0.45391488
120	0xbeed1684	-0.4630624
121	0xbe7630a6	-0.24041995
122	0xbdb9b583	-0.09067824
123	0xbeabb360	-0.3353529
124	0x3cb19e7f	0.021682022
125	0xbec69fe6	-0.38793868
126	0xbe8bf523	-0.27335462
127	0x3d360aa1	0.04444373
128	0x3e4629c3	0.19351868
129	0xbe8a131d	-0.26967707
130	0x3e268ad9	0.16263904
131	0xbe8398d3	-0.25702533
132	0x3eac48f4	0.3364941
133	0x3e836fb4	0.2567116
134	0x3ee43c77	0.4457738
135	0x3cf2292d	0.02956065
136	0xbd7d83df	-0.06189334
137	0xbd8ec48f	-0.06971084
138	0xbe5408e9	-0.20706524
139	0x3ec2433e	0.37941927
140	0x3e7b35d7	0.24532257
141	0xbb642692	-0.0034813029
142	0x3e8c9934	0.27460635
143	0xbdbb383c	-0.09141585
144	0x3e63c6ab	0.22243755
145	0xbd6f1fa2	-0.058379777
146	0x3eaeb74a	0.34124213
147	0x3ec2c833	0.38043365
148	0xbe70146a	-0.23445287
149	0xbec8eb63	-0.39242086
150	0xbe5f6578	-0.21816051
151	0x3f1910c8	0.5979123
152	0xbe2c01af	-0.16797517
153	0x3e698209	0.2280351
154	0x3e891a33	0.267778
155	0xbe5e1406	-0.21687326
156	0xbeda3d08	-0.42624688
157	0x3e17ea44	0.14835459
158	0xbd96f323	-0.073705934
159	0x3e89dae5	0.26924816
160	0x3e6845cc	0.22682875
161	0xbc1f98d0	-0.009741023
162	0xbe1248a1	-0.14285518
163	0x3e8dc880	0.27692032
164	0x3e33b877	0.17550837
165	0xbe23707c	-0.15960878
166	0xbeadb5a9	-0.33927658
167	0x3dbaeef2	0.091276065
168	0xbf0abe01	-0.5419617
169	0xbf110dcb	-0.5666167
170	0x3f02753a	0.50960124
171	0x3e2316e8	0.15926707
172	0x3e55aa97	0.20865856
173	0xbeadca63	-0.3394347
174	0x3e990a74	0.29890788
175	0x3e3e4d7d	0.18584247
176	0x3d8df280	0.06931019
177	0xbeeb9fbc	-0.46020305
178	0xbd83bb89	-0.06432254
179	0xbdad6d8f	-0.08468162
180	0xbd231b04	-0.039820686
181	0xbe8b2467	-0.2717621
182	0xbd2f8d45	-0.042859334
183	0xbed82c86	-0.4222147
184	0xbd9cabd0	-0.07649958
185	0x3e6b4766	0.22976455
186	0x3ba0d2e4	0.0049079526
187	0x3f189b1e	0.5961169
188	0x3e2e3388	0.17011845
189	0xbc8695f1	-0.01642892
190	0x3c8da0cc	0.017288588
191	0x3ebdaf43	0.37047777
192	0x3e4be482	0.19911388
193	0x3dedac48	0.11605126
194	0x3de1476f	0.10999953
195	0xbdbbf05b	-0.091767035
196	0xbedfb527	-0.43692896
197	0x3e216693	0.15761785
198	0x3eb72e93	0.3577772
199	0xbdb19564	-0.08671072
200	0xbc568fde	-0.013095824
201	0x3eb5f0e6	0.35535353
202	0x3e269cef	0.16270803
203	0xbf0189dd	-0.5060099
204	0xbec6621b	-0.38746724
205	0xbd75c7f5	-0.060005147
206	0xbe191aff	-0.14951704
207	0x3e967d66	0.29392546
208	0xbd67d07a	-0.056595303
209	0xbe52f7c1	-0.20602323
210	0xbdd07207	-0.10177999
211	0xbeb5d579	-0.3551443
212	0xbe2c64ad	-0.1683528
213	0xbdd0f437	-0.1020283
214	0x3e2c8ebe	0.16851327
215	0xbe59138a	-0.2119886
216	0x3bfff8e8	0.0078116544
217	0x3e639d1d	0.22227903
218	0x3d6af67a	0.057363965
219	0x3d590127	0.052979615
220	0x3eacfde3	0.3378745
221	0xbe4bdf39	-0.19909371
222	0x3ee50601	0.44731143
223	0xbd523cf5	-0.051327664
224	0xbf4156d8	-0.7552314
225	0x3e55b71e	0.20870635
226	0xbdd7d128	-0.1053794
227	0x3f0f928d	0.56082994
228	0x3ec892b4	0.39174426
229	0xbe2be302	-0.16785815
230	0xbe9ae590	-0.30253267
231	0x3ef7f0c4	0.48425877
232	0x3e5cee04	0.21575171
233	0xbf1b93b3	-0.60772246
234	0xbeb3728a	-0.35048324
235	0xbee85f08	-0.45385003
236	0x3e11535e	0.14191958
237	0x3e239ce2	0.15977815
238	0x3e442c4e	0.19157526
239	0xbe4edd79	-0.20201673
240	0x3e8ed4d7	0.2789676
241	0xbec22039	-0.3791521
242	0x3e96145c	0.29312408
243	0xbdff446c	-0.12464222
244	0xbd9c1f48	-0.07623154
245	0xbdc39586	-0.09550004
246	0xbd09569e	-0.03352987
247	0xbe3745ce	-0.17897722
248	0x3e610def	0.21977971
249	0xbe5ff902	-0.21872333
250	0x3e981ef8	0.29711127
251	0xbe4c75b6	-0.19966778
252	0xbdcca138	-0.099916875
253	0x3c79045b	0.015198792
254	0xbf1fb925	-0.62391883
255	0x3ea6e1ca	0.32594138

layer_3.bias f4 [32]
0	0x3d5eee46	0.054426454
1	0x3d99269c	0.07478067
2	0xbdb2fb8c	-0.08739385
3	0xbd86f980	-0.06590557
4	0xbd7e4b33	-0.062083434
5	0x3dd01ae8	0.10161382
6	0x3cedadb8	0.0290135
7	0xbdcb5c61	-0.09929729
8	0xbd972314	-0.073797375
9	0x3bee3f4c	0.007270729
10	0xbc57f30a	-0.013180504
11	0xbdc65bdf	-0.09685492
12	0xbd67fffa	-0.056640603
13	0x3cc74a30	0.024327368
14	0x3db904af	0.090340964
15	0xbd35314f	-0.044236477
16	0x3c7dc827	0.015489615
17	0xbbd805d5	-0.006592492
18	0x3d968e00	0.07351303
19	0xbdb8df64	-0.090269834
20	0x3d82b27f	0.06381702
21	0x3d50220a	0.050813712
22	0x3deeb1aa	0.116549805
23	0x3ddb2cde	0.10701917
24	0xbc930d94	-0.01795081
25	0xbd850f44	-0.06497052
26	0xbd936bc9	-0.07198293
27	0x3dae8f9a	0.085234836
28	0xbce5fd15	-0.02807478
29	0x3da5ea25	0.081013
30	0xb9445865	-0.00018724946
31	0xba37105f	-0.00069833355

batch_norm_3.weight f4 [32]
0	0x3f7ae459	0.9800468
1	0x3f8cb028	1.0991259
2	0x3f8a1c94	1.0789971
3	0x3f6a5150	0.91530323
4	0x3f744a82	0.9542619
5	0x3f7c1f8a	0.98485625
6	0x3f8b4245	1.0879599
7	0x3f479ed1	0.7797671
8	0x3f595618	0.84896994
9	0x3f89f26b	1.0777105
10	0x3f80a9e0	1.0051842
11	0x3f7c17e3	0.9847395
12	0x3f8b3bb1	1.0877591
13	0x3f7a1daf	0.97701544
14	0x3f2efe43	0.6835672
15	0x3f718650	0.9434557
16	0x3f7dfbab	0.9921214
17	0x3f64e535	0.8941224
18	0x3f654819	0.8956314
19	0x3f6a4f3d	0.9152716
20	0x3f49d3fd	0.78839093
21	0x3f565042	0.83716214
22	0x3f8071ab	1.0034689
23	0x3f788cdd	0.9708994
24	0x3f7ad357	0.9797873
25	0x3f8d022a	1.1016285
26	0x3f8b008d	1.0859543
27	0x3f7cc020	0.9873066
28	0x3f450e05	0.7697452
29	0x3f694847	0.9112591
30	0x3f8abfa6	1.0839736
31	0x3f52ae5c	0.822973

batch_norm_3.bias f4 [32]
0	0xbf07b5f3	-0.5301201
1	0xbe6781d9	-0.22608127
2	0xbeba020e	-0.36329693
3	0xbec7ba4e	-0.39009327
4	0xbefb1db1	-0.4904609
5	0xbf04a3a0	-0.5181217
6	0x3e5381d9	0.20655002
7	0xbea1cf3b	-0.31603417
8	0xbee94df0	-0.45567274
9	0xbec25f36	-0.37963265
10	0xbebc1ac9	-0.36739185
11	0xbed428f9	-0.4143751
12	0xbec02d6d	-0.37534657
13	0xbe5d1f6e	-0.2159402
14	0xbf28f027	-0.65991443
15	0xbf27f18c	-0.65602946
16	0xbf0b140a	-0.5432745
17	0xbf5f60ee	-0.8725728
18	0xbee70a49	-0.45125034
19	0xbf124ef8	-0.57151747
20	0xbf116588	-0.5679555
21	0xbec0cd92	-0.37656838
22	0xbeb71352	-0.35756928
23	0xbcfbc60b	-0.030734083
24	0xbe41edab	-0.1893832
25	0xbe4a38a2	-0.19748166
26	0xbeb7afb2	-0.35876232
27	0xbe6114c0	-0.21980572
28	0xbf70b0a1	-0.94019514
29	0xbd40f7d4	-0.047111347
30	0xbe486d54	-0.19572955
31	0xbe984277	-0.2973821

batch_norm_3.running_mean f4 [32]
0	0xbf82cb87	-1.0218362
1	0xbf985980	-1.1902313
2	0x3e518816	0.20462069
3	0xbe475325	-0.19465311
4	0x3f93b276	1.1538837
5	0x3f8601f5	1.0469347
6	0xc033c8a1	-2.8091204
7	0xc0096633	-2.1468627
8	0xbd4d5b79	-0.050136063
9	0xbe2409dd	-0.16019388
10	0xbf90d50a	-1.1315014
11	0x3ff7ee7e	1.9369657
12	0x3f84cd43	1.0375141
13	0xbfb0d795	-1.381579
14	0x3fbcf7f5	1.476317
15	0x3f868a06	1.0510871
16	0xbf190915	-0.59779483
17	0x400890a1	2.1338274
18	0xbfbb3609	-1.4625865
19	0x3f11ee63	0.57004374
20	0xbd649a81	-0.05581141
21	0x3f3a80bf	0.728527
22	0xbfca0247	-1.5781945
23	0xbfb42fd9	-1.4077102
24	0xbf3fa451	-0.748601
25	0xc0070f50	-2.1103096
26	0x3eda9417	0.4269111
27	0xbdeac488	-0.114632666
28	0x3f067acb	0.5253112
29	0xc002be9f	-2.0428846
30	0xc0142a4e	-2.315082
31	0xbf6d0184	-0.9258044

batch_norm_3.running_var f4 [32]
0	0x3fafd9c0	1.3738327
1	0x400236c9	2.0345938
2	0x3f819455	1.0123392
3	0x3ffe28ec	1.9856238
4	0x3fe751b9	1.8071815
5	0x401bf53d	2.4368432
6	0x403ff5b9	2.9993727
7	0x3fe87ac0	1.816246
8	0x3f9a8d77	1.2074422
9	0x405505fc	3.3284903
10	0x40510569	3.2659552
11	0x400bd9b0	2.1851616
12	0x402264f3	2.5374115
13	0x4072539a	3.7863526
14	0x3fb5b3fb	1.4195551
15	0x40048780	2.0707703
16	0x3fc0e3fd	1.5069577
17	0x3fbbcc06	1.4671638
18	0x3fa12497	1.2589291
19	0x3fea6056	1.8310649
20	0x40255e71	2.5838892
21	0x3febd875	1.8425432
22	0x401ec905	2.4810193
23	0x40157376	2.3351722
24	0x3fe8fe9a	1.8202698
25	0x40302a9c	2.7526007
26	0x402752da	2.6144319
27	0x4049985d	3.1499245
28	0x3f5edef4	0.8705895
29	0x407d730f	3.9601476
30	0x4061a49d	3.5256722
31	0x40340efd	2.8134148
