solution/critic2.pth (torch, 268683 bytes, 25 tensors)

layer_1.weight f4 [512, 52]
0	0xbea0765e	-0.31340307
1	0xbf896e35	-1.0736758
2	0x3d1fc8f5	0.039010007
3	0x3eb32bb8	0.34994292
4	0xbe9d1195	-0.30677477
5	0x3e66e0a1	0.22546627
6	0x3cb1ec60	0.021719158
7	0x3ead6060	0.3386259
8	0xbf16b7f0	-0.58874416
9	0xbf6b1be7	-0.9183945
10	0xbd82fc8c	-0.06395826
11	0x3efcd218	0.4937904
12	0xbd3e06d2	-0.046393223
13	0xbd6071da	-0.054796077
14	0xbcfa0484	-0.030519731
15	0x3efa805e	0.4892606
16	0xbf1f5ca0	-0.6225071
17	0xbf7fa7e4	-0.99865556
18	0x3db60231	0.08887137
19	0x3e410f51	0.18853499
20	0x3ef71921	0.4826136
21	0xbf09e63b	-0.5386693
22	0x3dbba22b	0.091617905
23	0x3e2c78d9	0.16842975
24	0x3fb63e3a	1.423774
25	0xbd2b711f	-0.041855928
26	0xbd956e69	-0.0729645
27	0xbe48bfdc	-0.19604439
28	0x3dbe3ad9	0.09288568
29	0xbe7699cc	-0.24082106
30	0x3e9aab43	0.30208787
31	0x3e32c201	0.17456819
32	0x3e007948	0.12546265
33	0xbe4e74c1	-0.20161726
34	0xbdfc8740	-0.123304844
35	0xbe4423a8	-0.19154227
36	0x3c80e9ce	0.015736487
37	0xbe0a8d75	-0.13530524
38	0x3da5455d	0.080698706
39	0xbdb7c128	-0.089723885
40	0x3c068ab1	0.008211778
41	0xbe307101	-0.17230608
42	0x3dc06c9d	0.09395716
43	0xbea3edf9	-0.32017496
44	0xbc744f7c	-0.014911529
45	0xbe4081f6	-0.18799576
46	0xbf082388	-0.53179216
47	0xbf0e3481	-0.55548865
48	0xbcf4a6dd	-0.029864723
49	0xbe14a5f4	-0.14516431
50	0x3fd9fca0	1.703022
51	0xbf14b4b9	-0.5808826
52	0x3e86a328	0.26296353
53	0x3bd95f26	0.006633657
54	0x3dcd56dd	0.100263335
55	0x3e97da72	0.29658848
56	0xbe8598f5	-0.2609326
57	0xbf5105a2	-0.8164922
58	0x3d9619e3	0.07329156
59	0x3e9d1fda	0.30688363
60	0x3ec9ebc6	0.39437693
61	0x3da206b3	0.07911434
62	0xbe09b03d	-0.13446136
63	0xbcf3619e	-0.029709633
64	0xbe00fefd	-0.1259727
65	0xbf1afcf6	-0.6054224
66	0xbe04bfb9	-0.12963761
67	0xbb89c202	-0.0042040357
68	0x3ebe88c8	0.3721373
69	0x3cf771b2	0.030205581
70	0x3d8fda38	0.07024044
71	0x3edfba7c	0.43696964
72	0x3b94a3ce	0.0045361286
73	0xbe859a16	-0.2609412
74	0x3d88dfdc	0.06683323
75	0x3edc8ba6	0.43075293
76	0xbc99ae9d	-0.01876002
77	0x3f857106	1.0425117
78	0xbeb1a332	-0.3469482
79	0xbf7b71de	-0.9822062
80	0xbc975817	-0.018474622
81	0xbcda2454	-0.02662865
82	0x3e3b3199	0.18280639
83	0xbf54ce18	-0.83126974
84	0xbd78ea40	-0.060770273
85	0xbc4bb6ae	-0.012433691
86	0xbec470fb	-0.38367447
87	0xbf6bf986	-0.9217762
88	0x3d8e06ff	0.06934928
89	0x3e8e0d5c	0.27744567
90	0x3e2ee979	0.1708125
91	0xbf0df5d0	-0.55453205
92	0x3d9acab1	0.075581916
93	0x3e4e0bbc	0.20121664
94	0xbf5c5bec	-0.8607776
95	0xbf531d97	-0.82467026
96	0xbe7eb7de	-0.24874827
97	0x3ec8664b	0.39140543
98	0xbd4ccd71	-0.05000061
99	0xbe70ada7	-0.23503743
100	0xbe63dfcf	-0.22253345
101	0x3ea92683	0.33037195
102	0x3f143fa3	0.579096
103	0xbf8ee7fe	-1.1164548
104	0xbd64eecf	-0.055891808
105	0x3f250b9c	0.6447084
106	0x3bdf8d00	0.0068222284
107	0xbdd018f4	-0.101610094
108	0x3f1c8f44	0.61156106
109	0xbf8ea055	-1.114268
110	0x3bc55ecf	0.006023265
111	0xbdf01ee3	-0.11724641
112	0xbd050879	-0.032478783
113	0x3e509e94	0.20372993
114	0x3aea3f4a	0.0017871645
115	0xbe737cf8	-0.2377814
116	0x3ed23ad9	0.41060522
117	0xbedb2240	-0.42799568
118	0x3c875689	0.016520755
119	0xbe4e8a4e	-0.20169947
120	0xbe2a4684	-0.16628462
121	0xbe081314	-0.13288528
122	0xbcaa7b82	-0.020810846
123	0xbd816daf	-0.063197486
124	0x3ed12a8b	0.4085277
125	0x3f2585f7	0.6465754
126	0x3d1bb4b1	0.038014118
127	0xbd901b21	-0.070364244
128	0xbf3517d7	-0.707395
129	0xbe89ebdd	-0.26937762
130	0xbbad94d3	-0.0052972822
131	0xbfcedb05	-1.616059
132	0x3d076e4c	0.03306417
133	0x3e93cadb	0.28865704
134	0xbf1591e0	-0.5842571
135	0xbf8cad7f	-1.0990447
136	0x3cfec058	0.031097576
137	0x3e80304e	0.25036854
138	0xbccb190d	-0.024792219
139	0xbfdefc02	-1.7420657
140	0xbcb00af2	-0.021489594
141	0xbd8d1331	-0.06888426
142	0xbed28f11	-0.41124776
143	0xbede5d8c	-0.43430746
144	0x3b8def49	0.0043315035
145	0xbdb79729	-0.089643784
146	0x3dda73ad	0.10666595
147	0xbfd0c047	-1.6308678
148	0x3d20d30c	0.03926377
149	0x3e8804f4	0.2656628
150	0xbec9ff49	-0.3945258
151	0x3f2d05bd	0.6758688
152	0x3ce29803	0.027660375
153	0x3e625678	0.22103298
154	0x3f3f3e2b	0.74704236
155	0xbe163671	-0.14669205
156	0x3e7f0b05	0.24906547
157	0xbe4b26dc	-0.19839042
158	0xbcbe88c5	-0.023258576
159	0x3c81fd48	0.015867844
160	0x3de1c242	0.1102338
161	0xbfa46230	-1.2842464
162	0x3b82ff4a	0.003997718
163	0x3ca02f29	0.019553738
164	0xbdfe3683	-0.12412741
165	0xbf6b19cb	-0.9183623
166	0xbd95add5	-0.073085465
167	0x3e27398f	0.1633055
168	0x3ca8b440	0.020593762
169	0x3e12cd63	0.14336161
170	0xbce02355	-0.027360598
171	0x3dc876e8	0.097883046
172	0xbe98dd53	-0.29856357
173	0xbf81e1ae	-1.0146997
174	0xbc485e89	-0.01222957
175	0x3f258395	0.64653903
176	0xbd66ba6f	-0.05633014
177	0x3f807ad5	1.0037485
178	0xbccca117	-0.024979157
179	0x3f334597	0.7002806
180	0x3f4a1012	0.7893077
181	0x3f6b3aff	0.91886896
182	0x3f28ffa3	0.6601507
183	0x3f0cf918	0.55067587
184	0x3dd5e950	0.104448915
185	0x3e5fcca9	0.21855415
186	0xbd81224c	-0.0630537
187	0xbfa565e6	-1.2921722
188	0x3dc8ad0a	0.097986296
189	0x3e82d591	0.25553563
190	0x3e45f865	0.19333036
191	0x3d7fb485	0.062428016
192	0xbd23edc0	-0.040021658
193	0x3e3fd777	0.18734537
194	0xbdb83350	-0.08994162
195	0x3de3c87c	0.11122224
196	0xbdc48080	-0.09594822
197	0x3e477ea3	0.19481902
198	0xbe1a5691	-0.15072085
199	0xbed4a420	-0.41531467
200	0x3d29e638	0.04147932
201	0x3d6eb99b	0.058282476
202	0x3da06c56	0.078331634
203	0x3f7c6118	0.98585653
204	0xbcd953cc	-0.026529215
205	0x3e01d987	0.12680636
206	0x3cf73a4c	0.030179165
207	0xbf008dcc	-0.50216365
208	0x3e9cb9b3	0.30610427
209	0x3e802a63	0.25032339
210	0x3e4f2b01	0.20231248
211	0xbdf5680e	-0.119827375
212	0xbe40a4dd	-0.1881289
213	0x3ee454e8	0.44596028
214	0x3e794e86	0.2434636
215	0xbe2589b2	-0.16165808
216	0x3e5f3fc7	0.21801673
217	0x3e980a90	0.2969556
218	0x3e1d2925	0.15347727
219	0xbd9cffe9	-0.076659985
220	0xbe8f2284	-0.2795602
221	0x3ca10d28	0.019659594
222	0x3e4148e7	0.18875466
223	0xbce98a32	-0.02850828
224	0x3e135bed	0.14390536
225	0x3db197f6	0.086715624
226	0xbcc3a114	-0.023880519
227	0xbd8c96fd	-0.06864736
228	0xbeddabd8	-0.4329517
229	0x3df24cca	0.118310526
230	0x3c997a42	0.018735055
231	0xbbcd645c	-0.0062680673
232	0x3fc7a612	1.5597556
233	0xbeca746a	-0.39541942
234	0x3d9e0c2d	0.07717166
235	0x3e2c78da	0.16842976
236	0xbe0cf3c7	-0.13764869
237	0xbecfb60d	-0.4056858
238	0x3e509c71	0.20372178
239	0x3ef215c8	0.47282243
240	0xbe24fc59	-0.16111888
241	0xbed2018f	-0.41016814
242	0xbb0db85c	-0.002162478
243	0x3d31acdd	0.043377746
244	0xbe0c48ed	-0.13699694
245	0xbe0c004d	-0.1367199
246	0x3e574444	0.21022135
247	0x3dd3f03f	0.10348558
248	0xbe3a9f34	-0.18224794
249	0xbdbff97f	-0.093737595
250	0xbe1f9e29	-0.15587677
251	0xbdee706e	-0.11642538
252	0xbeb34a17	-0.35017464
253	0xbe075e63	-0.132196
254	0x3ef322ec	0.4748758
255	0x3e33f879	0.17575254

layer_1.bias f4 [512]
0	0xbd2caccc	-0.04215698
1	0xbd9d56ce	-0.07682572
2	0xbdb9c97a	-0.09071632
3	0xbc8cedcd	-0.017203236
4	0xbe08eddd	-0.13371988
5	0xbd43a35e	-0.04776322
6	0xbb04e682	-0.0020278995
7	0xbd92da1f	-0.071705095
8	0xbdb24a1a	-0.0870554
9	0x3c9d19e7	0.01917739
10	0x3cbd31d6	0.023095053
11	0x3cdf7cbf	0.027281163
12	0x3dc2ea2a	0.095173195
13	0x3c43dcd0	0.011954501
14	0x3cb466a8	0.022021607
15	0xbd84ec28	-0.06490356
16	0xbe0098a6	-0.12558231
17	0xbdfcdc25	-0.12346677
18	0xbda1116c	-0.07864651
19	0xbca09bdc	-0.01960557
20	0xbd7fd899	-0.062462423
21	0xbc8a330e	-0.016870048
22	0xbdb25042	-0.08706714
23	0xbe06c80d	-0.13162251
24	0xbdcaa71b	-0.09895154
25	0x3d5ad875	0.053429086
26	0xbccd085f	-0.025028406
27	0x3c60c4a9	0.013718762
28	0x3d2d6bf9	0.0423393
29	0xbdccadfb	-0.09994122
30	0xbe09700e	-0.13421652
31	0x3d6c9c14	0.057766035
32	0x3d069768	0.032859236
33	0x3d0f4d86	0.03498604
34	0xbde8284e	-0.113358125
35	0x3dc26922	0.09492709
36	0x3e08158b	0.13289468
37	0x3dcd6be4	0.10030344
38	0x3df2fa1a	0.11864109
39	0xbdcff597	-0.101542644
40	0xbdc2edf7	-0.095180444
41	0xbcd2af5f	-0.02571839
42	0x3dcc402a	0.09973176
43	0x3ddcd695	0.10783116
44	0xbd091f01	-0.033476833
45	0xbd39aa95	-0.045328695
46	0x3c237e6b	0.009978871
47	0xbde67fdd	-0.11254857
48	0x3cb445a0	0.022005856
49	0x3d9a02c6	0.0752006
50	0x3de80538	0.113291204
51	0xbba052de	-0.004892691
52	0xbde304d0	-0.11084902
53	0xbded16db	-0.11576625
54	0x3d2d40d7	0.042298164
55	0xbd9e0d6b	-0.07717403
56	0x3dddc941	0.10829402
57	0x3dc87112	0.097871915
58	0xbdfa4c8e	-0.12221633
59	0xbd8fc9c9	-0.07020909
60	0x3d97c9be	0.07411526
61	0x3c0118a1	0.007879407
62	0xbda7018f	-0.08154594
63	0xbde833aa	-0.11337979
64	0xbd6d2b0d	-0.057902385
65	0xbc9f74ca	-0.019464869
66	0xbd84cbfe	-0.06484221
67	0xbcc66cea	-0.024221856
68	0x3d20a7fe	0.03922271
69	0x3d0c9f41	0.034331564
70	0x3e059d7c	0.13048357
71	0x3e080769	0.13284077
72	0xbd18c357	-0.037295666
73	0x3d9f5f33	0.0778183
74	0xbdf1a15c	-0.11798355
75	0x3e095eb2	0.1341503
76	0x3ab2a090	0.0013628174
77	0xbc96ad48	-0.018393174
78	0xbd573587	-0.052541282
79	0xbd9f69d1	-0.07783855
80	0xbde09c06	-0.10967259
81	0xbcee5eb4	-0.029097892
82	0xbdb0cbf7	-0.08632653
83	0xbde5350b	-0.11191758
84	0xbdd04540	-0.101694584
85	0xbb17d95f	-0.0023170335
86	0xbde25b9c	-0.11052629
87	0xbd552bab	-0.0520436
88	0x3d9b028d	0.07568846
89	0x3dbdc93d	0.09266899
90	0x3de86005	0.11346439
91	0xbdd9e9b9	-0.10640282
92	0x3dda2c9f	0.10653042
93	0x3d1b98f9	0.037987683
94	0x3def6031	0.11688269
95	0xbbd5cd95	-0.0065247514
96	0x3e027be4	0.12742573
97	0x3d2ed1eb	0.042680662
98	0xbd3e1fe5	-0.046417136
99	0x3e0bec83	0.13664441
100	0xbd0f93ae	-0.035052948
101	0x3dcff2c6	0.10153727
102	0xbcef9bab	-0.029249033
103	0xbcdbfb8c	-0.026853345
104	0x3c28d002	0.010303499
105	0xbd2bee85	-0.041975517
106	0xbdda1020	-0.10647607
107	0xbccccba0	-0.02499944
108	0xbc757eef	-0.014983877
109	0xbcc3139b	-0.02381306
110	0x3d91e478	0.07123655
111	0x3ac1b99e	0.001478005
112	0xbd76ba92	-0.06023652
113	0x3d8058cc	0.06266937
114	0xbbf299f8	-0.0074036084
115	0xbdb7284a	-0.089432314
116	0xbca3b202	-0.019982342
117	0xbc9768ea	-0.018482644
118	0x3cc10812	0.023563419
119	0xbcb8ad91	-0.0225437
120	0xbdd2ca27	-0.10292464
121	0x3d6c4d49	0.057690892
122	0x3d33d6e6	0.043906115
123	0xbc89923b	-0.016793361
124	0x3cc62b77	0.024190648
125	0xbd8259bc	-0.06364772
126	0xbda7b61f	-0.08189034
127	0xbdfebcb3	-0.12438335
128	0x3dcc1fbb	0.099669896
129	0x3d2358d3	0.03987963
130	0xbdce2e53	-0.100674294
131	0xbcdde2f4	-0.027085759
132	0x3c9b7f9b	0.018981745
133	0xb9c0fe54	-0.00036810583
134	0xbc643aad	-0.013930005
135	0x3d6cb263	0.05778731
136	0x3e0dddc4	0.13854128
137	0x3e0c0d04	0.1367684
138	0x3dc861e2	0.09784295
139	0xbd6a6e87	-0.057234313
140	0xbdd53a2a	-0.104114845
141	0x3be04e1a	0.006845248
142	0xbde6d14b	-0.11270388
143	0x3d197730	0.03746718
144	0xbd77f837	-0.06053945
145	0x3d9b1613	0.0757257
146	0x3ddc3858	0.10752934
147	0xbe0ca250	-0.13733792
148	0x3de85a6a	0.1134537
149	0xbda3d2c5	-0.079991855
150	0xbe02cf8a	-0.12774482
151	0x3d840432	0.06446113
152	0xbdf87284	-0.12131217
153	0xbd92aca1	-0.071618326
154	0x3b428b3b	0.0029685039
155	0x3a86a3ec	0.0010272241
156	0xbcd58668	-0.026065066
157	0xbd1b1304	-0.03785993
158	0x3dac354c	0.08408603
159	0xbdec811a	-0.11548062
160	0xbbaea32f	-0.0053295116
161	0xbc781ce1	-0.015143604
162	0x3e018bd7	0.12651001
163	0xbd76ee00	-0.06028557
164	0xbd65c3e3	-0.056095015
165	0x3d21e286	0.03952267
166	0x3dd1530d	0.10220919
167	0xbd78b111	-0.06071574
168	0x3deb6a35	0.11494867
169	0xbe0b78b6	-0.13620266
170	0xbdb263bb	-0.08710428
171	0xbdf5a923	-0.11995151
172	0x3ddede01	0.10882188
173	0x3d9269b6	0.07149069
174	0xbdb5e9ff	-0.08882522
175	0xbd10a5ff	-0.035314556
176	0xbd8590ef	-0.065217845
177	0xbe00c383	-0.12574582
178	0x3cc21ffb	0.02369689
179	0x3dc58bf0	0.096458316
180	0x3dac1eb4	0.08404294
181	0xbde6d1b7	-0.11270469
182	0xbd92fd54	-0.07177225
183	0x3e03b969	0.12863697
184	0xbd7c59b5	-0.06160899
185	0xbd5b9309	-0.05360702
186	0xbdd30b20	-0.10304856
187	0x3dfd16bc	0.12357852
188	0xbe048139	-0.1293992
189	0x3d93d519	0.072183795
190	0xbc907a0b	-0.01763632
191	0x3b4cb270	0.0031234287
192	0xbdf3b6af	-0.119000785
193	0xbe053665	-0.13009031
194	0xbdced34c	-0.100988954
195	0x3c2ab592	0.010419266
196	0xbcab0e5d	-0.020880872
197	0xbcf40e0a	-0.02979185
198	0x3bad0f24	0.005281346
199	0xbd7b796f	-0.061395105
200	0xbcac4cdd	-0.021032745
201	0x3e0aeaad	0.13566084
202	0x3e009670	0.12557387
203	0x3d3da3c4	0.046298757
204	0xbd4227e9	-0.047401343
205	0xbd9d4559	-0.07679243
206	0xbbca5c82	-0.0061755786
207	0xbd967de3	-0.0734823
208	0xbdd52a9c	-0.10408518
209	0x3c2f59e5	0.010702585
210	0xbd936665	-0.071972646
211	0xbd4d21da	-0.05008111
212	0xbd9d2f84	-0.076750785
213	0xbcf1ef89	-0.029533165
214	0x3df634d4	0.12021795
215	0x3dec1027	0.11526518
216	0xbcfc5ced	-0.03080603
217	0xbdef542d	-0.11685977
218	0xbdfd3b0c	-0.12364778
219	0xbbea99ef	-0.0071594636
220	0xbcbea347	-0.023271216
221	0xbd981035	-0.07424966
222	0x3d1a8b94	0.03773077
223	0xbda3d9f8	-0.080005586
224	0xbd5cd835	-0.05391713
225	0x3e0b3a94	0.13596565
226	0xbcd8c9ee	-0.026463475
227	0xbdbc415a	-0.09192152
228	0x3d9f8299	0.077885814
229	0xbdb10060	-0.0864265
230	0xbd161641	-0.036642317
231	0xbb86f46f	-0.004118494
232	0xbd0c9034	-0.03431721
233	0xbd1b427a	-0.037905194
234	0xbdcc2ac7	-0.09969097
235	0xbd6f0895	-0.058357794
236	0x3ca6fe99	0.020385073
237	0xbdacc7cc	-0.08436546
238	0x3e0d7443	0.13813882
239	0xbdd79364	-0.105261594
240	0x3df5a6db	0.11994716
241	0xbdae1383	-0.08499815
242	0x3d8aa6f9	0.06770129
243	0x3d89a56b	0.06721004
244	0x3dca260f	0.0987054
245	0x3de621d0	0.11236918
246	0xbd7d37fd	-0.061820973
247	0xbd58f2e6	-0.05296602
248	0xbd8761cd	-0.06610451
249	0x3dd2bff6	0.1029052
250	0xbdd4af32	-0.10384978
251	0xbbe68bf3	-0.007035726
252	0x3dc7f00d	0.09762583
253	0x3dab24c0	0.08356619
254	0xbbc6afae	-0.006063423
255	0x3ddda32d	0.10822139

batch_norm_1.weight f4 [512]
0	0x3f3520be	0.70753086
1	0x3f3540bd	0.7080191
2	0x3f868d1b	1.0511812
3	0x3f8281cb	1.019586
4	0x3f2c4f9e	0.67308986
5	0x3f843f34	1.0331788
6	0x3f29547f	0.66144556
7	0x3f3d9456	0.7405447
8	0x3f667521	0.90022475
9	0x3f52c439	0.8233066
10	0x3f281dac	0.65670276
11	0x3f890eb8	1.0707617
12	0x3f84d9f3	1.0379013
13	0x3f47632d	0.77885705
14	0x3f51e911	0.81996256
15	0x3fa3bc5c	1.2791858
16	0x3f2cac1c	0.6745012
17	0x3f58096d	0.8438938
18	0x3f1d08d4	0.61341596
19	0x3f1a9cb9	0.6039539
20	0x3f3d7c51	0.74017817
21	0x3f527e3f	0.82223886
22	0x3f24d5b2	0.64388573
23	0x3fa47929	1.2849475
24	0x3f6165e2	0.88046086
25	0x3fbd593b	1.4792856
26	0x3f18a990	0.5963373
27	0x3f2f69a8	0.68520594
28	0x3f6491b7	0.89284843
29	0x3f9f1759	1.2429
30	0x3f560eb8	0.8361621
31	0x3f6443e7	0.8916611
32	0x3f45b4fa	0.77229273
33	0x3f315134	0.6926453
34	0x3f13da69	0.5775514
35	0x3f311ca6	0.6918434
36	0x3f685512	0.90754807
37	0x3f6b9da7	0.92037433
38	0x3f1c69cc	0.61098933
39	0x3f2da22d	0.67825586
40	0x3f25044d	0.6445969
41	0x3f689ba7	0.90862507
42	0x3f4c6b1f	0.79850954
43	0x3f56d20a	0.83914244
44	0x3f0a3044	0.539799
45	0x3ed2f51a	0.41202623
46	0x3f122cf2	0.5709983
47	0x3f5859f8	0.8451228
48	0x3f1935aa	0.5984751
49	0x3f82a90f	1.0207843
50	0x3f27672a	0.6539179
51	0x3f8fe919	1.1243011
52	0x3f43cc7b	0.7648389
53	0x3f8426fe	1.03244
54	0x3f512632	0.81698906
55	0x3f1b12bc	0.6057546
56	0x3e9e6919	0.30939558
57	0x3f48c4f7	0.78425545
58	0x3f7e2943	0.9928171
59	0x3f7571ea	0.95876944
60	0x3ef88639	0.48539904
61	0x3f8c4aab	1.0960287
62	0x3f29592c	0.6615169
63	0x3f292038	0.66064787
64	0x3f847489	1.0348064
65	0x3f8bee0c	1.0932021
66	0x3f6fe2b1	0.9370528
67	0x3f335f7e	0.70067585
68	0x3f374970	0.7159643
69	0x3f4427ac	0.76623034
70	0x3f268501	0.650467
71	0x3feb87ec	1.8400855
72	0x3f356768	0.7086091
73	0x3f3d2550	0.7388506
74	0x3f35bb9d	0.709894
75	0x3f3a90a1	0.72876936
76	0x3f3c44ad	0.7354229
77	0x3f8f3d38	1.1190557
78	0x3f6df6ab	0.9295451
79	0x3f77091b	0.9649827
80	0x3fc34462	1.5255244
81	0x3f06617c	0.524925
82	0x3f79c44a	0.9756514
83	0x3f213cfa	0.6298367
84	0x3f16cfb7	0.589107
85	0x3f4140de	0.75489604
86	0x3f601b29	0.87541443
87	0x3f1ca018	0.61181784
88	0x3f276589	0.65389305
89	0x3f157fb3	0.5839798
90	0x3f89f9dc	1.0779376
91	0x3f5919ef	0.84805197
92	0x3f7de3dd	0.99175817
93	0x3f62b475	0.88556606
94	0x3f63d156	0.88991296
95	0x3f4e58fa	0.8060452
96	0x3f04069a	0.51572573
97	0x3f5d33fb	0.8640744
98	0x3f2fa6c1	0.6861382
99	0x3f0849d7	0.5323767
100	0x3f3d54b4	0.7395737
101	0x3f76f510	0.96467686
102	0x3f6055c5	0.87630874
103	0x3f44538f	0.7669
104	0x3f18d164	0.59694505
105	0x3f40dc61	0.7533627
106	0x3f3d90e5	0.74049217
107	0x3f1fcd84	0.62422967
108	0x3f55ee8a	0.83567107
109	0x3f31ac98	0.6940398
110	0x3fbf695b	1.4954027
111	0x3f351ebf	0.7075004
112	0x3f4eb755	0.8074849
113	0x3f333940	0.7000923
114	0x3fa2feca	1.2734005
115	0x3f558f49	0.8342176
116	0x3f6a7f05	0.91600066
117	0x3f426067	0.7592835
118	0x3f86f628	1.0543871
119	0x3f1f581b	0.62243813
120	0x3f888997	1.0666989
121	0x3f6c3207	0.92263836
122	0x3f3f5081	0.74732214
123	0x3f5e1fd0	0.8676729
124	0x3f551637	0.8323702
125	0x3f50d417	0.81573623
126	0x3fa0278b	1.2512068
127	0x3f551a9c	0.8324373
128	0x3f139183	0.5764391
129	0x3fa280f1	1.26956
130	0x3fa91d6f	1.3212107
131	0x3f229265	0.6350463
132	0x3f1875d7	0.5955481
133	0x3e61a024	0.22033745
134	0x3f2e1ff2	0.68017495
135	0x3f7b8212	0.98245347
136	0x3f83b306	1.0289009
137	0x3f8e98d8	1.1140394
138	0x3f88135e	1.063091
139	0x3f165664	0.5872557
140	0x3f3f8fde	0.748289
141	0x3f3fcc16	0.74920785
142	0x3f2f80ff	0.6855621
143	0x3f739400	0.95147705
144	0x3f27a8cf	0.65491956
145	0x3f57613e	0.84132755
146	0x3f4d26e1	0.8013745
147	0x3f3cdf37	0.737781
148	0x3f4c5832	0.79822075
149	0x3f1c907e	0.6115798
150	0x3f25d947	0.64784664
151	0x3fd59fde	1.6689413
152	0x3fa25f6f	1.2685374
153	0x3f0bfc58	0.5468192
154	0x3f2f015d	0.68361455
155	0x3f2ae4d2	0.667554
156	0x3fa4fd1e	1.2889745
157	0x3f5197f6	0.818725
158	0x3f2a5ecd	0.66550905
159	0x3f0bd0ff	0.5461578
160	0x3f8b6b11	1.0892049
161	0x3febe16c	1.8428168
162	0x3fb8738c	1.4410262
163	0x3f1d1554	0.6136067
164	0x3fa7dd0d	1.3114334
165	0x3f1640d9	0.586927
166	0x3f3af833	0.7303497
167	0x3f306f0e	0.68919456
168	0x3f115b6b	0.5678012
169	0x3f5baa06	0.8580631
170	0x3f08149f	0.53156465
171	0x3f0e5ea8	0.55613184
172	0x3fc4338e	1.5328233
173	0x3f0b52fc	0.544235
174	0x3f64c80c	0.8936775
175	0x3f62d04e	0.885991
176	0x3f8a6383	1.0811619
177	0x3f48e331	0.78471667
178	0x3f52bc35	0.8231843
179	0x3ecf403e	0.404787
180	0x3effeb33	0.4998413
181	0x3f3108c5	0.69154006
182	0x3f83e2d8	1.0303602
183	0x3f5e8fdf	0.8693828
184	0x3f42908f	0.7600183
185	0x3f94abe4	1.1614957
186	0x3f07355c	0.52815795
187	0x3f585735	0.8450807
188	0x3f6bee51	0.92160517
189	0x3f5f4253	0.8721058
190	0x3f3a4b0f	0.7277078
191	0x3f2fe48b	0.68708104
192	0x3f4a5bd8	0.7904639
193	0x3f6f73a5	0.93535835
194	0x3f8e4594	1.1114984
195	0x3f54e089	0.83155113
196	0x3f72febc	0.94919944
197	0x3f21b548	0.6316724
198	0x3f25a158	0.64699316
199	0x3f1b8a8c	0.6075828
200	0x3f3b597a	0.73183405
201	0x3f2a017e	0.66408527
202	0x3f1f5bd6	0.62249506
203	0x3f41ac9f	0.75654024
204	0x3f2c3409	0.672669
205	0x3fbe2dd1	1.4857732
206	0x3f41c0b8	0.7568469
207	0x3f01110d	0.5041664
208	0x3f11cf7e	0.5695723
209	0x3f488d2e	0.78340423
210	0x3f162b93	0.5866024
211	0x3f38c95a	0.7218224
212	0x3f6c7b33	0.9237549
213	0x3f337e9b	0.7011506
214	0x3f7917ac	0.97301745
215	0x3f6f0f5b	0.93382806
216	0x3f2a4cbb	0.6652333
217	0x3f415df7	0.75534004
218	0x3f27a22b	0.65481824
219	0x3f6913d4	0.9104588
220	0x3f22924f	0.635045
221	0x3f448a0e	0.76773155
222	0x3f3207f4	0.69543386
223	0x3f2a2db3	0.6647598
224	0x3f084108	0.5322423
225	0x3f1f5525	0.62239295
226	0x3f2c10f4	0.6721337
227	0x3f456350	0.77104664
228	0x3f1f33a0	0.6218815
229	0x3f5af706	0.8553318
230	0x3fb30898	1.3986998
231	0x3f0b3e23	0.5439169
232	0x3f351fb9	0.7075153
233	0x3f4f33e3	0.8093855
234	0x3f4c4ab4	0.7980149
235	0x3f375bdc	0.7162454
236	0x3f3bd19f	0.7336673
237	0x3f3bd78f	0.7337579
238	0x3f84ab56	1.0364788
239	0x3f476ccd	0.7790039
240	0x3f441099	0.76587826
241	0x3f9433a2	1.1578257
242	0x3f24e052	0.64404786
243	0x3f339bd5	0.70159656
244	0x3fab8d2c	1.3402457
245	0x3f9c9d1e	1.2235448
246	0x3eec1184	0.46107113
247	0x3f3df463	0.7420103
248	0x3f88af29	1.0678455
249	0x3f5ab8a0	0.85437965
250	0x3f2e474b	0.68077534
251	0x3f18eaf1	0.5973349
252	0x3f24a902	0.64320385
253	0x3f4583e0	0.7715435
254	0x3f5b3721	0.85630995
255	0x3f7375b6	0.9510149

batch_norm_1.bias f4 [512]
0	0xbf1232ca	-0.5710875
1	0xbf042c3d	-0.5163
2	0xbf061438	-0.523746
3	0xbf0d5f05	-0.55223113
4	0xbea98842	-0.3311177
5	0xbf1e84e3	-0.6192152
6	0xbe2178a3	-0.15768676
7	0xbf0cd119	-0.5500656
8	0xbefaf024	-0.49011338
9	0xbf257f74	-0.64647603
10	0xbea770ab	-0.32703146
11	0xbed268ed	-0.41095677
12	0xbecc43b6	-0.3989541
13	0xbf4b2b83	-0.7936327
14	0xbe55c548	-0.20876038
15	0xbe56ffbe	-0.20995995
16	0xbf2fa99e	-0.6861819
17	0xbeae98da	-0.3410099
18	0xbee59f79	-0.4484823
19	0xbf4680df	-0.7754039
20	0xbeae7710	-0.34075212
21	0xbeba9ffc	-0.36450183
22	0xbedfea38	-0.43733382
23	0xbf24b99b	-0.6434571
24	0xbf1c28aa	-0.6099955
25	0xbf293e92	-0.661111
26	0xbf10ccf6	-0.56562746
27	0xbee1eb83	-0.44124994
28	0xbede8f2e	-0.43468612
29	0xbe9e0193	-0.30860576
30	0xbf36196a	-0.7113253
31	0xbeb3fdd3	-0.3515459
32	0xbeb805a8	-0.35941815
33	0xbf20985d	-0.6273249
34	0xbe8d2c27	-0.27572748
35	0xbef53551	-0.4789224
36	0xbf034cd9	-0.51289135
37	0xbf30cb1d	-0.69059926
38	0xbf035944	-0.51308084
39	0xbf38bc63	-0.72162455
40	0xbee77f23	-0.45214185
41	0xbf302cc2	-0.68818295
42	0xbf1f44e5	-0.622145
43	0xbe9cf3ca	-0.30654746
44	0xbeaa6431	-0.33279565
45	0xbea66209	-0.3249667
46	0xbee4d92a	-0.44696933
47	0xbe9e4e61	-0.30919173
48	0xbe44ccf2	-0.19218805
49	0xbd2e1ae1	-0.042506102
50	0xbe933f6c	-0.28759325
51	0xbea1ec8f	-0.31625792
52	0xbedf5cc0	-0.4362545
53	0xbf1469d9	-0.5797401
54	0xbeca0e72	-0.39464146
55	0xbf093f52	-0.53612244
56	0xbe88f489	-0.26749066
57	0xbe9c59ce	-0.30537266
58	0xbf1f6b25	-0.62272865
59	0xbf3e2a43	-0.74283236
60	0xbf159d34	-0.58443
61	0xbd1b2295	-0.037874777
62	0xbeb39874	-0.3507725
63	0xbf125f01	-0.57176214
64	0xbf06ade1	-0.5260907
65	0xbe84f68f	-0.2596936
66	0xbe98719a	-0.2977417
67	0xbf0d464f	-0.5518541
68	0xbf48f682	-0.7850114
69	0xbeda3764	-0.42620385
70	0xbf01dc44	-0.50726724
71	0xbed23cac	-0.41061914
72	0xbeee121a	-0.46498185
73	0xbf23879f	-0.63878816
74	0xbf13e870	-0.57776546
75	0xbee16ca7	-0.44028208
76	0xbf2802ba	-0.6562916
77	0xbf01c1d2	-0.5068637
78	0xbf18c6d4	-0.5967839
79	0xbf2b3f3a	-0.6689335
80	0xbe83dcca	-0.25754386
81	0xbe835ada	-0.25655252
82	0xbe8885a1	-0.2666445
83	0xbeba6b01	-0.36409763
84	0xbf195fc4	-0.5991175
85	0xbf40ae10	-0.752656
86	0xbf0a9a09	-0.5414129
87	0xbf2c40ec	-0.6728656
88	0xbf0357fd	-0.51306134
89	0xbebae6b9	-0.36504152
90	0xbec90b23	-0.3926631
91	0xbf0b35ff	-0.54379267
92	0xbf0bad10	-0.5456095
93	0xbeb2f261	-0.34950545
94	0xbf24fed8	-0.6445136
95	0xbdafd708	-0.08585936
96	0xbe8eb948	-0.27875733
97	0xbed341d2	-0.41261154
98	0xbee5b735	-0.44866338
99	0xbf02758f	-0.5096063
100	0xbeb2bee3	-0.3491126
101	0xbefe01f3	-0.49610862
102	0xbf442100	-0.76612854
103	0xbe8dc202	-0.2768708
104	0xbf24869f	-0.64267915
105	0xbee81ee9	-0.45336083
106	0xbf1b282d	-0.6060818
107	0xbebad14f	-0.36487815
108	0x3dfe6eae	0.12423454
109	0xbeb19a48	-0.3468802
110	0xbf072739	-0.52794224
111	0xbee2576b	-0.4420732
112	0xbf04b91d	-0.5184496
113	0xbe3cbcf7	-0.1843146
114	0xbe57fbe4	-0.21092182
115	0xbf0f0f24	-0.5588248
116	0xbef813b1	-0.48452523
117	0xbf16ee16	-0.5895704
118	0xbf20f36b	-0.62871426
119	0xbf1ec025	-0.6201194
120	0xbf0e4a94	-0.5558255
121	0xbf299137	-0.66237205
122	0xbf1ba22f	-0.6079435
123	0xbef7a658	-0.48369098
124	0xbee09d71	-0.43870118
125	0xbf1b79ef	-0.6073293
126	0xbf1e2d5c	-0.6178796
127	0xbf1f3ea5	-0.6220496
128	0xbf1730c0	-0.5905876
129	0xbe493180	-0.19647789
130	0xbef9b79c	-0.48772895
131	0x3ac7d811	0.0015246888
132	0xbf0f4d56	-0.5597738
133	0xbe7d7e45	-0.24755199
134	0xbf0b76ce	-0.54478157
135	0xbe9480fe	-0.29004663
136	0xbf1ca3e8	-0.611876
137	0xbee86136	-0.45386666
138	0xbe3590d0	-0.17731023
139	0xbf0c5c55	-0.5482839
140	0xbe4c34be	-0.19941995
141	0xbf1ec216	-0.620149
142	0xbf0e49da	-0.5558144
143	0xbf5e65ff	-0.86874384
144	0xbf3c7c49	-0.73627144
145	0xbf241714	-0.64097714
146	0xbedf6cc2	-0.43637663
147	0xbeac240f	-0.3362126
148	0xbf01843d	-0.50592405
149	0xbee8900d	-0.45422402
150	0xbedd6460	-0.43240643
151	0xbe0624ce	-0.13099977
152	0xbf25396b	-0.6454074
153	0xbdac4894	-0.08412281
154	0xbeca739d	-0.3954133
155	0xbeb0234e	-0.34401935
156	0x3dec6fad	0.11544738
157	0xbed14e50	-0.4088006
158	0xbea11967	-0.31464693
159	0xbf0ff825	-0.56238014
160	0xbe9d02c6	-0.30666178
161	0xbeccfc0a	-0.4003604
162	0xbecc72bc	-0.39931285
163	0xbf0ffb56	-0.56242883
164	0xbea28f16	-0.3174979
165	0xbed60327	-0.4179928
166	0xbf3744d4	-0.715894
167	0xbf2b5a01	-0.6693421
168	0xbf2d5bb6	-0.67718065
169	0xbe3bee3d	-0.183526
170	0xbecf017f	-0.4043083
171	0xbda9b525	-0.08286504
172	0x3cf880f8	0.030334935
173	0xbf2e36c1	-0.680523
174	0xbe922247	-0.28541777
175	0xbf151d1a	-0.5824753
176	0xbe77bbf1	-0.24192788
177	0xbf36cd9e	-0.71407497
178	0xbf130f6b	-0.574454
179	0xbeeed0a9	-0.4664357
180	0xbf40f18b	-0.75368565
181	0xbf17418c	-0.5908439
182	0xbf252bfb	-0.64520234
183	0xbefe14ae	-0.49625152
184	0xbf36d1fa	-0.7141415
185	0xbe4b9b3f	-0.1988344
186	0xbf4a8225	-0.79104835
187	0xbf1779f1	-0.5917044
188	0xbe71b42a	-0.23603883
189	0xbf064774	-0.5245278
190	0xbf3ba89a	-0.7330414
191	0xbf249121	-0.6428395
192	0xbf5e719c	-0.86892104
193	0xbf03e389	-0.51519066
194	0xbf235f69	-0.6381746
195	0xbe2a6e1e	-0.16643569
196	0xbeb3e84a	-0.3513816
197	0xbf2caa4e	-0.67447364
198	0xbf17c7cc	-0.5928924
199	0xbeebc0b3	-0.46045455
200	0xbedb375e	-0.4281568
201	0xbf0bdc19	-0.5463272
202	0xbf257717	-0.6463484
203	0xbf054a83	-0.5206682
204	0xbf0fc601	-0.56161505
205	0xbe3b9f5f	-0.18322514
206	0xbe84a47f	-0.2590675
207	0xbebe0caf	-0.37119052
208	0xbf3c7e6a	-0.7363039
209	0xbf17fc02	-0.5936891
210	0xbf32a78c	-0.69786906
211	0xbebc0906	-0.36725634
212	0xbf01838f	-0.5059137
213	0xbf5b2669	-0.85605484
214	0xbf362432	-0.7114898
215	0xbe864373	-0.26223335
216	0xbf20a74f	-0.6275529
217	0xbf0edf2d	-0.5580929
218	0xbe81ae82	-0.2532845
219	0xbf47d702	-0.7806245
220	0xbefb3c16	-0.4906928
221	0xbeb67307	-0.35634634
222	0xbf3bd184	-0.7336657
223	0xbf2ade7a	-0.6674572
224	0xbedc34ba	-0.43008977
225	0xbf21cacb	-0.6320006
226	0xbe9b085d	-0.30279818
227	0xbf028290	-0.5098047
228	0xbeeba81a	-0.4602669
229	0xbe35b90c	-0.17746371
230	0xbf617890	-0.8807459
231	0xbf277ae3	-0.65421885
232	0xbf0197b5	-0.5062211
233	0xbe45e289	-0.19324698
234	0xbeeb365d	-0.45939913
235	0xbf2c6bd7	-0.6735205
236	0xbf2702d1	-0.6523867
237	0xbf15b3d3	-0.58477515
238	0xbef28767	-0.4736893
239	0xbec8d958	-0.3922832
240	0xbf00229f	-0.5005283
241	0xbf228d41	-0.63496786
242	0xbf019434	-0.50616765
243	0xbee15a45	-0.44014183
244	0xbed34120	-0.41260624
245	0xbf498cf2	-0.7873069
246	0xbe73d504	-0.23811728
247	0xbf0a8252	-0.54105103
248	0xbdef09b9	-0.11671776
249	0xbeca38ce	-0.39496464
250	0xbf27de56	-0.6557363
251	0xbee6d084	-0.4508096
252	0xbf478aa2	-0.7794591
253	0xbeb58182	-0.3545037
254	0xbf23ffac	-0.64062
255	0xbf248ba8	-0.642756

batch_norm_1.running_mean f4 [512]
0	0x4110bc2d	9.045941
1	0xc10456d0	-8.271194
2	0xc0712485	-3.767854
3	0xc096a0f0	-4.7071457
4	0xbf82e060	-1.0224724
5	0xc02fe2b0	-2.748211
6	0xbe5c4cff	-0.21513747
7	0xc13b675a	-11.712732
8	0xc13cc0b7	-11.7970495
9	0x41122fc8	9.136665
10	0xc19666b1	-18.800142
11	0x416f3e8d	14.952771
12	0x41944795	18.534952
13	0xc1a4e05b	-20.609549
14	0xbfd0a2e8	-1.6299715
15	0x4123a681	10.22815
16	0x40d8fe3e	6.7810354
17	0x4006a652	2.1039014
18	0x411f1fbe	9.94525
19	0x40667943	3.6011512
20	0xc13152d7	-11.082725
21	0x40c4a509	6.145146
22	0xc1469d32	-12.413378
23	0x40daf943	6.8429275
24	0x4099ad46	4.8024015
25	0xc0ee0ac1	-7.4388127
26	0xc145fade	-12.373747
27	0x40f0c1d4	7.5236607
28	0xc0579754	-3.3686113
29	0x4028c735	2.6371586
30	0xbf804d7a	-1.0023644
31	0x3ef9c868	0.4878571
32	0x417d36b2	15.825853
33	0x4150051c	13.001247
34	0xc19640bb	-18.781607
35	0x3fe665ff	1.7999877
36	0xbf2213a6	-0.6331123
37	0xc127796c	-10.467144
38	0xc1800f06	-16.007336
39	0x41333ccd	11.202344
40	0x417978ee	15.592024
41	0x41161b76	9.381704
42	0x41d256e9	26.292437
43	0x420320fb	32.782207
44	0x416a866f	14.657821
45	0x40cfe534	6.496729
46	0xc012207b	-2.2832325
47	0x41c6dfec	24.859337
48	0x4031d07a	2.7783494
49	0x41d5cba0	26.724426
50	0x41be5a62	23.794132
51	0xc08950a2	-4.291093
52	0x415a30ab	13.636882
53	0xbf7c5f86	-0.9858326
54	0xc10ae71c	-8.681423
55	0x41ad7312	21.681187
56	0x4189d0b6	17.22691
57	0xc10b6572	-8.712267
58	0xbfe2b6bc	-1.7712016
59	0xc075523e	-3.8331447
60	0x408699b7	4.206264
61	0xc212de1c	-36.716904
62	0x41915129	18.164629
63	0xc0c2e8d2	-6.0909204
64	0xc1065f8b	-8.398326
65	0x418c8fe1	17.570253
66	0x412e3b28	10.889442
67	0xc15260e2	-13.148653
68	0xc21ff58c	-39.98979
69	0xc0f20621	-7.563248
70	0xc1eb3a95	-29.403605
71	0x414c1eb9	12.757501
72	0x3f9777c1	1.1833421
73	0x3fea0be4	1.8284879
74	0x409f2067	4.9727054
75	0x4176ea25	15.432164
76	0x41c00754	24.003578
77	0x415de6fd	13.868894
78	0xc1135064	-9.207127
79	0x3f0c2046	0.54736745
80	0x4110987f	9.0372305
81	0x4166d0f2	14.426012
82	0x3fc0f462	1.507458
83	0x41a1a126	20.203686
84	0x411920c5	9.5705
85	0x418c46ec	17.53463
86	0xc21e9127	-39.64175
87	0x411fb187	9.980842
88	0x417b3131	15.69951
89	0xc1221397	-10.129783
90	0x418db28a	17.712177
91	0x4123bd92	10.233782
92	0xc16b1763	-14.69321
93	0x3fc81857	1.5632428
94	0x40bcaef8	5.8963585
95	0x41bf3622	23.901432
96	0xc174819a	-15.281641
97	0xbe2b2cf9	-0.16716374
98	0x40d34522	6.602189
99	0x3f1b9b06	0.6078342
100	0x4097b5d5	4.7409463
101	0x40167c47	2.3513353
102	0xc0ba1908	-5.8155556
103	0xbf2b8cd5	-0.6701177
104	0xc19c0cdf	-19.506285
105	0x41960a09	18.7549
106	0x4008cdd8	2.1375637
107	0x41259b9a	10.350489
108	0x40d657d4	6.698221
109	0x4115e123	9.367465
110	0xc11aafef	-9.667953
111	0xc0f4d780	-7.651306
112	0x41622973	14.135119
113	0x4125a85f	10.353606
114	0x4188b5dd	17.0888
115	0xc0dc215c	-6.879072
116	0x412aaa75	10.6666155
117	0x4161d3ae	14.11418
118	0xc10b66a1	-8.712556
119	0xc11c47a1	-9.767488
120	0x40bceade	5.9036703
121	0x404e0d3e	3.2195582
122	0xc0805182	-4.0099497
123	0xc15bd178	-13.73864
124	0x41128f1c	9.159939
125	0x4068107c	3.6260061
126	0xc131fded	-11.124494
127	0x4153cd33	13.237597
128	0x40f1196c	7.5343533
129	0x4175ded2	15.3668995
130	0x40825148	4.072422
131	0x4126f61b	10.435084
132	0xc09cdcac	-4.9019375
133	0xbea2da6f	-0.31807277
134	0x40098b03	2.1491096
135	0xc1dfd994	-27.98124
136	0xc04e08a9	-3.2192786
137	0x411d606a	9.836039
138	0x41453675	12.325795
139	0x417327f7	15.197257
140	0xc1ce0c7b	-25.756094
141	0x410a3786	8.638556
142	0xc10db95a	-8.857752
143	0xc1b77ac4	-22.934944
144	0x411d7d42	9.8430805
145	0x40861773	4.1903625
146	0x41754eff	15.331786
147	0x41096ef2	8.589586
148	0x41b5e0b1	22.734713
149	0xc1940d22	-18.506413
150	0x4165da26	14.365759
151	0x4109df1d	8.616971
152	0xc14134dd	-12.075406
153	0x4050ac82	3.260529
154	0x418c20fd	17.516108
155	0xc022f2da	-2.5460725
156	0x40b8a5ee	5.770255
157	0xc1c3204f	-24.390776
158	0x408c2947	4.3800387
159	0x41ab3c7c	21.404533
160	0xbf13744b	-0.57599324
161	0x4073ef96	3.8114982
162	0x409f04ad	4.969321
163	0x402b5044	2.676774
164	0xc09ca1c7	-4.894748
165	0x40beb6fa	5.959836
166	0x41bf1f5d	23.890314
167	0x40d54c48	6.6655617
168	0xc1be8806	-23.816418
169	0x412a594c	10.646801
170	0x418fe211	17.985384
171	0xc154c24c	-13.297436
172	0xc05572cf	-3.3351324
173	0xc1f2d196	-30.352337
174	0x4083b945	4.116366
175	0x41bcc3d0	23.595612
176	0x41454471	12.329209
177	0x3fa00cf0	1.2503948
178	0xc0e10f91	-7.03315
179	0x414fb95f	12.982757
180	0xc00d7516	-2.2102714
181	0x3ff2fb1b	1.8982881
182	0xc17ff328	-15.996864
183	0xc1787e79	-15.530877
184	0xc0a552bc	-5.1663494
185	0x41b98aeb	23.192831
186	0x410d64fa	8.8371525
187	0xc1a7467c	-20.909416
188	0x4079eb8c	3.9050016
189	0x411795ac	9.474041
190	0xc15bcac1	-13.737
191	0x410bbe56	8.733969
192	0x418e771e	17.808163
193	0xc1d73f33	-26.905859
194	0xc1cc9295	-25.571573
195	0x4109a788	8.603401
196	0x410fd9da	8.990686
197	0xc2117e53	-36.373363
198	0x403bfe90	2.9374123
199	0xc001a51c	-2.0257025
200	0xc14a046f	-12.626082
201	0x40b40234	5.625269
202	0xc09a3bd4	-4.819803
203	0xc0d922cf	-6.785499
204	0xc0f57e4c	-7.671667
205	0x410b851f	8.72
206	0x4007d55f	2.1223981
207	0x3fd94a01	1.6975709
208	0x40131c98	2.2986202
209	0x4129df00	10.616943
210	0x4117b0aa	9.480631
211	0x409b768f	4.8582225
212	0x40ab9ce1	5.3629003
213	0x3fdfc43a	1.7481759
214	0x4007c879	2.1216109
215	0x40d17583	6.5455947
216	0x411e345b	9.887782
217	0xc1932387	-18.392347
218	0x4114d5be	9.302183
219	0xc1a924ab	-21.142904
220	0xc2150635	-37.25606
221	0xc0b72bf3	-5.724115
222	0xbf5bc738	-0.8585086
223	0xc1c56107	-24.672377
224	0xc1796a94	-15.58852
225	0x4106059d	8.37637
226	0x40be4fbe	5.947234
227	0x40ffd966	7.995288
228	0x411737e1	9.451142
229	0xc213368f	-36.80328
230	0xbfa0d2f8	-1.2564383
231	0x406a6403	3.6623542
232	0x41198b73	9.596545
233	0x4136eb4b	11.432445
234	0x418872aa	17.055988
235	0xc0b9d7f0	-5.8076096
236	0xc1c9eb6e	-25.239956
237	0xc0bde138	-5.9337425
238	0xc1e7f10e	-28.992702
239	0xc21a3987	-38.55618
240	0xc1f44000	-30.53125
241	0x414b1711	12.693131
242	0x417d10b3	15.816577
243	0x4055a2ba	3.338057
244	0xc03fac10	-2.9948769
245	0x4184489b	16.535452
246	0x417a5b66	15.647314
247	0x40b3239d	5.5980973
248	0x40d081b3	6.5158324
249	0x40eaff96	7.3436995
250	0xc0bfed2a	-5.9977007
251	0xc0a49f13	-5.1444182
252	0xc18d5ac3	-17.669317
253	0x416366a2	14.212557
254	0xc19a1bd3	-19.263586
255	0xc1b4f27e	-22.618404

batch_norm_1.running_var f4 [512]
0	0x4307adf2	135.67947
1	0x438057c0	256.68555
2	0x43b1f367	355.90158
3	0x430c5c2c	140.36005
4	0x442f8704	702.1096
5	0x4349f113	201.9417
6	0x4391507c	290.62878
7	0x4348472f	200.27806
8	0x44054d19	533.20465
9	0x438dc945	283.57242
10	0x433ab805	186.71883
11	0x442c8982	690.14856
12	0x43c01982	384.19928
13	0x43bb275a	374.30743
14	0x43391b5e	185.1069
15	0x4337a09b	183.62737
16	0x439bbaa3	311.4581
17	0x43ec77b4	472.93518
18	0x43c590c3	395.13095
19	0x43ab30c6	342.38104
20	0x440b1b98	556.43115
21	0x43d91a24	434.20422
22	0x440cdb29	563.4244
23	0x43bd0293	378.0201
24	0x433f327a	191.19717
25	0x4266a1b9	57.657932
26	0x4382c01b	261.50082
27	0x4393907c	295.12878
28	0x43b2ab23	357.337
29	0x42e2f385	113.475624
30	0x4341a790	193.65454
31	0x43a8e81d	337.8134
32	0x42ce7a15	103.23844
33	0x43b716f6	366.17938
34	0x4364102c	228.06317
35	0x441d5b0c	629.4226
36	0x43400c64	192.0484
37	0x430fe168	143.8805
38	0x43913af1	290.46048
39	0x43e6df0b	461.74252
40	0x43e513fd	458.15616
41	0x43b86d75	368.85513
42	0x43270698	167.02576
43	0x43e2c438	453.53296
44	0x43a304ab	326.03647
45	0x43e97fba	466.99786
46	0x442574e7	661.8266
47	0x436c207b	236.12688
48	0x43f3ea8f	487.8325
49	0x43359c9b	181.61174
50	0x4388b39c	273.4032
51	0x42c1745b	96.72726
52	0x43990f45	306.1193
53	0x434bf2c7	203.94835
54	0x438cc578	281.54272
55	0x43da4a87	436.58224
56	0x43f301f2	486.0152
57	0x43e024c0	448.2871
58	0x4363f254	227.9466
59	0x429b813e	77.752426
60	0x438c16db	280.17856
61	0x43784299	248.26015
62	0x43d47b82	424.9649
63	0x44057be3	533.9357
64	0x43d07825	416.93863
65	0x4382a955	261.3229
66	0x431207ed	146.03096
67	0x43955595	298.6686
68	0x43aa2a82	340.3321
69	0x43933048	294.3772
70	0x43fa87ff	501.06247
71	0x4379e4c1	249.89357
72	0x43e2203e	452.2519
73	0x43ec5d70	472.72998
74	0x42ecb38e	118.35069
75	0x43cbcce2	407.60065
76	0x43e9cb24	467.58704
77	0x431a8b11	154.54323
78	0x43131c69	147.11098
79	0x43ae8bf6	349.09344
80	0x42f8d465	124.41483
81	0x43eee7af	477.81003
82	0x441a80da	618.0133
83	0x43d89699	433.17654
84	0x4395452a	298.54034
85	0x43904446	288.5334
86	0x43be352a	380.41534
87	0x43c05090	384.6294
88	0x43697d8e	233.49045
89	0x43f9056f	498.04245
90	0x439e6b51	316.8384
91	0x43787ca9	248.48695
92	0x42f3f288	121.973694
93	0x43bae387	373.77756
94	0x43a07298	320.89526
95	0x43b5f4e4	363.9132
96	0x43e00b68	448.0891
97	0x427f5e7e	63.842278
98	0x438072b1	256.89603
99	0x43f46d63	488.85458
100	0x43d417c4	424.18567
101	0x4319a9d8	153.66345
102	0x43b56bbd	362.8417
103	0x4413c379	591.05426
104	0x436e27f8	238.15613
105	0x440b0a20	556.1582
106	0x436f6a11	239.41432
107	0x43fd3c49	506.47098
108	0x436218db	226.09709
109	0x443ef0df	763.7636
110	0x43dd74a1	442.91116
111	0x4335741e	181.45358
112	0x43a75e89	334.73856
113	0x44315d24	709.4553
114	0x4328edac	168.9284
115	0x439861f7	304.76535
116	0x43bf1cf0	382.22607
117	0x449331e3	1177.559
118	0x435eab10	222.66821
119	0x436dee72	237.93143
120	0x4343743c	195.45404
121	0x4423819e	654.02527
122	0x4386566c	268.67517
123	0x438247ee	260.56195
124	0x43b14d35	354.60318
125	0x439a77c8	308.9358
126	0x42f517fa	122.54683
127	0x4413ffd1	591.99713
128	0x44001085	512.2581
129	0x4313450b	147.2697
130	0x4312fbc9	146.98354
131	0x42e23454	113.1022
132	0x44001aaf	512.41693
133	0x444b7aeb	813.9206
134	0x43cc5219	408.6414
135	0x439ea2dc	317.27234
136	0x42b30def	89.527214
137	0x43505a08	208.35168
138	0x42d97c74	108.74307
139	0x43d760d8	430.7566
140	0x432ef19e	174.94382
141	0x43c1b1ca	387.38898
142	0x43ab0abb	342.08383
143	0x432fa027	175.6256
144	0x435270ef	210.44115
145	0x4357c510	215.76978
146	0x438c27a1	280.3096
147	0x436cd011	236.81276
148	0x43704320	240.2622
149	0x440604c2	536.07434
150	0x43998d5c	307.10437
151	0x428b1827	69.54717
152	0x4350da90	208.85376
153	0x441e7158	633.771
154	0x434e4ab9	206.29189
155	0x43b19734	355.18127
156	0x422398f1	40.899357
157	0x43f85fee	496.74945
158	0x440d5d1b	565.4548
159	0x43a1cfa0	323.62207
160	0x43178976	151.53696
161	0x43257aef	165.48021
162	0x42b3a35f	89.819084
163	0x43ea1968	468.1985
164	0x428a3c72	69.11806
165	0x43bcd21c	377.64148
166	0x4332c1cb	178.757
167	0x43f8f8e6	497.94452
168	0x438bdefe	279.74213
169	0x439bd0a3	311.62997
170	0x43d451e4	424.63977
171	0x436d02a5	237.01033
172	0x433bdfc9	187.87416
173	0x439677bd	300.93546
174	0x437b765c	251.46234
175	0x436e19f2	238.10135
176	0x42c33325	97.59989
177	0x43f201f9	484.0154
178	0x437f0daa	255.05338
179	0x43c36022	390.75104
180	0x43264757	166.27867
181	0x4383a07f	263.25388
182	0x43ffb948	511.4475
183	0x43a0de85	321.73843
184	0x43ca03ca	404.0296
185	0x43701d6a	240.1149
186	0x43bbbf11	375.4927
187	0x43cdc47e	411.5351
188	0x4432855d	714.0838
189	0x434d4473	205.26738
190	0x43a8921c	337.14148
191	0x44245032	657.25305
192	0x43d956b7	434.67746
193	0x43f8fa2f	497.95456
194	0x4394f2ad	297.8959
195	0x43278bc4	167.54596
196	0x431d29b3	157.16289
197	0x43c514b3	394.1617
198	0x434ddb03	205.85551
199	0x43a5d75e	331.68256
200	0x437470c5	244.4405
201	0x440d224e	564.536
202	0x44924b3a	1170.3508
203	0x435edd42	222.86429
204	0x4386878b	269.05893
205	0x43c235fe	388.4218
206	0x438fd12c	287.63416
207	0x4407ca1f	543.15814
208	0x4391ed89	291.85574
209	0x4397a57c	303.29285
210	0x43775169	247.31801
211	0x438147bb	258.5604
212	0x43049b44	132.6065
213	0x43d8ef2d	433.86856
214	0x42e97d8c	116.74521
215	0x43454427	197.26622
216	0x44111cf6	580.4525
217	0x43bf5d49	382.7288
218	0x437431fd	244.19527
219	0x4334aff5	180.68733
220	0x43c38d1c	391.10242
221	0x4393d8da	295.69415
222	0x439267d5	292.8112
223	0x43b99d39	371.2283
224	0x43cabca2	405.4737
225	0x437858f9	248.34755
226	0x4305ed93	133.92802
227	0x434dd90a	205.84781
228	0x43e34868	454.56567
229	0x436cb1f4	236.69513
230	0x4379105c	249.0639
231	0x44235a07	653.4067
232	0x4417a872	606.63196
233	0x439c7484	312.91028
234	0x43ee5bd2	476.71735
235	0x4412ea78	587.6636
236	0x43ba7134	372.8844
237	0x430dc237	141.75865
238	0x435c6596	220.39682
239	0x43935be6	294.71796
240	0x4361ee2e	225.93039
241	0x438c0f26	280.11835
242	0x43c3daee	391.7104
243	0x44215870	645.38184
244	0x42ec8174	118.25284
245	0x43b060e7	352.75705
246	0x438caba8	281.34106
247	0x44381126	736.26794
248	0x442df232	695.7843
249	0x43ad536b	346.6517
250	0x43ea5a4c	468.70544
251	0x4442460d	777.09454
252	0x43a11e33	322.23593
253	0x43b413fd	360.15616
254	0x4410bf08	578.98486
255	0x43733c59	243.23573

layer_2.weight f4 [64, 512]
0	0x3e842ed2	0.2581697
1	0x3d5ce00f	0.053924616
2	0xbecd9feb	-0.4016107
3	0x3e2d4f77	0.16924845
4	0xbed169fe	-0.40901178
5	0xbf34b7f0	-0.70593166
6	0xbdf95618	-0.12174624
7	0x3d2f2172	0.042756505
8	0x3e17421e	0.14771315
9	0x3b0d245e	0.002153657
10	0xbe47e563	-0.19521098
11	0x3e56cc6e	0.20976421
12	0x3df66cf7	0.12032502
13	0xbee382bf	-0.4443569
14	0xbde43706	-0.111433074
15	0x3ddab977	0.10679906
16	0x3bd04240	0.006355554
17	0x3e0cda84	0.13755232
18	0xbeb673eb	-0.35635313
19	0x3e563bd6	0.20921263
20	0xbe02ca8b	-0.12772577
21	0xbde1fd95	-0.11034695
22	0xbe70bcd0	-0.23509526
23	0x3e1886d3	0.14895181
24	0xbc075697	-0.008260391
25	0x3f107ebf	0.564434
26	0x3d8b1009	0.06790168
27	0xbebf98c5	-0.3742124
28	0xbe4610cd	-0.19342346
29	0x3d8ffee5	0.07031039
30	0xbe5aac8d	-0.21354885
31	0xbd28c09d	-0.041199315
32	0xbe86dc7d	-0.26340094
33	0xbea90857	-0.33014175
34	0xbf17c56f	-0.59285635
35	0x3d175237	0.03694364
36	0x3e80208d	0.25024834
37	0x3b8a6f0b	0.004224663
38	0xbf0b8d13	-0.5451214
39	0xbda0bfa3	-0.07849052
40	0x3e23fad9	0.1601366
41	0xbebbea4d	-0.36702195
42	0x3d31982e	0.04335802
43	0x3e8639df	0.26216027
44	0x3e3acfd7	0.18243347
45	0xbd860fe0	-0.06545997
46	0xbc1d36f1	-0.009595619
47	0xbe82e374	-0.25564158
48	0xbe506207	-0.20349894
49	0x3e4437d0	0.19161916
50	0x3d36bf6b	0.044616144
51	0x3dee18dd	0.11625836
52	0x3dfebedc	0.12438747
53	0x3d4ff507	0.050770786
54	0x3e8fb465	0.28067318
55	0x3d999ecd	0.07500992
56	0x3e38c290	0.1804297
57	0xbf202d46	-0.6256908
58	0xbdec2d9e	-0.11532138
59	0x3ed4cfe8	0.4156487
60	0x3e84c1b9	0.2592905
61	0xbd9cb86b	-0.076523624
62	0xbe6a4299	-0.22876967
63	0xbd40518a	-0.04695276
64	0x3e018bb3	0.12650947
65	0xbe0174ba	-0.12642184
66	0xbcabc5cd	-0.020968342
67	0xbf1f136f	-0.6213903
68	0xbdf7fa25	-0.12108258
69	0x3da800ca	0.082032755
70	0x3d0eddfd	0.034879673
71	0x3d773051	0.060348812
72	0x3e65dd1f	0.22447632
73	0xbf23cf7e	-0.6398848
74	0xbc548df9	-0.012973302
75	0x3d36f2b6	0.04466506
76	0xbe7cf91c	-0.24704403
77	0xbde546eb	-0.11195167
78	0x3ee44c78	0.4458959
79	0xbeb3b26d	-0.35097066
80	0x3d0368c4	0.032082334
81	0x3d34ba6b	0.044123095
82	0xbd39f984	-0.045403972
83	0xbe0e0abf	-0.13871287
84	0x3de1c946	0.11024718
85	0xbdde58e1	-0.10856796
86	0xbe7e5a2c	-0.24839085
87	0x3ea37fd3	0.3193346
88	0x3ec3e252	0.38258606
89	0xbdf541b7	-0.11975425
90	0x3e4ff033	0.20306472
91	0xbf0340dc	-0.5127084
92	0xbca7292f	-0.02040538
93	0xbd708e51	-0.058729474
94	0x3eb6a77d	0.35674658
95	0x3d80555e	0.062662825
96	0xbde31937	-0.11088794
97	0x3e493d4d	0.1965229
98	0xbe4610e9	-0.19342388
99	0x3de73118	0.11288661
100	0x3eae00cc	0.33984983
101	0x3e0fa228	0.14026701
102	0xbc8dac8a	-0.017294187
103	0x3e93c106	0.28858203
104	0xbe3e8618	-0.1860584
105	0x3e3a715b	0.18207304
106	0x3e92fd9a	0.28709108
107	0x3e66f779	0.22555341
108	0x3ec2eb8d	0.38070336
109	0x3da563d8	0.08075684
110	0xbe349d93	-0.17638235
111	0x3d744319	0.0596343
112	0xbecf79df	-0.40522668
113	0x3e94826a	0.29005748
114	0xbd7532f9	-0.059863064
115	0xbdeea7a8	-0.11653072
116	0xbef5dd4a	-0.48020393
117	0x3bdfc1c3	0.006828518
118	0xbd5bb9c3	-0.053643953
119	0x3e1373e1	0.14399673
120	0xbee19a3b	-0.4406298
121	0xbda5ec6b	-0.08101734
122	0x3e6265b8	0.22109115
123	0xbe31b7da	-0.1735529
124	0xba995a12	-0.0011699817
125	0x3d228df9	0.039686177
126	0xbc143cf5	-0.009047736
127	0xbe03db51	-0.12876631
128	0x3db542f9	0.08850665
129	0x3aabcd66	0.0013107478
130	0x3e9d1ab4	0.30684435
131	0xbdef5678	-0.116864145
132	0x3ea0d802	0.314148
133	0x3eaa48ed	0.33258763
134	0x3eb41d0f	0.3517842
135	0xbe3c51ad	-0.18390532
136	0x3e7f9e0e	0.24962637
137	0x3e3d01ec	0.18457764
138	0x3dbe4b16	0.09291665
139	0x3da1a443	0.078926586
140	0x3d207eb4	0.039183334
141	0xbee15322	-0.44008738
142	0x3e1193df	0.14216565
143	0xbd78baf5	-0.06072517
144	0xbcaab8a9	-0.020840006
145	0x3db99e0b	0.090633474
146	0xbe27d8e2	-0.16391328
147	0xbd234ae8	-0.039866358
148	0xbd9845c7	-0.07435184
149	0x3db7fbda	0.08983584
150	0x3e13a29e	0.14417502
151	0x3e856e72	0.26060826
152	0xbecf8855	-0.405337
153	0x3d187868	0.037224203
154	0xbe6c6d7e	-0.23088643
155	0x3e910001	0.28320315
156	0x3d94f531	0.07273329
157	0xbd1b0e1a	-0.037855245
158	0xbec7bd28	-0.39011502
159	0x3e28c04e	0.16479608
160	0x3e59d231	0.21271588
161	0x3c06410a	0.008194217
162	0x3e123276	0.14277062
163	0x3e7e8246	0.24854383
164	0x3da01b6f	0.078177325
165	0x3d4991c8	0.049211293
166	0x3e072a56	0.13199744
167	0xbf04fa36	-0.5194429
168	0x3e44ffaa	0.19238153
169	0x3e524c89	0.20537008
170	0xbc3fe073	-0.011711228
171	0xbed940d2	-0.42432266
172	0xbe0d8d2f	-0.13823389
173	0x3d8bd8b9	0.06828446
174	0x3e0b6ce9	0.13615765
175	0xbf0eff14	-0.5585797
176	0xbed42050	-0.41430902
177	0xbc75c6e9	-0.015001037
178	0xbec972b8	-0.39345336
179	0x3e8b30a6	0.27185553
180	0xbe85b4be	-0.26114458
181	0xbcc265c6	-0.02373017
182	0x3e3422cc	0.17591399
183	0xbe1779f8	-0.14792621
184	0xbc8981d4	-0.01678554
185	0xbc9b43c4	-0.018953212
186	0xbea8b9c0	-0.32954216
187	0xbe33d0fa	-0.17560187
188	0x3d25eab0	0.04050702
189	0x3d00d438	0.031452388
190	0x3e5afb49	0.2138492
191	0xbf1af749	-0.6053358
192	0xbd29b2ad	-0.041430164
193	0x3e37990b	0.17929475
194	0xbe00e55a	-0.1258749
195	0x3e659baf	0.2242267
196	0x3df3cc93	0.11904254
197	0xbf302c3d	-0.688175
198	0xbf083240	-0.53201675
199	0x3d540819	0.051765535
200	0xbbe1d574	-0.0068919007
201	0xbd206f0e	-0.03916841
202	0x3ebaa85b	0.3645657
203	0x3ea1f8b9	0.31635073
204	0x3d10c85b	0.035347324
205	0x3d4f69d3	0.05063803
206	0x3ed5a408	0.41726708
207	0xbdc8bff3	-0.098022364
208	0xbe966f52	-0.29381806
209	0xbeb852a0	-0.36000538
210	0x3e61f7de	0.2206721
211	0xbf3dc483	-0.7412798
212	0x3d13e30c	0.0361052
213	0xbf168d8c	-0.58809733
214	0xbe0a5f4f	-0.1351292
215	0xbd44a281	-0.04800654
216	0x3dc2ed69	0.09517939
217	0xbeff7c08	-0.49899316
218	0xbe43b4bd	-0.19111915
219	0x3e64998b	0.22324197
220	0x3e956c23	0.29184064
221	0x3d876fc6	0.06613116
222	0x3ed888a5	0.42291752
223	0xbd74fd39	-0.059811804
224	0xbe5c08cd	-0.21487732
225	0xbb8c8510	-0.004288323
226	0xbd92ae75	-0.07162181
227	0x3d3d2410	0.04617697
228	0xbe8e7a94	-0.27827895
229	0xbe2e6f6b	-0.1703469
230	0x3e8ce2b3	0.27516708
231	0x3eb61015	0.35559145
232	0xbd33d795	-0.043906767
233	0x3d064c6b	0.03278772
234	0x3e652c4a	0.22380176
235	0x3ee00f31	0.4376159
236	0x3e963b6f	0.2934222
237	0xbdcf5608	-0.10123831
238	0xbe2487e6	-0.16067466
239	0xbf0582bb	-0.52152604
240	0xbdaf3300	-0.08554649
241	0xbef85f99	-0.48510435
242	0x3dc6ae56	0.09701221
243	0x3c35e61b	0.011102225
244	0xbd978ff1	-0.074005015
245	0xbe91f599	-0.2850769
246	0xbebf1ab2	-0.37325054
247	0x3d1f0fa4	0.038833275
248	0xbb70b747	-0.0036730336
249	0x3e41307c	0.18866152
250	0x3ef00bf9	0.46884134
251	0xbf25df9a	-0.64794314
252	0xbeac00af	-0.33594272
253	0x3ec2795a	0.3798321
254	0xbdbd1b77	-0.09233754
255	0xbe998ebd	-0.29991713

layer_2.bias f4 [64]
0	0xbd1702e4	-0.03686799
1	0xbd2aca62	-0.041696914
2	0xbc893c70	-0.016752452
3	0x3c892315	0.016740361
4	0xbd08b70c	-0.033377692
5	0xbc62acb3	-0.01383512
6	0x3c6ccdc0	0.0144533515
7	0x3b7fade9	0.003901357
8	0x3d1d78a0	0.038445115
9	0xbd073a1c	-0.0330144
10	0x3d1e4d11	0.038647715
11	0x3cc0d431	0.02353868
12	0x3c92a715	0.017901937
13	0xbcfd817c	-0.030945532
14	0x3cc75edd	0.024337227
15	0xbccaedcb	-0.024771592
16	0xbce400a4	-0.027832337
17	0x3c99f92c	0.018795572
18	0x3c0fb8d0	0.00877209
19	0x3ab66d0a	0.0013917994
20	0xbc488033	-0.012237596
21	0xbc085b74	-0.008322585
22	0xbd1be063	-0.03805579
23	0xbd1d640d	-0.038425494
24	0xbc932a96	-0.017964642
25	0x3cdf7a90	0.027280122
26	0xbd10787c	-0.035271153
27	0x3d0d10f1	0.034439985
28	0xbc9acb1d	-0.01889568
29	0xbd0bdd85	-0.034146804
30	0x3c327feb	0.010894756
31	0xbcc03c17	-0.023466153
32	0xbcb2abfc	-0.021810524
33	0xbba4a5e0	-0.0050246567
34	0x3d27e297	0.040987577
35	0x3d15cda3	0.036573064
36	0xbc9db962	-0.019253436
37	0x3c515558	0.012776695
38	0x3c85d0d1	0.016334923
39	0xbcdfc22b	-0.027314266
40	0x3d0ae8af	0.03391331
41	0x3d12f71c	0.035880193
42	0x3bc96083	0.0061455383
43	0xbd28fa09	-0.041254077
44	0x3af38ba5	0.0018581046
45	0xbcbe03e7	-0.02319522
46	0xbc81448b	-0.015779754
47	0x3d2e6801	0.042579655
48	0xbd159c51	-0.036526028
49	0xbc32ffac	-0.010925215
50	0x3ccc1e44	0.024916776
51	0xbbf683d7	-0.0075230408
52	0x3c8f732c	0.017510973
53	0x3bb65195	0.0055639246
54	0x3cdb03e0	0.026735246
55	0x3c975e47	0.018477572
56	0x3a772ccb	0.0009428977
57	0x3bb8b999	0.0056373593
58	0xbcfa7388	-0.030572668
59	0x3bece691	0.007229634
60	0xbd1dfb97	-0.038570013
61	0x3d04d8d5	0.03243335
62	0x3c414b6b	0.011797766
63	0xbcd1b418	-0.02559857

batch_norm_2.weight f4 [64]
0	0x3f266116	0.6499189
1	0x3f514520	0.817461
2	0x3f9647ad	1.1740624
3	0x3f4e2f9b	0.8054139
4	0x3f6bf699	0.92173153
5	0x3f79e582	0.97615826
6	0x3f4e9eed	0.8071125
7	0x3f78d7e0	0.972044
8	0x3f77c065	0.96777946
9	0x3f8c4a40	1.0960159
10	0x3f543c9f	0.82905
11	0x3f4eed41	0.8083077
12	0x3f8910f8	1.0708303
13	0x3f67cfd5	0.905515
14	0x3f52816c	0.8222873
15	0x3f544ba9	0.8292795
16	0x3f9144cb	1.1349119
17	0x3f6a64d8	0.91560125
18	0x3f6a7930	0.9159117
19	0x3fa37586	1.277024
20	0x3f9a0b4b	1.2034696
21	0x3f964f19	1.1742889
22	0x3f60963f	0.8772926
23	0x3f78f2b1	0.9724532
24	0x3f837ee9	1.0273105
25	0x3f3cae37	0.7370333
26	0x3f890c44	1.0706868
27	0x3f8dc9dd	1.1077229
28	0x3f7cf67c	0.98813605
29	0x3f7a62fa	0.97807276
30	0x3f626558	0.8843589
31	0x3f495d7c	0.7865827
32	0x3f35cad1	0.710126
33	0x3f500772	0.8126136
34	0x3fa3d1b3	1.279837
35	0x3f7c19e7	0.98477024
36	0x3f82b08d	1.0210129
37	0x3f889007	1.0668954
38	0x3fa7ef08	1.3119822
39	0x3f7b15ab	0.9807994
40	0x3f4b0efb	0.79319733
41	0x3f94ba9d	1.161945
42	0x3f7fd248	0.9993024
43	0x3f6e55d9	0.93099743
44	0x3faf2e2e	1.3685968
45	0x3f79fc61	0.97650725
46	0x3f77ddb2	0.96822655
47	0x3f863a4f	1.0486544
48	0x3f5d7a94	0.86515164
49	0x3f9c5d4e	1.2215974
50	0x3f550fe7	0.8322739
51	0x3f333cf3	0.70014876
52	0x3f5c5325	0.8606437
53	0x3f5fc32e	0.87407196
54	0x3f303356	0.6882833
55	0x3f91c2e3	1.13876
56	0x3f3f8a96	0.7482084
57	0x3f4af78d	0.7928398
58	0x3f6dda3b	0.9291112
59	0x3f4450e8	0.76685953
60	0x3f72e936	0.948871
61	0x3f73d5bb	0.95248
62	0x3f833342	1.0250018
63	0x3f5e112a	0.8674494
