solution/critic1.pth (torch, 268683 bytes, 25 tensors)

layer_1.weight f4 [512, 52]
0	0x3d91083a	0.07081647
1	0xbe38f5a7	-0.18062459
2	0x3d16e9f7	0.03684422
3	0xbe2756ef	-0.16341756
4	0xbce9429f	-0.02847415
5	0x3e068019	0.13134803
6	0x3ca02dbf	0.019553063
7	0xbe32ed9d	-0.17473455
8	0x3cba3ebe	0.022734996
9	0xbe695cb1	-0.22789265
10	0x3bbd6f2b	0.0057810745
11	0x3d6cba01	0.057794575
12	0x3e869fc0	0.26293755
13	0x3e0b1f79	0.13586225
14	0x3d20a43c	0.039219126
15	0x3d5a2d1c	0.053265676
16	0x3cf668ef	0.030079333
17	0xbe869911	-0.26288655
18	0x3cab4f0b	0.020911714
19	0xbe40a5e8	-0.18813288
20	0x3fa2495f	1.2678641
21	0xbeac20e3	-0.3361884
22	0x3cc1ceed	0.02365824
23	0xbe553c7c	-0.20823854
24	0x3f843710	1.0329304
25	0x3f45b0ae	0.77222717
26	0x3e405b63	0.18784861
27	0x3dc1affc	0.094573945
28	0xbcfbdd65	-0.030745218
29	0x3dc28085	0.094971694
30	0x3cc2dcf5	0.023787001
31	0x3da4c241	0.080448635
32	0x3af01753	0.0018317498
33	0x3e0965a1	0.13417675
34	0x3e9dc9f2	0.30818135
35	0x3dde7ceb	0.1086367
36	0x3d27b945	0.04094817
37	0xbe2711b4	-0.16315347
38	0xbe6a1f5f	-0.2286353
39	0x3dceb711	0.10093511
40	0x3d08e754	0.033423737
41	0xbe4cf50e	-0.20015356
42	0x3f589d95	0.8461545
43	0x3e338888	0.17532551
44	0x3d26b8ef	0.04070371
45	0x3e8bc4d7	0.27298614
46	0xbfa8950f	-1.3170489
47	0xbeb4bd39	-0.35300615
48	0x3cd2f27b	0.02575039
49	0x3ea1b2ae	0.31581634
50	0x3fe4f88c	1.788835
51	0x3eb02ca5	0.3440906
52	0xbc9a61fe	-0.018845554
53	0x3e82d3ba	0.2555216
54	0x3e400b8d	0.18754406
55	0x3e7eb4d4	0.24873668
56	0x3ef4a294	0.47780287
57	0x3f00942b	0.50226086
58	0x3e246d2d	0.16057272
59	0x3e849fc5	0.25903144
60	0x3c87c877	0.016575081
61	0x3e01454d	0.12624092
62	0xbb13b8d9	-0.0022540598
63	0xbe26bd8f	-0.16283248
64	0x3eca236a	0.39480144
65	0xbce3fa08	-0.027829185
66	0x3b2866b0	0.0025695972
67	0xbe0c9f69	-0.13732685
68	0xbbb2581e	-0.0054426333
69	0x3dc39882	0.09550573
70	0xbe2a581a	-0.1663517
71	0xbd077dcb	-0.03307895
72	0xbd98418c	-0.07434377
73	0xbf137369	-0.57597977
74	0xbe2dd54c	-0.16975898
75	0xbd20f4d1	-0.039295975
76	0xbeb6c2c4	-0.3569547
77	0xbe80e065	-0.251712
78	0xbf048997	-0.51772445
79	0x3c21bbff	0.009871482
80	0xbdf3d65b	-0.119061194
81	0xbc812acd	-0.01576748
82	0xbf0e5166	-0.55592954
83	0x3ef99746	0.48748225
84	0xbe253a7a	-0.16135588
85	0xbace13df	-0.0015722475
86	0xbf02973f	-0.51012033
87	0x3da43f13	0.08019843
88	0xbdc001f4	-0.093753725
89	0x3e5ae783	0.21377377
90	0xbeb32e14	-0.34996092
91	0x3cbce82c	0.023059927
92	0xbdb33e62	-0.08752133
93	0x3e0cd8ff	0.13754652
94	0xbf837325	-1.0269514
95	0x3e6295db	0.22127478
96	0xbe828424	-0.2549144
97	0x3ead4318	0.3384025
98	0x3cec94c9	0.02887954
99	0xbf0cd1c1	-0.5500756
100	0xbe6a3056	-0.22870001
101	0x3e8e03bc	0.27737224
102	0x3f2eb17d	0.68239576
103	0x3e07d170	0.13263488
104	0x3f763eca	0.9618956
105	0x3f20029c	0.6250398
106	0xbd005b2f	-0.03133696
107	0xbeaa70a9	-0.33289078
108	0xbd367e5b	-0.044554096
109	0xbe659645	-0.22420605
110	0xbd03a0c9	-0.03213576
111	0xbeb27209	-0.34852627
112	0x3f48f1af	0.7849378
113	0x3eeb4a7c	0.45955265
114	0xbd8783a0	-0.06616902
115	0xbed7a59a	-0.4211853
116	0xbe1052e9	-0.14094128
117	0xbe92f168	-0.28699803
118	0xbd52ae07	-0.051435497
119	0xbec52c86	-0.3851053
120	0x3f2af8b0	0.66785717
121	0x3d9b5a0c	0.075855345
122	0x3d19ebc4	0.03757836
123	0xbf87de30	-1.0614681
124	0xbccb0c25	-0.024786064
125	0x3dcd2512	0.10016836
126	0x3dc56ef5	0.09640304
127	0xbf88c90b	-1.0686353
128	0xbf1e628f	-0.6186914
129	0x3f18dfbf	0.5971641
130	0xbe4f42bd	-0.20240302
131	0x3d017581	0.0316062
132	0x3cdacb4c	0.026708268
133	0x3ee4aa6b	0.4466127
134	0x3d9328a0	0.07185483
135	0xbe55fea3	-0.20897917
136	0x3ccaaf70	0.024741858
137	0x3ed10fa5	0.40832248
138	0x3c9a0454	0.018800892
139	0x3d7d7d23	0.061886918
140	0x3d9d9000	0.076934814
141	0x3e67fbaf	0.22654603
142	0x3e0faa75	0.14029868
143	0xbe962ce0	-0.29331112
144	0x3dd27156	0.10275523
145	0x3e52b999	0.20578612
146	0x3d12ecd4	0.03587039
147	0xbb82ca52	-0.0039914036
148	0x3d956a87	0.07295709
149	0x3e813854	0.25238287
150	0x3d1edf5f	0.038787242
151	0x3e049252	0.12946442
152	0x3d7b4dbf	0.06135344
153	0x3e54bdcd	0.20775528
154	0x3f47a58b	0.77986974
155	0xbe82ee49	-0.25572422
156	0xbe229d5b	-0.15880339
157	0xbc8bc02e	-0.017059412
158	0x3d9196a3	0.0710881
159	0xbd6fb14e	-0.0585187
160	0x3dc40ce8	0.09572774
161	0x3f25d9d0	0.6478548
162	0x3dc96907	0.098344855
163	0xbd60988d	-0.054832984
164	0xbe41ff1c	-0.18944973
165	0xbe5254f8	-0.20540226
166	0x3b1588a1	0.0022817033
167	0xbdce59b7	-0.100757055
168	0x3d702dbd	0.05863737
169	0x3e9591df	0.29212853
170	0x3d44a2b1	0.048006717
171	0xbe2a2ab2	-0.1661785
172	0xbdf61dd3	-0.12017407
173	0xbe636a7d	-0.22208591
174	0x3db1752e	0.086649284
175	0x3ed5a181	0.4172478
176	0xbd1a21d1	-0.037629906
177	0x3d5b5865	0.053551096
178	0x3d975894	0.07389942
179	0x3ef12577	0.47098896
180	0xbfe4beba	-1.7870705
181	0xbeb84229	-0.35987976
182	0xbef2d5ec	-0.47428834
183	0x3cea98ad	0.028637255
184	0xbceb9bf9	-0.028760897
185	0xbec9ffbf	-0.3945293
186	0xbd46d8ce	-0.048546605
187	0x3f23d29c	0.6399324
188	0xbd10468e	-0.035223536
189	0xbeb710ab	-0.35754904
190	0xbf256d15	-0.6461957
191	0xbd7b0d49	-0.061291967
192	0xbd299f1c	-0.041411504
193	0xbe69563d	-0.22786804
194	0xbe030e71	-0.12798478
195	0x3e851d61	0.25998977
196	0xbdc7590c	-0.09733781
197	0xbe61af0f	-0.22039436
198	0xbf78d1d3	-0.97195166
199	0xbecac203	-0.39601144
200	0xbc77f5fe	-0.015134333
201	0xbf1356bc	-0.5755422
202	0x3d7440bb	0.059632044
203	0x3d120e9d	0.035658468
204	0xbdaa4755	-0.08314387
205	0xbf01cbf7	-0.5070185
206	0x3f964795	1.1740595
207	0xc002f7ed	-2.0463822
208	0xbd9f407d	-0.07775972
209	0x3e6e818a	0.23291603
210	0xbdad1bed	-0.08452592
211	0x3eee2f6a	0.4652055
212	0xbe873cf1	-0.26413682
213	0xbf8651b7	-1.0493687
214	0xbd31aa20	-0.043375134
215	0x3ed8c480	0.42337418
216	0xbd94825b	-0.07251426
217	0x3eb5089c	0.3535813
218	0x3dec6eba	0.11544557
219	0xbdd92f3e	-0.10604714
220	0xbe033942	-0.12814811
221	0xbf0de39a	-0.5542542
222	0x3e1a5727	0.15072308
223	0xbd6d2697	-0.05789813
224	0xbe199356	-0.1499761
225	0x3e738503	0.23781209
226	0xbd3cd6e4	-0.046103373
227	0xbdb196fa	-0.086713746
228	0x3e2b4ff8	0.16729724
229	0xbe5bbeb3	-0.21459465
230	0xbb648789	-0.0034870824
231	0xbcc75a2a	-0.024334986
232	0xbfce75cc	-1.6129699
233	0x3fe1942d	1.7623345
234	0xbeca5d0a	-0.39524108
235	0xbda666f8	-0.081251085
236	0xbd904d70	-0.0704602
237	0x3c6676e9	0.014066436
238	0x3e8f38b1	0.2797294
239	0xbf82e1a9	-1.0225116
240	0xbdc05f2e	-0.09393154
241	0x3c1d063f	0.009584009
242	0xbf1957cb	-0.59899586
243	0x39394e4e	0.00017672146
244	0xbde2290c	-0.11042985
245	0xbd962272	-0.07330789
246	0x3d70e142	0.058808573
247	0xbef0db9b	-0.47042546
248	0xbe1f6a4e	-0.15567896
249	0xbcf8703f	-0.03032696
250	0xbf49d2e1	-0.788374
251	0x3cedaa14	0.029011764
252	0xbdf6e3d3	-0.12055173
253	0xbded33b8	-0.1158213
254	0xbe0061d9	-0.12537326
255	0xbe20ec23	-0.15715079

layer_1.bias f4 [512]
0	0xbd2cad31	-0.042157356
1	0xbd9d56f8	-0.076826036
2	0xbdb9c96f	-0.090716235
3	0xbc8ceed4	-0.017203726
4	0xbe08edd2	-0.13371971
5	0xbd43a0b1	-0.04776067
6	0xbb04f649	-0.00202884
7	0xbd92d9ce	-0.07170449
8	0xbdb24948	-0.087053835
9	0x3c9d3f7d	0.019195313
10	0x3cbd31ac	0.023094974
11	0x3cdf7f4d	0.027282381
12	0x3dc2eadc	0.09517452
13	0x3c43dd7c	0.011954661
14	0x3cb465c0	0.022021174
15	0xbd84ea6b	-0.06490024
16	0xbe0098c1	-0.12558271
17	0xbdfcdba3	-0.1234658
18	0xbda11221	-0.07864786
19	0xbca09bd3	-0.019605553
20	0xbd7fd8d0	-0.062462628
21	0xbc8a326a	-0.016869742
22	0xbdb24fd6	-0.08706634
23	0xbe06cc47	-0.13163863
24	0xbdcaa799	-0.09895248
25	0x3d5adcde	0.05343329
26	0xbccd0b84	-0.025029905
27	0x3c60c9f7	0.013720027
28	0x3d2d6d05	0.042340297
29	0xbdcca60b	-0.09992608
30	0xbe096ff4	-0.13421613
31	0x3d6c9a64	0.057764426
32	0x3d069689	0.032858405
33	0x3d0f4cf0	0.034985483
34	0xbde82870	-0.11335838
35	0x3dc26864	0.09492567
36	0x3e0815df	0.13289593
37	0x3dcd6b78	0.10030264
38	0x3df2fa24	0.11864117
39	0xbdcff5ed	-0.101543285
40	0xbdc2ee25	-0.09518079
41	0xbcd2aed8	-0.025718138
42	0x3dcc3f5c	0.09973022
43	0x3ddcd695	0.10783116
44	0xbd091fd7	-0.03347763
45	0xbd39aa2c	-0.045328304
46	0x3c237bc6	0.00997824
47	0xbde67ffa	-0.11254878
48	0x3cb44937	0.022007568
49	0x3d99fea3	0.07519271
50	0x3de8046b	0.11328968
51	0xbba06edd	-0.0048960284
52	0xbde30492	-0.11084856
53	0xbded17da	-0.11576815
54	0x3d2d4139	0.04229853
55	0xbd9e0ebd	-0.07717655
56	0x3dddc84f	0.108292215
57	0x3dc87120	0.09787202
58	0xbdfa4e0d	-0.12221918
59	0xbd8fc998	-0.07020873
60	0x3d97caf8	0.0741176
61	0x3c013660	0.007886499
62	0xbda7017c	-0.0815458
63	0xbde832ab	-0.11337789
64	0xbd6d27b7	-0.057899203
65	0xbc9f76b3	-0.01946578
66	0xbd84caea	-0.06484015
67	0xbcc66f4e	-0.024222996
68	0x3d20ab09	0.03922561
69	0x3d0c9cfd	0.034329403
70	0x3e059ddf	0.13048504
71	0x3e0806a7	0.13283788
72	0xbd18c2e0	-0.037295222
73	0x3d9f5fa5	0.077819146
74	0xbdf1a12b	-0.117983185
75	0x3e0961b9	0.13416184
76	0x3ab2cba9	0.0013641018
77	0xbc96ad12	-0.018393073
78	0xbd57336d	-0.052539278
79	0xbd9f6ad7	-0.0778405
80	0xbde09e93	-0.10967746
81	0xbcee5b9a	-0.029096413
82	0xbdb0cbe3	-0.08632638
83	0xbde533d1	-0.11191524
84	0xbdd04523	-0.10169437
85	0xbb180c40	-0.002320066
86	0xbde25df3	-0.11053076
87	0xbd552a89	-0.052042518
88	0x3d9b02c9	0.075688906
89	0x3dbdc99c	0.092669696
90	0x3de85e68	0.113461316
91	0xbdd9e973	-0.1064023
92	0x3dda2a0d	0.10652552
93	0x3d1b997b	0.037988167
94	0x3def6011	0.11688245
95	0xbbd5df60	-0.0065268725
96	0x3e027c16	0.12742648
97	0x3d2ed4ef	0.042683538
98	0xbd3e2127	-0.046418335
99	0x3e0becbf	0.1366453
100	0xbd0f93d3	-0.035053086
101	0x3dcff2d8	0.10153741
102	0xbcef99d6	-0.02924816
103	0xbcdbfd9a	-0.026854325
104	0x3c28d501	0.01030469
105	0xbd2bf0ad	-0.041977573
106	0xbdda10fc	-0.10647771
107	0xbccccbe0	-0.024999559
108	0xbc7569c8	-0.0149788335
109	0xbcc3134b	-0.02381291
110	0x3d91e472	0.071236506
111	0x3ac18615	0.0014764691
112	0xbd76b91d	-0.06023513
113	0x3d8058b7	0.06266921
114	0xbbf27b93	-0.007399985
115	0xbdb728aa	-0.08943303
116	0xbca3b47d	-0.019983524
117	0xbc976902	-0.018482689
118	0x3cc0fbbb	0.023557534
119	0xbcb8a871	-0.022541257
120	0xbdd2c9c9	-0.10292394
121	0x3d6c4ea7	0.057692196
122	0x3d33d7a0	0.043906808
123	0xbc8993be	-0.016794082
124	0x3cc62e5f	0.024192033
125	0xbd825a20	-0.06364846
126	0xbda7b854	-0.08189455
127	0xbdfebd15	-0.12438408
128	0x3dcc1f7b	0.09966942
129	0x3d235967	0.039880183
130	0xbdce2f32	-0.100675955
131	0xbcdded9a	-0.027090836
132	0x3c9b7f06	0.018981468
133	0xb9c10423	-0.0003681491
134	0xbc640ecd	-0.013919544
135	0x3d6cb17a	0.057786442
136	0x3e0ddd88	0.13854039
137	0x3e0c0d10	0.13676858
138	0x3dc86268	0.097843945
139	0xbd6a6e0e	-0.057233863
140	0xbdd53a64	-0.10411528
141	0x3be04d7b	0.006845174
142	0xbde6d146	-0.112703845
143	0x3d1978de	0.037468784
144	0xbd77f6c8	-0.060538083
145	0x3d9b1684	0.07572654
146	0x3ddc3641	0.107525356
147	0xbe0ca222	-0.13733724
148	0x3de85a54	0.11345354
149	0xbda3d360	-0.07999301
150	0xbe02d01a	-0.12774697
151	0x3d840156	0.06445567
152	0xbdf87058	-0.12130803
153	0xbd92abd7	-0.07161682
154	0x3b42527d	0.0029651218
155	0x3a867315	0.0010257686
156	0xbcd598ea	-0.026073892
157	0xbd1b1357	-0.03786024
158	0x3dac3580	0.08408642
159	0xbdec7fef	-0.11547839
160	0xbbaebb6b	-0.0053324006
161	0xbc782377	-0.015145174
162	0x3e018b26	0.12650737
163	0xbd76ee24	-0.060285702
164	0xbd65bede	-0.05609023
165	0x3d21e270	0.03952259
166	0x3dd15219	0.10220737
167	0xbd78b196	-0.060716234
168	0x3deb69b8	0.114947736
169	0xbe0b78ea	-0.13620344
170	0xbdb26410	-0.08710492
171	0xbdf5a7fb	-0.1199493
172	0x3ddedaf1	0.108816035
173	0x3d926982	0.0714903
174	0xbdb5ea49	-0.08882577
175	0xbd10a74c	-0.035315797
176	0xbd8594dd	-0.06522534
177	0xbe00c35c	-0.12574524
178	0x3cc21fe1	0.023696842
179	0x3dc58cda	0.09646006
180	0x3dac1eb2	0.08404292
181	0xbde6d24b	-0.11270579
182	0xbd92fb83	-0.07176878
183	0x3e03b986	0.1286374
184	0xbd7c58f9	-0.06160829
185	0xbd5b8da1	-0.053601865
186	0xbdd30aab	-0.10304769
187	0x3dfd16ce	0.12357865
188	0xbe0482ac	-0.12940472
189	0x3d93d553	0.07218423
190	0xbc907b4a	-0.017636914
191	0x3b4cbc15	0.0031240035
192	0xbdf3b656	-0.11900012
193	0xbe05366c	-0.13009042
194	0xbdced403	-0.10099032
195	0x3c2ac708	0.010423429
196	0xbcab11f0	-0.020882577
197	0xbcf40d9b	-0.029791644
198	0x3bad0ff1	0.0052814414
199	0xbd7b7622	-0.061391957
200	0xbcac4ca6	-0.021032643
201	0x3e0aeab5	0.13566096
202	0x3e009672	0.1255739
203	0x3d3da4f4	0.04629989
204	0xbd422b81	-0.04740477
205	0xbd9d4460	-0.07679057
206	0xbbca62e0	-0.0061763376
207	0xbd967d93	-0.0734817
208	0xbdd52cc0	-0.10408926
209	0x3c2f52de	0.010700909
210	0xbd936763	-0.07197454
211	0xbd4d1e38	-0.050077647
212	0xbd9d2f69	-0.076750584
213	0xbcf1edf1	-0.029532405
214	0x3df63497	0.120217495
215	0x3dec1089	0.11526591
216	0xbcfc5b84	-0.030805357
217	0xbdef54cb	-0.11686095
218	0xbdfd3af2	-0.123647586
219	0xbbea851f	-0.0071569826
220	0xbcbeaadc	-0.023274831
221	0xbd9810a6	-0.074250504
222	0x3d1a8a04	0.03772928
223	0xbda3dc06	-0.080009505
224	0xbd5cdbcb	-0.05392055
225	0x3e0b3ab0	0.13596606
226	0xbcd8c590	-0.026461393
227	0xbdbc41bf	-0.091922276
228	0x3d9f82bf	0.0778861
229	0xbdb10297	-0.08643072
230	0xbd1619c5	-0.03664567
231	0xbb86d9a8	-0.004115302
232	0xbd0c9113	-0.03431804
233	0xbd1b3dc1	-0.03790069
234	0xbdcc295b	-0.099688254
235	0xbd6f097e	-0.05835866
236	0x3ca703ca	0.020387549
237	0xbdacc7fb	-0.08436581
238	0x3e0d71bb	0.13812916
239	0xbdd7934a	-0.1052614
240	0x3df5a4f9	0.11994357
241	0xbdae131a	-0.08499737
242	0x3d8aa290	0.067692876
243	0x3d89a4c7	0.06720882
244	0x3dca2437	0.09870189
245	0x3de6217f	0.112368576
246	0xbd7d37e3	-0.061820876
247	0xbd58f414	-0.052967146
248	0xbd875dd3	-0.066096924
249	0x3dd2bf7e	0.102904305
250	0xbdd4afbd	-0.10385082
251	0xbbe69b28	-0.007037539
252	0x3dc7efa8	0.09762508
253	0x3dab2430	0.083565116
254	0xbbc6b43f	-0.0060639675
255	0x3ddda244	0.10821965

batch_norm_1.weight f4 [512]
0	0x3f83fa77	1.0310811
1	0x3f334c7d	0.70038587
2	0x3f62d506	0.886063
3	0x3f8136ae	1.0094812
4	0x3f2ab917	0.66688675
5	0x3f53f683	0.8279802
6	0x3f459247	0.77176327
7	0x3f102ec6	0.5632137
8	0x3f15d996	0.58535135
9	0x400e5e63	2.224511
10	0x3f459307	0.7717747
11	0x3f8b7aed	1.0896889
12	0x3f7e85d2	0.99422944
13	0x3f4e290e	0.80531394
14	0x3f1ef38d	0.6209038
15	0x3f5c3f1a	0.86033785
16	0x3f826ea7	1.0190018
17	0x3f510f34	0.81663823
18	0x3f1c474b	0.61046284
19	0x3f24a546	0.6431469
20	0x3f39fb8d	0.7264946
21	0x3f9031d2	1.1265204
22	0x3f807d0a	1.0038159
23	0x40096044	2.1465006
24	0x3f353531	0.7078429
25	0x3f251f19	0.64500576
26	0x3f180857	0.59387726
27	0x3f44362d	0.76645166
28	0x3f470286	0.77738225
29	0x3fb0681f	1.3781775
30	0x3f2034a4	0.62580323
31	0x3f3fc3e8	0.74908304
32	0x3f3a9401	0.72882086
33	0x3f1770a4	0.5915625
34	0x3f42d531	0.76106554
35	0x3f539084	0.8264239
36	0x3f298678	0.6622081
37	0x3f271b10	0.6527567
38	0x3f4fbc6d	0.8114689
39	0x3f877f92	1.0585806
40	0x3eeab223	0.45839033
41	0x3f2a6c79	0.66571766
42	0x3f54e861	0.8316708
43	0x3f535d1f	0.82563967
44	0x3f890edf	1.0707663
45	0x3f1d21bc	0.613796
46	0x3f537895	0.8260587
47	0x3f1f9535	0.62337047
48	0x3f33bb1a	0.7020737
49	0x3f2cc7b7	0.6749224
50	0x3f3ebcc1	0.74506766
51	0x3f3ae12b	0.7299983
52	0x3f51cebc	0.81956077
53	0x3f072c8d	0.52802354
54	0x3f2b7cbe	0.66987216
55	0x3f883e55	1.0644022
56	0x3f4fb4fc	0.81135535
57	0x3f8bd59a	1.0924561
58	0x3f970a77	1.1800069
59	0x3f01ebfb	0.507507
60	0x3fb03539	1.3766242
61	0x3f1f3425	0.6218894
62	0x3efe6f18	0.49694133
63	0x3f8bf8e2	1.0935328
64	0x3f44d8c4	0.7689326
65	0x3f750f5b	0.95726556
66	0x3f1c3277	0.61014503
67	0x3f17a9c6	0.5924343
68	0x3f4999f1	0.7875052
69	0x3f84f4b6	1.038718
70	0x3f207358	0.62676
71	0x3f75906b	0.9592349
72	0x3f31da66	0.69473875
73	0x3f1f7a1d	0.62295705
74	0x3f506132	0.8139831
75	0x3fc11e05	1.5087286
76	0x3f558a3d	0.8341406
77	0x3f48d4ed	0.784499
78	0x3f167add	0.58781224
79	0x3f4c2c9b	0.7975556
80	0x3f8c65bf	1.096855
81	0x3f79e375	0.97612697
82	0x3f7032a1	0.93827254
83	0x3f54cf62	0.8312894
84	0x3f191ea4	0.5981238
85	0x3f28c5f9	0.6592708
86	0x3f338885	0.7013019
87	0x3f2a8f19	0.666246
88	0x400582c1	2.0861056
89	0x3f3263f7	0.69683784
90	0x3f8b0103	1.0859684
91	0x3f5dc685	0.8663104
92	0x3f2a1b30	0.66447735
93	0x3f067ddf	0.52535814
94	0x3f34a3d2	0.7056247
95	0x3f1c958e	0.611657
96	0x3f6460d4	0.8921025
97	0x3ef5bb7a	0.47994596
98	0x3fc384eb	1.5274938
99	0x3f27f84c	0.65613246
100	0x3f137992	0.57607377
101	0x3f3b8ad5	0.73258716
102	0x3f8b2576	1.0870807
103	0x3f57da08	0.84317064
104	0x3f6b7fea	0.91992056
105	0x3f741d9c	0.9535768
106	0x3f40f466	0.7537292
107	0x3f572623	0.84042567
108	0x3f7a0354	0.9766133
109	0x3f5612c3	0.8362238
110	0x3f2f1576	0.6839212
111	0x3fa736eb	1.3063635
112	0x3fa2507f	1.2680815
113	0x3f4bed10	0.79658604
114	0x3f25a85c	0.6471002
115	0x3f44b532	0.7683898
116	0x3f372576	0.71541536
117	0x3f40f676	0.7537607
118	0x3f49a746	0.78770864
119	0x3f439749	0.7640272
120	0x3eef0122	0.46680552
121	0x3f1ed0a2	0.620371
122	0x3f4747ad	0.77843744
123	0x3f351a6b	0.70743436
124	0x3f26a563	0.6509611
125	0x3fc331d4	1.5249581
126	0x3f468e1e	0.77560604
127	0x3f49a5c4	0.78768563
128	0x3f14bd53	0.58101386
129	0x3f2566e9	0.64610153
130	0x3f5c4484	0.86042047
131	0x3f328785	0.69738036
132	0x3f458443	0.7715494
133	0x3f5aacb6	0.85419786
134	0x3ff48cdb	1.9105486
135	0x3f6c999a	0.9242188
136	0x3f2a249b	0.66462106
137	0x3f1b2945	0.6060985
138	0x3f6a0138	0.9140811
139	0x3f2a6b36	0.6656984
140	0x3f8e0129	1.1094104
141	0x3f370380	0.71489716
142	0x3f23a264	0.63919663
143	0x3f206e07	0.6266789
144	0x3f58e04b	0.84717244
145	0x3f592741	0.8482552
146	0x3f513dc8	0.81734896
147	0x3f2a8129	0.6660333
148	0x3f28736f	0.6580114
149	0x3f2b292d	0.66859704
150	0x3faa92c0	1.3326035
151	0x3fe2ad97	1.7709225
152	0x3f965e12	1.1747458
153	0x3f2b00ef	0.667983
154	0x3f069c89	0.52582604
155	0x3f215130	0.6301451
156	0x3f3ded50	0.74190235
157	0x3f81284c	1.0090423
158	0x3f1d97bb	0.6155965
159	0x3f9db343	1.2320331
160	0x3fbeb9ff	1.4900512
161	0x3fbfdfa4	1.4990125
162	0x3f247bcc	0.642514
163	0x3ecca10e	0.39966625
164	0x3f52a08a	0.82276213
165	0x3f10ee9c	0.5661409
166	0x3f11c669	0.56943375
167	0x3f36919f	0.7131595
168	0x3f1f9626	0.62338483
169	0x3f526aa6	0.8219398
170	0x3f156b17	0.5836653
171	0x3f1631ed	0.5866993
172	0x3fa3c450	1.2794285
173	0x3f1c32b1	0.6101485
174	0x3f2e7988	0.6815419
175	0x3f050052	0.51953614
176	0x3f59628b	0.8491599
177	0x3f1fe87d	0.62464124
178	0x3f24019a	0.64064944
179	0x3fad171d	1.3522679
180	0x3f239d33	0.6391174
181	0x3f3119d2	0.69180024
182	0x3f617c72	0.88080513
183	0x3f349bff	0.7055053
184	0x3f1d3c06	0.61419713
185	0x3f5b3751	0.8563128
186	0x3f3866f8	0.7203212
187	0x3f2367ae	0.6383008
188	0x3ff6d589	1.9283916
189	0x3f153974	0.5829079
190	0x3f471645	0.77768356
191	0x3f5c5035	0.86059886
192	0x3f2412c0	0.6409111
193	0x3f57ed7b	0.8434674
194	0x3f6e42c8	0.9307065
195	0x3f308ff9	0.68969685
196	0x3f1fd58b	0.62435216
197	0x3f3084d0	0.68952656
198	0x3f0510f1	0.51978976
199	0x3f6538f7	0.89540046
200	0x3f98a385	1.1924902
201	0x3f2b8f8f	0.6701593
202	0x3f2abcbf	0.66694254
203	0x3f3df1bb	0.74196976
204	0x3f3aecf1	0.73017794
205	0x3f3cdd47	0.7377514
206	0x3f347e74	0.7050545
207	0x3f1cb0fa	0.61207545
208	0x3fae3db6	1.3612583
209	0x3f773150	0.9655962
210	0x3f2a46b2	0.6651412
211	0x3fb2573f	1.3932875
212	0x3f617824	0.88073945
213	0x3f5ae17a	0.855003
214	0x3f73184f	0.94958967
215	0x3f2514f7	0.64485115
216	0x3f12f204	0.57400537
217	0x3f924e13	1.1430076
218	0x3f8018b3	1.0007538
219	0x3f1f23e8	0.62164164
220	0x3f331d0a	0.69966185
221	0x3f9cf0bc	1.2260966
222	0x3f2455f9	0.64193684
223	0x3f6983cb	0.91216725
224	0x3f9835f0	1.189146
225	0x3f11d16e	0.5696019
226	0x3f1475b4	0.579921
227	0x3f4c787d	0.7987135
228	0x3f6e5691	0.9310084
229	0x3f838844	1.027596
230	0x3f4093ae	0.7522534
231	0x3f8a0a0a	1.0784314
232	0x3f8701a4	1.0547376
233	0x3f87ba20	1.0603676
234	0x3f336f31	0.7009154
235	0x3f3279d7	0.6971716
236	0x3f3300a3	0.69922847
237	0x3f1368b5	0.57581645
238	0x3f2fc56c	0.68660617
239	0x3f03a90f	0.5142984
240	0x3fb2ef55	1.3979288
241	0x3f56537d	0.83721143
242	0x3fa891d8	1.3169508
243	0x3f6f772b	0.9354121
244	0x3f34ef3f	0.7067756
245	0x3f82ce43	1.0219196
246	0x3f793906	0.97352636
247	0x3f34032f	0.7031736
248	0x40115b86	2.2712111
249	0x3f31f61d	0.69516164
250	0x3f127e71	0.57224184
251	0x3f31812d	0.6933773
252	0x3f2571b2	0.6462661
253	0x3f36fb3e	0.71477115
254	0x3f3fcac3	0.74918765
255	0x3f30f5a8	0.6912484

batch_norm_1.bias f4 [512]
0	0xbf41caa4	-0.7569983
1	0xbf006913	-0.5016033
2	0xbf36dd9a	-0.7143189
3	0xbf180e5c	-0.5939691
4	0xbf08cd4b	-0.5343825
5	0xbee310ad	-0.4434866
6	0xbeb1ac63	-0.34701833
7	0xbeeb56db	-0.45964703
8	0xbf044b2b	-0.516772
9	0x3f529b26	0.8226799
10	0xbf20cd5f	-0.6281337
11	0xbf43d274	-0.76493
12	0xbf0ee82c	-0.55823016
13	0xbefd31f3	-0.4945217
14	0xbec1ddd3	-0.3786455
15	0xbf0e4cb5	-0.55585796
16	0xbcf3e165	-0.029770562
17	0xbf226b55	-0.63445026
18	0xbe7426c6	-0.23842916
19	0xbefad05a	-0.48987085
20	0xbf38d2b4	-0.7219651
21	0xbeb79995	-0.3585936
22	0xbf1674f1	-0.5877219
23	0xbe5724f1	-0.21010186
24	0xbf3ecf3f	-0.7453498
25	0xbed2994e	-0.41132587
26	0xbf11cff4	-0.56957936
27	0xbf5dbc96	-0.86615884
28	0xbf2f71ab	-0.6853282
29	0xbeb943cd	-0.3618454
30	0xbe863ff7	-0.26220676
31	0xbea19ef3	-0.3156658
32	0xbf2f98ea	-0.68592703
33	0xbf08ae34	-0.5339081
34	0xbe834869	-0.25641182
35	0xbecd300d	-0.40075722
36	0xbf486e36	-0.7829317
37	0xbf222bf6	-0.6334833
38	0xbec87e47	-0.39158842
39	0xbe8686fc	-0.2627486
40	0xbee5f6af	-0.44914767
41	0xbe67866c	-0.22609872
42	0xbf1d8691	-0.6153346
43	0xbf11ab06	-0.56901586
44	0xbf1360f1	-0.57569796
45	0xbe8f8355	-0.28029886
46	0xbf20c1c4	-0.6279566
47	0xbf2b8b1c	-0.6700914
48	0xbf231b7d	-0.6371382
49	0xbe753917	-0.2394756
50	0xbe739b80	-0.23789787
51	0xbf3830c7	-0.7194943
52	0xbf16491e	-0.5870532
53	0xbf165ddd	-0.58736974
54	0xbf091d59	-0.53560406
55	0xbe013080	-0.12616158
56	0xbecc8655	-0.39946237
57	0xbf00eff9	-0.5036617
58	0xbf00f2d2	-0.50370514
59	0xbebc5f80	-0.3679161
60	0xbf1874a3	-0.59552974
61	0xbf00c045	-0.5029338
62	0xbefcecb3	-0.49399337
63	0xbea91040	-0.3302021
64	0xbf13b1d5	-0.57693225
65	0xbf038935	-0.51381236
66	0xbf0c0797	-0.5469908
67	0xbe8f5f3d	-0.2800235
68	0xbf0546c1	-0.52061087
69	0xbf053541	-0.52034384
70	0xbef42972	-0.4768787
71	0xbf0d2f32	-0.5515014
72	0xbe914533	-0.28373107
73	0xbedbc063	-0.42920217
74	0xbe525a26	-0.20542201
75	0xbefe16d5	-0.49626794
76	0xbf2a12a2	-0.6643468
77	0xbf2ec38d	-0.68267137
78	0xbeffb018	-0.49939036
79	0xbf420f0e	-0.7580422
80	0xbe4aae88	-0.19793141
81	0xbf1532b5	-0.582805
82	0xbe9ebf9b	-0.31005558
83	0xbed90600	-0.4238739
84	0xbf17e263	-0.59329814
85	0xbedbb900	-0.4291458
86	0xbf363cd7	-0.71186584
87	0xbf289742	-0.658558
88	0xbe891d36	-0.267801
89	0xbf0d2da4	-0.5514777
90	0xbedd71c9	-0.43250874
91	0xbebc600d	-0.3679203
92	0xbe395753	-0.18099718
93	0xbe8efed1	-0.27928784
94	0xbf0cf36f	-0.5505895
95	0xbed83b22	-0.42232615
96	0xbf37faf3	-0.71867293
97	0xbe8bbc68	-0.2729218
98	0xbe99c263	-0.30031118
99	0xbf3a5f94	-0.7280209
100	0xbea3cf7f	-0.31994244
101	0xbf10b7b2	-0.56530297
102	0xbe808e12	-0.2510839
103	0xbeaf6f2f	-0.34264514
104	0xbf7533c9	-0.9578214
105	0xbe86baf2	-0.26314503
106	0xbf4ed637	-0.80795616
107	0xbf2eac72	-0.6823188
108	0xbeccba59	-0.39985922
109	0xbf1e2ca7	-0.61786884
110	0xbf050acb	-0.51969594
111	0xbeab59f7	-0.33467075
112	0xbf316b56	-0.69304407
113	0xbf0e4f9e	-0.55590236
114	0xbf28b720	-0.65904427
115	0xbec01f7e	-0.37524027
116	0xbf49f756	-0.7889303
117	0xbeaf49e2	-0.34236056
118	0xbefa71f3	-0.4891506
119	0xbf1553ba	-0.5833088
120	0xbe7748c8	-0.24148858
121	0xbedfe7e2	-0.437316
122	0xbeadd14f	-0.33948752
123	0xbf2c0757	-0.671987
124	0xbed9b6b7	-0.42522213
125	0xbe9ed81b	-0.3102425
126	0xbf1cd020	-0.61255074
127	0xbef01a4e	-0.4689507
128	0xbed122ec	-0.40846956
129	0xbe53251e	-0.20619628
130	0xbef0d388	-0.47036386
131	0xbdaba208	-0.083805144
132	0xbed94b16	-0.424401
133	0xbf351f12	-0.70750535
134	0xbf0d0ee5	-0.5510085
135	0xbf1de675	-0.61679775
136	0xbefaae6b	-0.48961195
137	0xbf135d50	-0.5756426
138	0xbf01d108	-0.5070958
139	0xbf0f808e	-0.56055534
140	0xbe5729fc	-0.2101211
141	0xbf160aa8	-0.5861001
142	0xbec6917d	-0.38782874
143	0xbf1d3a6a	-0.6141726
144	0xbf2d6b21	-0.6774159
145	0xbf07a8e6	-0.52992094
146	0xbf0678c1	-0.52528006
147	0xbef6fe89	-0.4824107
148	0xbf3ce8dc	-0.73792815
149	0xbf0cba2d	-0.5497158
150	0xbf0cec4c	-0.5504806
151	0x3e42a73c	0.19009107
152	0xbeb0c902	-0.34528357
153	0xbe86faa0	-0.26363087
154	0xbe8d9884	-0.27655423
155	0xbf1c20c1	-0.6098748
156	0xbe356c1e	-0.17717025
157	0xbf35d321	-0.7102528
158	0xbf1aac8d	-0.6041954
159	0xbeeb23bb	-0.45925698
160	0xbdaedfea	-0.08538802
161	0xbe3cb02f	-0.18426584
162	0xbf03fd19	-0.5155807
163	0xbe1d2a48	-0.1534816
164	0xbf186a2b	-0.59537
165	0xbe130f38	-0.14361274
166	0xbede7498	-0.4344833
167	0xbf2e5f65	-0.6811431
168	0xbf45ff19	-0.77342373
169	0xbf605f0d	-0.87645036
170	0xbf182d0e	-0.5944375
171	0xbf0e72fb	-0.55644196
172	0xbf644841	-0.8917275
173	0xbf29fd0a	-0.6640173
174	0xbf33917e	-0.7014388
175	0xbe655d73	-0.2239893
176	0xbf16c5d6	-0.58895624
177	0xbed22378	-0.41042686
178	0xbf1a0de2	-0.60177433
179	0xbe9df0d3	-0.30847797
180	0xbf0c7662	-0.5486814
181	0xbed12fc5	-0.40856758
182	0xbee76e4d	-0.4520134
183	0xbece02c5	-0.40236488
184	0xbf0795c9	-0.5296293
185	0xbe895551	-0.26822904
186	0xbecb00d7	-0.39649078
187	0xbf432db6	-0.76241624
188	0x3d0db7b6	0.03459903
189	0xbf0ff3a3	-0.56231135
190	0xbedc2700	-0.42998505
191	0xbef70ffc	-0.48254383
192	0xbf4c89d2	-0.798978
193	0xbf1202b1	-0.57035357
194	0xbf1eba2b	-0.6200282
195	0xbe96577c	-0.2936362
196	0xbee82d03	-0.4534684
197	0xbf1beaea	-0.60905325
198	0xbec77475	-0.38956037
199	0xbf0ffb1e	-0.5624255
200	0xbf0e586f	-0.5560369
201	0xbd39ff45	-0.04540946
202	0xbf387de4	-0.72067094
203	0xbf41fafe	-0.7577361
204	0xbe23afec	-0.15985078
205	0xbf093b08	-0.536057
206	0xbf2abdaf	-0.66695684
207	0xbf24fab9	-0.6444507
208	0xbeec088c	-0.4610027
209	0xbeef24ce	-0.46707767
210	0xbf122adf	-0.57096666
211	0xbeb536d4	-0.35393393
212	0xbef601ab	-0.48048148
213	0xbf41cd85	-0.7570422
214	0xbf2029df	-0.6256389
215	0xbf3062f3	-0.68900985
216	0xbed7ed1a	-0.42173082
217	0xbf1c1511	-0.60969645
218	0xbf1e2f33	-0.6179077
219	0xbeb28c5c	-0.3487271
220	0xbf0091a9	-0.5022226
221	0xbf39d363	-0.72588176
222	0xbf33c518	-0.70222616
223	0xbf4b52b7	-0.7942309
224	0x3deda887	0.1160441
225	0xbf127456	-0.57208765
226	0xbf1fac43	-0.62372226
227	0xbf16642e	-0.5874661
228	0xbf174490	-0.59088993
229	0xbedb574c	-0.4284004
230	0xbea089be	-0.3135509
231	0xbf2f34a9	-0.6843973
232	0xbf6f040a	-0.9336554
233	0xbec2b98e	-0.38032192
234	0xbf027456	-0.50958765
235	0xbf199500	-0.5999298
236	0xbef67885	-0.48138824
237	0xbedf4613	-0.4360815
238	0xbee7711a	-0.45203477
239	0xbed33fcf	-0.4125962
240	0xbeb02a4b	-0.34407267
241	0xbec29a3e	-0.38008302
242	0xbf0223f3	-0.50836104
243	0xbf32b426	-0.69806135
244	0xbf12d5c1	-0.5735741
245	0xbf44ba36	-0.76846635
246	0xbf3bf5e6	-0.73422086
247	0xbf22d71c	-0.6360948
248	0xbd0db795	-0.034598906
249	0xbea0a0fb	-0.31372818
250	0xbf216cfa	-0.6305691
251	0xbeb9b8cf	-0.3627381
252	0xbf28a3ee	-0.65875137
253	0xbebdfc04	-0.37106335
254	0xbf22e97a	-0.63637507
255	0xbf51efbf	-0.8200645

batch_norm_1.running_mean f4 [512]
0	0xc1205e45	-10.023015
1	0x412e54ab	10.895671
2	0xc18d6707	-17.675306
3	0x41c9eee4	25.241646
4	0xbe174cf3	-0.14775448
5	0x418e8dbd	17.819208
6	0x413c2218	11.758324
7	0x41c338f2	24.402805
8	0xc1a2bbd1	-20.341707
9	0xbfeba9ed	-1.8411232
10	0x406cd536	3.7005134
11	0x417e940e	15.911146
12	0x416d9982	14.8499775
13	0x40c6a27a	6.2073336
14	0xc055c28c	-3.3399992
15	0xc18487e0	-16.566345
16	0xbf8e3fa6	-1.1113174
17	0xc05637c2	-3.3471532
18	0x409d4c8b	4.9155936
19	0x413e6647	11.89997
20	0x40ac286c	5.3799343
21	0xc1ac7c29	-21.560625
22	0xbe45b67b	-0.19307892
23	0x40a09db7	5.0192523
24	0x4127213c	10.445614
25	0xc05ee5ff	-3.4827878
26	0x4144cfe9	12.300759
27	0xbf8d5c87	-1.1043862
28	0x40f9f3dc	7.811018
29	0x40bb96b8	5.8621483
30	0x41383d5f	11.514983
31	0x41b9ac65	23.209177
32	0x40b50946	5.657382
33	0xbf41f8e8	-0.75770426
34	0xc1f10684	-30.128181
35	0xc1783579	-15.513055
36	0xc163c7fa	-14.236322
37	0xc182e8b4	-16.363625
38	0xc0b6abdc	-5.708479
39	0x417851d3	15.519977
40	0xc07d3620	-3.9564285
41	0x40094518	2.1448421
42	0x4043cae6	3.059259
43	0x4181ffbc	16.24987
44	0xc1b324b9	-22.392931
45	0x41a48abf	20.567747
46	0xc0eec033	-7.460962
47	0x41a9d59a	21.229298
48	0x412be958	10.744469
49	0x41d60a95	26.755167
50	0xc0366520	-2.8499222
51	0xc1611721	-14.068147
52	0x415313da	13.192347
53	0xc1ebf9b4	-29.496925
54	0x40843fbe	4.132781
55	0xc02e75c4	-2.7259378
56	0x41eca7bd	29.581903
57	0x40b1ab3a	5.5521517
58	0x40fface1	7.9898534
59	0xc15a10e6	-13.629126
60	0x4046e12e	3.1074939
61	0xc18abfc2	-17.343632
62	0x411cca93	9.799457
63	0x415e512d	13.894818
64	0xc1382191	-11.508195
65	0x3e54cfbf	0.20782374
66	0x4183b6fe	16.464352
67	0xc0197cbb	-2.398238
68	0xc1ed5b5c	-29.66961
69	0xc084ef8a	-4.1542406
70	0x40683a7b	3.6285694
71	0xc1fc56db	-31.54241
72	0x412cbcfe	10.796141
73	0x40f8279e	7.754836
74	0xc2091bd1	-34.277164
75	0xc0278cbc	-2.6179647
76	0x40b41dfe	5.628661
77	0x400b68d7	2.178274
78	0xc1920e66	-18.25703
79	0xc1d94f8c	-27.163841
80	0x4142d4bc	12.176937
81	0x41284c6c	10.518658
82	0x41454f44	12.331852
83	0xc0b4aa9b	-5.645826
84	0xc1e78c03	-28.943365
85	0x41511af4	13.06908
86	0xc1af0316	-21.876507
87	0x3dbc28c1	0.09187461
88	0x40a54488	5.1646156
89	0xc1489486	-12.536261
90	0x41032819	8.197289
91	0x3f2265c8	0.63436556
92	0x41fa7426	31.306713
93	0x40f43ce6	7.632434
94	0x413c63ff	11.774413
95	0x40a4c063	5.1484847
96	0xc196eee5	-18.866648
97	0x41281791	10.5057535
98	0x4138d448	11.5518265
99	0x4051e26b	3.2794445
100	0x41cde5de	25.73724
101	0xc0a19aeb	-5.050161
102	0xc1b520be	-22.640987
103	0x415083fa	13.032221
104	0xc13a887f	-11.658324
105	0x41b2978a	22.323994
106	0xc1bb1358	-23.384445
107	0x41111c56	9.069418
108	0x4153037d	13.188352
109	0x419ea532	19.830662
110	0x404e91d7	3.2276514
111	0xc0e7b17c	-7.2404156
112	0x4199aa0f	19.208036
113	0x41aabb13	21.341345
114	0x41b03794	22.027138
115	0xc0b8c68b	-5.774236
116	0xc18122dc	-16.142021
117	0x415b6318	13.711693
118	0x40dd4766	6.9149656
119	0xc1118f3d	-9.09747
120	0xc11b4729	-9.704873
121	0x4115172c	9.318157
122	0xc1b21dab	-22.264486
123	0x41a3721e	20.430721
124	0xbfa4eadb	-1.2884172
125	0x3f69e070	0.9135809
126	0xc0b21a08	-5.5656776
127	0x4147346e	12.4503
128	0x414e4a79	12.893182
129	0x41005fd2	8.023394
130	0x40e87d7e	7.265319
131	0x410329d1	8.197709
132	0x4188c6e5	17.097116
133	0xc0d3f326	-6.623431
134	0xc0c6445d	-6.195845
135	0xc130b65e	-11.044523
136	0xc095fb66	-4.6869383
137	0x4159e55f	13.618499
138	0x4092b185	4.58417
139	0x41c9bc30	25.216888
140	0xc18cac05	-17.583994
141	0x419d9220	19.69635
142	0x41701957	15.0061865
143	0x40c39a76	6.112605
144	0xc0af5a55	-5.479777
145	0x3faeca3b	1.3655466
146	0xc19336ac	-18.401695
147	0x3f721932	0.94569695
148	0xc0bde849	-5.934605
149	0x403502a6	2.8282866
150	0x407f0b6e	3.9850726
151	0x4135ffec	11.374981
152	0xc1f087e9	-30.066362
153	0x415e6b6e	13.901228
154	0xbfdab553	-1.7086586
155	0xc19fc584	-19.971443
156	0x40db7db2	6.8590937
157	0xc1f2e1df	-30.360289
158	0x41821f61	16.265322
159	0x419c935a	19.571949
160	0x41c2f340	24.368774
161	0x41453304	12.324955
162	0xc0d44e5f	-6.634567
163	0x41608c97	14.034324
164	0xc1541ff7	-13.257804
165	0x41c56482	24.674076
166	0x41a5661d	20.67486
167	0xc18d26b2	-17.643894
168	0xc123cf6d	-10.238141
169	0xc206cf4d	-33.702442
170	0xc0250c41	-2.578873
171	0x416cd2f0	14.801498
172	0xc1921353	-18.259436
173	0xc1a7a396	-20.954876
174	0xc1117b47	-9.092597
175	0x41961b15	18.763224
176	0xc0da58f5	-6.823359
177	0xc1a87cf5	-21.061014
178	0x3ea1e898	0.31622767
179	0x413a5220	11.64505
180	0x3f82fadf	1.023281
181	0xc0ee0d7e	-7.439147
182	0x41152a3e	9.322813
183	0xc0970bdc	-4.7201977
184	0x404df08c	3.2178068
185	0xbfbaf636	-1.4606388
186	0x41992cee	19.146938
187	0xc14d98f2	-12.84984
188	0x401b913c	2.4307394
189	0x3fb3cef1	1.4047529
190	0x41600ec4	14.003605
191	0xc1b41c42	-22.513798
192	0x400a60fe	2.16217
193	0x413827bc	11.509701
194	0xc1a74c2e	-20.912197
195	0xc1566271	-13.399034
196	0x4162c059	14.17196
197	0xbfce2439	-1.6104804
198	0xc1b1d4bc	-22.228874
199	0x3fc89e97	1.5673398
200	0xc119a591	-9.6029215
201	0x41501621	13.005403
202	0xc18046f4	-16.034645
203	0xc1b6db3c	-22.857048
204	0x415751de	13.457487
205	0x41a0d67c	20.104729
206	0xc18db113	-17.711462
207	0x40c4816b	6.140798
208	0x4192fbf9	18.373034
209	0xc19704d6	-18.877361
210	0x40ae0304	5.437868
211	0x40f5a7ac	7.6767178
212	0xc15129db	-13.072719
213	0xc1a09a8c	-20.075462
214	0xc1de68b0	-27.801117
215	0xc1ab1e38	-21.389755
216	0x41a0eef2	20.116673
217	0x405998e6	3.3999572
218	0xc0d9bb7e	-6.804137
219	0xc0fadaea	-7.839223
220	0xc069d40f	-3.653568
221	0xc0e8a880	-7.270569
222	0xc066eb5c	-3.6081152
223	0xc1a8a8a1	-21.082338
224	0x41b73747	22.90199
225	0xc1312591	-11.0716715
226	0x4126a08c	10.414196
227	0x40a0775b	5.0145698
228	0xc1a1dfe7	-20.234327
229	0xbf0c6968	-0.5484834
230	0xc18f87a5	-17.941233
231	0x40ce1370	6.4398727
232	0xc1399092	-11.5977955
233	0x41025563	8.145846
234	0x4110a8eb	9.04124
235	0xc16c2764	-14.759617
236	0x419d2e00	19.64746
237	0xc15594ff	-13.348876
238	0xc1b422ef	-22.517057
239	0xc0b38b5e	-5.6107626
240	0xc20aefbe	-34.734123
241	0x41c33ae3	24.403753
242	0x40d22f16	6.568248
243	0xc20104a8	-32.254547
244	0x41398cca	11.596872
245	0xc04ae1d4	-3.1700335
246	0xc0c99b3a	-6.3001986
247	0x3f53756d	0.8260105
248	0x3fe458a4	1.7839551
249	0x3ebc18af	0.36737582
250	0xc1e35394	-28.41581
251	0xc0ab7259	-5.3577085
252	0xc11a377d	-9.638547
253	0x4111295b	9.072597
254	0x419bf7ee	19.49606
255	0x3e2cbb57	0.1686834

batch_norm_1.running_var f4 [512]
0	0x43e1a6ab	451.3021
1	0x43f7dbd9	495.71756
2	0x43973e27	302.48557
3	0x435983b3	217.51445
4	0x4395a894	299.31702
5	0x4387e55c	271.79187
6	0x43735af5	243.3553
7	0x43f85b3a	496.7127
8	0x4377f5e3	247.9605
9	0x42160d8e	37.513237
10	0x441a665b	617.5993
11	0x4314e6dc	148.9018
12	0x4381772b	258.931
13	0x43f4695b	488.8231
14	0x438880eb	273.00717
15	0x434b92c5	203.57332
16	0x43a1ccdf	323.60056
17	0x4397fe40	303.98633
18	0x4370fbd4	240.9837
19	0x43c24194	388.51233
20	0x43c02171	384.26126
21	0x4357982e	215.59445
22	0x43575062	215.314
23	0x42e9209a	116.563675
24	0x440bbcc2	558.94934
25	0x435ba787	219.6544
26	0x43a7b951	335.44778
27	0x440d9094	566.25903
28	0x43a53d2f	330.478
29	0x43a62476	332.28485
30	0x4382f0c8	261.8811
31	0x43bbeb8f	375.8403
32	0x4381d94b	259.6976
33	0x44081c31	544.4405
34	0x439a0d21	308.10257
35	0x436af037	234.93834
36	0x444369f0	781.6553
37	0x4396e432	301.78278
38	0x431bf4ea	155.9567
39	0x434a447c	202.26752
40	0x43d0e5d0	417.7954
41	0x43ce601a	412.7508
42	0x43b88122	369.00885
43	0x43b926d8	370.30347
44	0x43c0519c	384.63757
45	0x436f99e2	239.6011
46	0x43102df3	144.17949
47	0x434dd6af	205.83861
48	0x4334168d	180.08809
49	0x43866a4a	268.83038
50	0x43a8b236	337.39227
51	0x43ac6c39	344.8455
52	0x43399db9	185.6161
53	0x43892106	274.258
54	0x443bfab7	751.9174
55	0x435ee534	222.89532
56	0x43ab4dba	342.60724
57	0x43fc6084	504.75403
58	0x4307a2b0	135.6355
59	0x438a26de	276.30365
60	0x4389e09d	275.7548
61	0x43aa1324	340.14954
62	0x442112c8	644.29346
63	0x43d8d54b	433.66635
64	0x439b73f3	310.90585
65	0x43cfb5f0	415.4214
66	0x43b3fae5	359.9601
67	0x43adf14d	347.88516
68	0x4330cf70	176.8103
69	0x42f5558c	122.66708
70	0x43b1e21f	355.76657
71	0x43afa61e	351.2978
72	0x43813fdb	258.49887
73	0x428c1429	70.039375
74	0x435fa14c	223.63007
75	0x41f0f3dc	30.119072
76	0x432ff024	175.93805
77	0x438f38df	286.4443
78	0x436aef76	234.9354
79	0x433611e7	182.06993
80	0x43449133	196.56718
81	0x430762ce	135.38596
82	0x4364186c	228.0954
83	0x43b73cd4	366.47522
84	0x4394ae55	297.36197
85	0x441d9d0a	630.45374
86	0x439a648a	308.78546
87	0x4348375d	200.21626
88	0x42dc85b1	110.261116
89	0x435d7374	221.45099
90	0x43b80663	368.0499
91	0x4329dffd	169.87495
92	0x43c5c06f	395.5034
93	0x43831754	262.18225
94	0x438b54e6	278.66327
95	0x4389ed7d	275.85538
96	0x43a7eb64	335.839
97	0x43bbce30	375.61084
98	0x42c4bf86	98.37407
99	0x43f184ed	483.03848
100	0x4381ae00	259.35938
101	0x43025049	130.31361
102	0x4354eee5	212.93318
103	0x437a1e8c	250.11932
104	0x4309263d	137.14937
105	0x432f66cc	175.40155
106	0x43b7dbc1	367.71683
107	0x43ccd2b0	409.646
108	0x43185209	152.32045
109	0x43abdc72	343.72223
110	0x43ff1e59	510.2371
111	0x432a83d4	170.51495
112	0x4323d21a	163.82071
113	0x43f37d46	486.9787
114	0x4368e13e	232.87985
115	0x434701ed	199.00752
116	0x43cf23bc	414.27917
117	0x439429f7	296.32785
118	0x43a74838	334.5642
119	0x43c98209	403.0159
120	0x43d4e288	425.76978
121	0x43ae100b	348.12534
122	0x43b856ab	368.6771
123	0x43889d80	273.23047
124	0x436a3fd0	234.24927
125	0x433f151d	191.08247
126	0x43b27dd8	356.98315
127	0x43893550	274.4165
128	0x4420e0d0	643.5127
129	0x43f95446	498.6584
130	0x43479b80	199.60742
131	0x430b28ee	139.15988
132	0x439d118e	314.13715
133	0x430d36d0	141.21411
134	0x4279f43e	62.488518
135	0x44320aaf	712.16693
136	0x4395ddfa	299.7342
137	0x4413f7d9	591.8726
138	0x43226c4e	162.42307
139	0x44068c06	538.18787
140	0x438d509e	282.62982
141	0x42eb9281	117.78614
142	0x438d98e0	283.19434
143	0x43d98e19	435.11014
144	0x43661901	230.09767
145	0x42f4bb0b	122.36532
146	0x4396f64e	301.92426
147	0x43e35893	454.692
148	0x440633ca	536.8092
149	0x43a9750e	338.9145
150	0x433434e2	180.20657
151	0x4544cf4c	3148.956
152	0x434231a0	194.19385
153	0x43d0e861	417.81546
154	0x43b73b8f	366.4653
155	0x43c68cf1	397.1011
156	0x438ad187	277.63693
157	0x43453be3	197.23393
158	0x44312cde	708.70105
159	0x430764ff	135.39452
160	0x43509e3a	208.61807
161	0x42a4d81f	82.42211
162	0x43901f66	288.2453
163	0x43e9244e	466.28363
164	0x4375530c	245.3244
165	0x43d7372e	430.4311
166	0x4382ed0b	261.8519
167	0x44437a91	781.9151
168	0x43d1e9aa	419.8255
169	0x438ae086	277.7541
170	0x43b2d3d6	357.65497
171	0x442013f0	640.3115
172	0x431fb6e7	159.71446
173	0x43522480	210.14258
174	0x43989574	305.1676
175	0x43b466e7	360.80392
176	0x42f5aeb1	122.841194
177	0x43ed391a	474.4461
178	0x4403a088	526.5083
179	0x430e0565	142.02107
180	0x43c462ef	392.77292
181	0x4297a2f7	75.81829
182	0x43299faa	169.62369
183	0x43891db7	274.23215
184	0x43c6e0b0	397.75537
185	0x43ae51ea	348.63995
186	0x43abb027	343.3762
187	0x44057dbb	533.96454
188	0x44143531	592.8311
189	0x44015236	517.28455
190	0x44069b4a	538.4264
191	0x435ff0a7	223.94005
192	0x4410aa9f	578.66595
193	0x4383b2af	263.39597
194	0x43d21fdf	420.249
195	0x4368c0e1	232.75343
196	0x43a2ff56	325.9948
197	0x43e0415b	448.5106
198	0x438a5551	276.66653
199	0x4347e72b	199.903
200	0x432c91b8	172.56921
201	0x4374a334	244.63751
202	0x43a1fe52	323.98688
203	0x438458b5	264.69302
204	0x436afa77	234.97838
205	0x43be7c3e	380.97064
206	0x432d6922	173.41068
207	0x4427616c	669.5222
208	0x433ca9c9	188.66322
209	0x42e4e43f	114.44579
210	0x443e4761	761.1153
211	0x4349c53a	201.77042
212	0x439432f2	296.398
213	0x43833090	262.3794
214	0x438fb8b3	287.44296
215	0x440bf202	559.7814
216	0x43f746d0	494.55322
217	0x431aa9a4	154.66266
218	0x431248c2	146.28421
219	0x437bedd6	251.92905
220	0x43ef17a2	478.18463
221	0x43a9acf4	339.3512
222	0x438728ab	270.31772
223	0x43cdee39	411.8611
224	0x4334c0a3	180.75249
225	0x438e7139	284.88455
226	0x43bdedba	379.85724
227	0x439d8a83	315.08212
228	0x432925b0	169.14722
229	0x43915458	290.65894
230	0x43855c67	266.7219
231	0x430c5cb5	140.36214
232	0x4383a373	263.27695
233	0x43254ba5	165.29549
234	0x432950be	169.3154
235	0x4335688b	181.40837
236	0x43d486e1	425.05374
237	0x43da1892	436.19196
238	0x43b846c0	368.55273
239	0x43e07eb3	448.98984
240	0x43976748	302.8069
241	0x43da724a	436.89288
242	0x431b4ccc	155.29999
243	0x4386bdab	269.48178
244	0x43d9b056	435.37762
245	0x43106c98	144.4242
246	0x4413365a	588.84924
247	0x4354021c	212.00824
248	0x42807506	64.22856
249	0x42ec2d85	118.088905
250	0x438b8bcc	279.09216
251	0x43c82111	400.25833
252	0x440ac698	555.103
253	0x4384863c	265.0487
254	0x43014593	129.27177
255	0x43a7e034	335.7516

layer_2.weight f4 [64, 512]
0	0x3d7d3185	0.061814804
1	0xbe11ae60	-0.14226675
2	0xbd652ba5	-0.055949826
3	0x3e01593e	0.126317
4	0x3dd84f72	0.10562028
5	0x3da48071	0.08032311
6	0x3e8614e5	0.26187816
7	0xbe9a7935	-0.301706
8	0xbe33bfab	-0.17553584
9	0xbf9ff015	-1.2495142
10	0xbe848d29	-0.25888947
11	0x3ea9b027	0.33142206
12	0x3e607535	0.21919711
13	0xbde4f8c6	-0.11180262
14	0xbdc374d8	-0.095437706
15	0x3df80e80	0.12112141
16	0xbc99e1d0	-0.018784434
17	0xbd8fbb58	-0.07018155
18	0xbd6b87f4	-0.057502702
19	0xba299202	-0.0006468595
20	0x3d29068a	0.041266
21	0x3e902c9e	0.2815904
22	0xbdc9579d	-0.09831164
23	0xbed7cbef	-0.42147776
24	0xbe878189	-0.26466015
25	0x3e71fc54	0.23631412
26	0x3d5a7f13	0.053343844
27	0x3e3446a4	0.17605072
28	0x3dde74d3	0.10862126
29	0x3eb0dc02	0.34542853
30	0x3dffe985	0.12495712
31	0x3d6d0039	0.05786154
32	0xbef30fc2	-0.4747296
33	0x3df25fa2	0.11834647
34	0x3d5fc5d2	0.054632016
35	0x3e687d72	0.22704104
36	0xbe310bcb	-0.17289655
37	0x3dde565a	0.10856314
38	0xbbda6f1c	-0.0066660773
39	0x3ea56e60	0.32310772
40	0xbec83d17	-0.39109108
41	0x3d6ebd90	0.05828625
42	0xbf465940	-0.77479935
43	0x3e7eeda7	0.24895345
44	0xbe299afc	-0.16563028
45	0x3db6067f	0.08887958
46	0x3ef62ebc	0.4808253
47	0xbee9ca52	-0.4566217
48	0x3ec959f9	0.39326456
49	0x3d19edcf	0.037580308
50	0xbe797e2a	-0.24364534
51	0xbe9df0c0	-0.3084774
52	0xbe2db912	-0.1696513
53	0x3d96a26f	0.073552005
54	0x3c56fc2a	0.013121644
55	0xbeb1e9b5	-0.34748617
56	0x3e692cbb	0.2277097
57	0x3dc884fa	0.09790988
58	0x3ea34ee8	0.31896138
59	0x3e506896	0.20352396
60	0x3eb857c3	0.36004457
61	0xbbd9b596	-0.006643961
62	0xbe128d50	-0.14311719
63	0x3e4dba4a	0.20090595
64	0x3eac4111	0.33643392
65	0x3e03c5bf	0.12868403
66	0xbd8c8fc9	-0.06863362
67	0xbe3c6ea5	-0.18401583
68	0xbd23edb6	-0.04002162
69	0x3ed7177f	0.42010114
70	0x3daae766	0.08344917
71	0x3cc3592e	0.023846235
72	0x3c422061	0.01184854
73	0x3e5a483e	0.2131662
74	0xbe2c9a4c	-0.16855735
75	0xbdc2bd96	-0.09508817
76	0xbe5dea78	-0.21671474
77	0xbbd747cd	-0.0065698386
78	0x3d7cc07e	0.061707012
79	0x3e56ec50	0.20988584
80	0xbe8617cf	-0.2619004
81	0x3e3bca66	0.18338928
82	0x3e97d9ba	0.296583
83	0xbcd91b9e	-0.026502427
84	0xbe1a8ea0	-0.1509347
85	0x3e660ee6	0.22466621
86	0xbeefbc48	-0.46823335
87	0xbd5a2880	-0.05326128
88	0xbeb96263	-0.36207876
89	0x3db9b00a	0.0906678
90	0x3f2d5c55	0.6771901
91	0xbe9f9c30	-0.3117385
92	0xbe32f9df	-0.17478131
93	0xbdf0588f	-0.11735641
94	0xbdc5f78a	-0.09666355
95	0x3e4945f6	0.19655594
96	0x3edd6bf1	0.43246415
97	0xbe428344	-0.18995386
98	0x3f133090	0.57495975
99	0x3ec473cd	0.383696
100	0x3e1de727	0.15420209
101	0x3e0fa436	0.14027485
102	0x3e4a0841	0.19729711
103	0x3e6cee7e	0.23137853
104	0x3ea3b180	0.3197136
105	0xbba4380b	-0.0050115637
106	0x3d8f2744	0.06989911
107	0xbc8b86e4	-0.017032094
108	0xbe23a732	-0.15981749
109	0xbd78ca09	-0.06073955
110	0x3d4fb57a	0.05071018
111	0xbe7bc371	-0.24586274
112	0xbeb93d97	-0.36179802
113	0xbd4d2159	-0.05008063
114	0xbe726c12	-0.23674038
115	0xbdc60881	-0.09669591
116	0xbdbde73e	-0.092726216
117	0x3e13a99e	0.14420173
118	0x3e85afdb	0.2611073
119	0x3eb645ed	0.35600224
120	0x3c8a325f	0.016869722
121	0x3d8be732	0.068312064
122	0x3de616f9	0.112348504
123	0x3f133467	0.57501835
124	0xbe0a1bec	-0.13487214
125	0xbd84dd1d	-0.064874865
126	0xbe24876c	-0.16067284
127	0xbc180bfa	-0.009280199
128	0x3dd643a5	0.10462121
129	0xbde0acf6	-0.1097049
130	0x3e1a269f	0.15053795
131	0x3e37017c	0.1787166
132	0x3e0a8ecb	0.13531034
133	0x3e99023e	0.29884523
134	0x3cf2acc6	0.0296234
135	0xbd577d38	-0.052609652
136	0x3ca9621c	0.020676665
137	0x3ea80502	0.3281632
138	0xbcfbe35d	-0.030748064
139	0x3d4694cb	0.048481744
140	0x3c76cb66	0.015063142
141	0x3de18a73	0.11012735
142	0x3be29af7	0.006915446
143	0x3dc1cf83	0.09463408
144	0xbe63fefa	-0.22265235
145	0xbd22795d	-0.039666522
146	0x3ee6d749	0.45086125
147	0xbda74706	-0.081678435
148	0xbeab60a0	-0.33472157
149	0x3eb3a112	0.35083824
150	0x3f194236	0.59866655
151	0x3ec8344a	0.39102393
152	0xbde49c7b	-0.11162659
153	0xbcca00fc	-0.024658673
154	0xbe83f8f4	-0.25775874
155	0xbe3244b0	-0.17409015
156	0xbd52d796	-0.05147513
157	0x3ea8d919	0.32978132
158	0xbea32404	-0.31863415
159	0xbe86c8bf	-0.26325032
160	0x3e398414	0.1811679
161	0x3dd0047d	0.10157106
162	0xbe3edc04	-0.18638617
163	0x3e4129d4	0.18863612
164	0x3dd4e829	0.103958435
165	0x3e1b7d8c	0.15184611
166	0xbdd9b40b	-0.106300436
167	0x3e87e140	0.2653904
168	0x3ed44b5c	0.41463745
169	0x3dd7fd7a	0.10546394
170	0x3e048493	0.12941198
171	0xbdafc354	-0.08582178
172	0x3e65de66	0.2244812
173	0x3d6ac0b1	0.05731267
174	0x3e0daf9c	0.13836521
175	0xbd33576f	-0.043784555
176	0xbdb33d01	-0.0875187
177	0xbd788d2d	-0.06068151
178	0xbed3b9f3	-0.41352805
179	0x3eba2c00	0.36361694
180	0xbc45e5ca	-0.012078712
181	0x3e05e565	0.13075788
182	0x3df5ed82	0.12008192
183	0x3d8443f5	0.06458274
184	0x3e069f80	0.13146782
185	0xbea3c111	-0.31983235
186	0xbe53773d	-0.20650955
187	0xbde626a7	-0.11237841
188	0xbe891701	-0.26775363
189	0x3e157852	0.1459668
190	0x3e2bd19d	0.1677918
191	0xbe9256e3	-0.28581914
192	0xbd2a6fb2	-0.041610427
193	0x3e0fa1e9	0.14026608
194	0x3df0287f	0.11726474
195	0x3e8c47a2	0.27398401
196	0x3e4e9cc0	0.20176983
197	0xbeb9d2e3	-0.36293706
198	0xbd2fe6d5	-0.042944748
199	0x3cfa6c76	0.030569296
200	0x3d6ee21a	0.058321096
201	0xbdabbac5	-0.08385233
202	0x3e1518bb	0.14560215
203	0x3e322ccb	0.173999
204	0x3e08c056	0.1335462
205	0xbec0d9a5	-0.3766605
206	0x3e862e1d	0.26207057
207	0x3e5519a8	0.20810568
208	0xbeb21ffe	-0.34790033
209	0x3db2b1f6	0.087253496
210	0xbe081be1	-0.13291885
211	0xbe19b601	-0.15010835
212	0x3dc57a41	0.09642459
213	0x3ed2fbba	0.41207677
214	0x3b91ee0c	0.004453426
215	0xbe8c843e	-0.27444643
216	0xbd8d8518	-0.06910151
217	0x3e906e5a	0.28209192
218	0x3f150530	0.5821104
219	0x3e98d984	0.2985345
220	0x3caef7c8	0.021358386
221	0xbcc4e894	-0.024036683
222	0xbeac3d62	-0.3364058
223	0x3e09fd3c	0.13475507
224	0x3dccc1b4	0.099978834
225	0xbe179646	-0.14803419
226	0xbdf626dd	-0.12019131
227	0x3e4822ca	0.19544521
228	0x3e5b03d2	0.21388176
229	0x3e00f397	0.12592922
230	0xbea99e40	-0.33128548
231	0xbec9ebb5	-0.39437643
232	0x3e2d0385	0.16895874
233	0x3de0e752	0.10981621
234	0xbd80de65	-0.062924184
235	0x3e66f7d2	0.22555473
236	0xbe932a9e	-0.28743452
237	0x3d016005	0.031585712
238	0x3cfe39f0	0.031033486
239	0xbe382b6e	-0.17985317
240	0xbe85ed2e	-0.26157516
241	0x3e393e53	0.18090181
242	0x3e1bd5fb	0.15218346
243	0xbd2dd316	-0.042437635
244	0xbeef9e65	-0.46800533
245	0x3e0462ea	0.12928358
246	0xbe1be926	-0.15225658
247	0xbef74801	-0.48297122
248	0xbf307fa7	-0.6894478
249	0x3eb8dd00	0.3610611
250	0xbc80cdcd	-0.015723133
251	0xbe135de3	-0.14391284
252	0x3e1064e8	0.14100993
253	0xbd2fface	-0.042963795
254	0xbc8aab60	-0.016927421
255	0x3f14e304	0.581589

layer_2.bias f4 [64]
0	0xbd16ee12	-0.036848135
1	0xbd2b06f5	-0.04175468
2	0xbc8976a3	-0.016780203
3	0x3c892c87	0.016744865
4	0xbd08c825	-0.033393998
5	0xbc61f08c	-0.013790261
6	0x3c6d2b94	0.014475722
7	0x3b7f9184	0.0038996646
8	0x3d1d8d55	0.038464863
9	0xbd07264a	-0.0329955
10	0x3d1e3093	0.038620543
11	0x3cc0e983	0.023548847
12	0x3c927c3b	0.017881503
13	0xbcfd81fe	-0.030945774
14	0x3cc79f71	0.02436802
15	0xbccb0b86	-0.024785768
16	0xbce37958	-0.027767822
17	0x3c99cff9	0.018775927
18	0x3c0f123a	0.008732373
19	0x3ab288f4	0.0013621137
20	0xbc48ea83	-0.012262943
21	0xbc08e3ff	-0.00835514
22	0xbd1bf618	-0.03807649
23	0xbd1d5775	-0.038413484
24	0xbc93330a	-0.017968673
25	0x3cdf5e62	0.027266685
26	0xbd10a75f	-0.035315868
27	0x3d0d0b8a	0.034434833
28	0xbc9abb18	-0.018888041
29	0xbd0bc404	-0.034122482
30	0x3c3303a0	0.010926157
31	0xbcc07574	-0.023493506
32	0xbcb27b88	-0.02178742
33	0xbba54578	-0.0050436817
34	0x3d27eeed	0.04099934
35	0x3d15d396	0.036578737
36	0xbc9df5af	-0.01928219
37	0x3c51235f	0.012764781
38	0x3c858a03	0.01630116
39	0xbcdfba8a	-0.027310628
40	0x3d0ae739	0.033911917
41	0x3d12e576	0.035863362
42	0x3bc91997	0.0061370838
43	0xbd28fe88	-0.041258365
44	0x3af4f94b	0.0018690018
45	0xbcbdbf2d	-0.023162449
46	0xbc81064f	-0.015750078
47	0x3d2e33a0	0.042529702
48	0xbd157083	-0.036484253
49	0xbc336e5f	-0.0109516075
50	0x3ccbf00a	0.024894733
51	0xbbf70c82	-0.007539333
52	0x3c8f1e7a	0.017470587
53	0x3bb5ea38	0.0055516027
54	0x3cdb13c4	0.026742823
55	0x3c9790d4	0.018501677
56	0x3a69e172	0.00089218386
57	0x3bba04c7	0.005676839
58	0xbcfab74a	-0.030604977
59	0x3bed1682	0.007235349
60	0xbd1dfccf	-0.038571175
61	0x3d04f29f	0.032457944
62	0x3c413b56	0.011793932
63	0xbcd1e3c1	-0.025621297

batch_norm_2.weight f4 [64]
0	0x3f80a76f	1.0051097
1	0x3f7d708d	0.98999864
2	0x3f77b4ef	0.9676046
3	0x3f6d67ba	0.927364
4	0x3f979328	1.1841784
5	0x3f7ff9f5	0.9999078
6	0x3f89b624	1.075871
7	0x3f7edaab	0.9955241
8	0x3f6550e8	0.8957658
9	0x3f7b3858	0.9813285
10	0x3f84fab9	1.0389014
11	0x3f9824dc	1.1886249
12	0x3f6ce1f3	0.9253227
13	0x3f651d5d	0.8949793
14	0x3f58c706	0.84678686
15	0x3f4dcfb0	0.8039503
16	0x3f5ca21c	0.8618486
17	0x3f85f208	1.0464487
18	0x3f3d6599	0.7398315
19	0x3f940dcd	1.1566712
20	0x3f9e4673	1.2365249
21	0x3f5570a1	0.83374983
22	0x3f92b74c	1.1462188
23	0x3f57c693	0.84287375
24	0x3f438215	0.76370364
25	0x3f5cac06	0.86199987
26	0x3f6b6bd4	0.9196141
27	0x3f6f4d2c	0.9347713
28	0x3f473461	0.778143
29	0x3f61c3c4	0.8818934
30	0x3fad322f	1.353094
31	0x3f504d4b	0.8136794
32	0x3f610a05	0.87905914
33	0x3f415977	0.7552714
34	0x3f85602a	1.0419972
35	0x3f46ec8f	0.7770471
36	0x3f6d572b	0.9271113
37	0x3f6ee9f8	0.9332576
38	0x3f66363a	0.89926493
39	0x3f73f573	0.952964
40	0x3f6f05a7	0.93368
41	0x3f5282d9	0.8223091
42	0x3f4d112a	0.80104315
43	0x3f6f5013	0.9348156
44	0x3f9afae3	1.2107815
45	0x3f8a3b76	1.0799396
46	0x3fa335da	1.2750809
47	0x3f85dff7	1.0458974
48	0x3f6a18cb	0.9144408
49	0x3f615d63	0.8803312
50	0x3f5ca493	0.8618862
51	0x3f81a1c0	1.0127487
52	0x3f35198e	0.7074212
53	0x3f6cba1f	0.924715
54	0x3f72ab81	0.94792944
55	0x3f9521ba	1.1650918
56	0x3f5fa8e2	0.8736707
57	0x3f5ecfe7	0.87035984
58	0x3f23b1e3	0.6394331
59	0x3f645544	0.89192605
60	0x3f831e2b	1.0243582
61	0x3f81a626	1.012883
62	0x3f2f51ff	0.6848449
63	0x3f4d9a37	0.8031344
